stockforecasting/300078_model.pkl (torch, 858496 bytes, 14 tensors)

weight_ih_l0 f4 [512, 4]
000000 d0 22 0b bd e9 3e 98 3d 8c d1 aa 3c d0 dd 4d bd
       -0.033968747 0.07433874 0.020851873 -0.050260365
000010 25 3e 49 bd 77 ab dc 3c d6 d2 2d 3d bb 4b 09 3c
       -0.04913153 0.02693723 0.042437397 0.008379872
000020 dc a1 7c 3d 9b 4a 64 3c d9 ca 14 bd f1 4c 20 bd
       0.0616778 0.013933803 -0.036326263 -0.039135877
000030 ff da 1e 3d e5 d7 92 3d f1 f1 09 3d a7 c8 77 bd
       0.03878307 0.07170085 0.033678 -0.06049409
000040 7b b9 a6 3c d3 cd 49 3d 5e 93 c1 3d 5c ee c2 3d
       0.020352116 0.049268555 0.09451936 0.0951812
000050 dd a2 49 3d f1 f0 84 3d 24 05 d3 3d 92 17 29 bd
       0.049227584 0.064912684 0.10303715 -0.041282244
000060 f8 ad 57 3d ae 61 fd bb 46 0c 32 bd f1 be 80 bd
       0.052656144 -0.0077325916 -0.043468736 -0.06286419
000070 75 15 79 3d eb 44 01 3d f3 e6 17 3d 40 4b 50 bd
       0.06081148 0.031559866 0.037085485 -0.050853014
000080 fc e0 17 3d f9 b0 ae 3c ff b1 a9 3c 28 85 59 3c
       0.037079796 0.021324622 0.020714758 0.013276376
000090 47 47 38 3d 3b 23 c2 3d 09 1f 61 3d 9d 19 23 3d
       0.04498985 0.09479376 0.054961238 0.03981935
0000a0 3b aa 96 bc dd 89 a1 3d 0b bc 3a 3c 98 c5 06 3e
       -0.01839172 0.078876235 0.011397372 0.13161314
0000b0 e4 87 90 bc e2 f3 90 bc 7a 37 3c bd 37 70 56 3d
       -0.017642923 -0.017694417 -0.045951344 0.05235311
0000c0 a4 37 91 3d 9b d2 2b 3e 26 07 ed 3c 2a a0 83 3c
       0.07090691 0.16779558 0.028934073 0.016067583
0000d0 f6 13 39 bd cd 95 94 3d 87 30 88 3c 13 e7 96 3c
       -0.04518505 0.07255135 0.016624702 0.018420732
0000e0 76 11 ad bd 08 b1 b8 bd 1e fd 56 3d dc 29 79 bd
       -0.08450596 -0.09018141 0.052487485 -0.060830936
0000f0 32 cc 1d 3d 9e 92 a2 3d 41 20 4c 3d b7 3f 9b 3d
       0.038524814 0.07938121 0.049835447 0.07580512
000100 db 85 c5 bd bf c8 83 bd 79 c6 8e bd da e9 88 3d
       -0.096446715 -0.06434774 -0.069714494 0.06685229
000110 3c 8b d8 bc 09 3a 83 3d 62 fa 0d 3d 84 e0 36 3d
       -0.02643358 0.06407554 0.03466261 0.04464771
000120 69 e6 0c 3d c5 80 b5 bc 4c 70 be bc 46 38 bb 3c
       0.034399424 -0.022156129 -0.023246907 0.022853982
000130 09 9b b4 bd c6 18 be 3c 10 f6 11 3d 04 f8 f4 3c
       -0.08818633 0.023205172 0.035635054 0.02990342
000140 04 39 0e bb c6 2f 19 bd 33 50 76 3b f0 66 82 3d
       -0.0021701464 -0.037399076 0.0037584424 0.0636729
000150 16 00 81 bc 27 29 81 bd 17 e0 23 3d b2 dc a7 3c
       -0.015747111 -0.06306677 0.04000863 0.020490978
000160 21 f6 c4 3d ca 9f c5 3d 89 fb 26 3c 2d 1e 5f 3d
       0.09617258 0.09649618 0.010191807 0.054472137
000170 c1 11 92 3b 91 17 a4 3d 05 47 c5 3d 5c fe af bc
       0.004457683 0.080123074 0.096326865 -0.021483593
000180 99 51 1f bc 54 9f 39 3d 1b da 88 bd 32 f0 4f bd
       -0.009724044 0.045317963 -0.06682225 -0.050766177
000190 28 8d f5 bb a9 ac d6 3c 27 22 60 3d 4f 76 fa bb
       -0.007493634 0.026205378 0.05472007 -0.007643498
0001a0 0d 22 83 3d 30 f0 21 3d 5a 4d 90 3d 22 85 27 3c
       0.06402979 0.0395357 0.07046004 0.010224612
0001b0 05 ee a5 3d d2 d3 2e bc 02 1c 31 3d 2a 49 8c bc
       0.08102039 -0.010670619 0.0432396 -0.017124731
0001c0 39 a8 28 bb 3f 11 34 3c 89 05 00 bc 93 e3 c5 3d
       -0.0025735034 0.01099044 -0.00781382 0.09662547
0001d0 a2 7e 9d 3d 0f dc 1b bd e6 bb 4d bd 40 43 1a 3d
       0.07690169 -0.03805166 -0.050228022 0.03766179
0001e0 30 6a 99 bc 39 ad 41 bd cd 40 6b 3d fd b4 02 3d
       -0.018727392 -0.04728434 0.057434846 0.031910885
0001f0 f0 ec 63 3d 33 34 84 bd 1b 5e 37 3d ab d0 88 bd
       0.055645883 -0.06455269 0.04476748 -0.06680425
000200 22 ce b5 3d 87 2c df bc c4 b4 80 3d b3 24 5d 3d
       0.08877207 -0.027242912 0.06284478 0.053990077
000210 3d ab a5 3d 0d 71 18 3d 51 58 92 3b 6a c4 61 3d
       0.08089302 0.03721719 0.0044660945 0.055118956
000220 cc dd 29 bd c1 a5 c0 3c be 8a e3 3c bb 34 14 3e
       -0.041471288 0.023516538 0.027776118 0.1447324
000230 b7 0a 99 3d e8 9d 1a bd 7c 6c 48 bd dd e7 34 3d
       0.07472747 -0.037748247 -0.048931584 0.044166435
000240 5b fb a4 3d 44 c0 07 bd 89 0a 31 3b 07 44 c6 3d
       0.08055755 -0.033142343 0.0027014336 0.09680944
000250 d6 cb 17 3a 92 b8 66 3d 11 8f 9a 3d 1b 42 7a bd
       0.0005790567 0.056328364 0.07546819 -0.0610982
000260 f9 7b af bd a9 19 87 3b eb 57 3a 3d f7 92 d1 3d
       -0.08568568 0.004122932 0.045494 0.102331094
000270 d6 e9 fc 3c 9e fd e8 bc b9 2f d6 bc 5e 1a 89 bc
       0.03087322 -0.028441247 -0.026145803 -0.016736206
000280 a6 5a bb 3c 1a 7c d6 3d 95 45 fd 38 8a 1c 05 3e
       0.022870373 0.10472889 0.00012076941 0.12999168
000290 8a 46 2e bd df 12 03 bc 45 8e 51 3d 64 a8 b2 3d
       -0.04254774 -0.008000105 0.05116107 0.08723524
0002a0 44 3b cf 3d 7f ed a2 3d 8f b0 7c bd 03 09 90 3d
       0.10118726 0.07955455 -0.061691817 0.07032969
0002b0 a9 b0 ed 3b d2 e8 f6 bc f9 95 b3 3d 30 a1 83 3c
       0.0072537255 -0.030140314 0.087688394 0.016068071
0002c0 eb 13 5c bc e3 e0 d4 3d b4 d4 1a bd d1 9d 27 3c
       -0.013432483 0.10394456 -0.037800506 0.010230497
0002d0 0b 74 2e bc 78 42 8f 3b b0 4e 82 bd fb 98 cd 3c
       -0.010647784 0.0043719374 -0.06362665 0.02509736
0002e0 21 9b 0a bc ae f2 cf 3d 99 61 18 bd 78 fd 60 3c
       -0.008459837 0.10153709 -0.03720245 0.013732307
0002f0 bf ac b3 bc 01 b5 2a 3d a6 68 de 3d 76 93 2a bc
       -0.021932958 0.041676525 0.10859804 -0.010411134
000300 80 b6 aa 3c ba eb 22 bd 35 03 5e 3d bc 73 79 3b
       0.020838976 -0.039775588 0.054202277 0.0038063368
000310 4c b3 9e bc bd af 65 3c 38 f6 ff 3c a1 b7 70 bb
       -0.019372605 0.01401895 0.031245336 -0.0036730545
000320 fc e8 33 bd 0a 8e cd 3c 36 7f c4 3d 20 fc 06 bd
       -0.043923363 0.025092144 0.09594576 -0.03295529
000330 17 90 56 bd 66 59 80 3d fc e5 c3 bc 27 cb 68 3c
       -0.05238351 0.062670514 -0.023913376 0.014208592
000340 7e 19 4e bd 33 be 97 bc f3 ef 33 3c 45 1c eb 3d
       -0.05031728 -0.018523311 0.010982501 0.11480001
000350 3f 89 14 3c f0 20 86 3d ae 38 1c 3d 33 e7 c5 3c
       0.009065925 0.06549251 0.03813999 0.024158096
000360 f2 a9 84 bc eb a4 96 bd 3e 15 74 3d 26 23 77 bd
       -0.016194317 -0.07355674 0.05959057 -0.060336255
000370 d2 76 62 3d 01 40 c7 bb c4 3f 24 ba 3f 32 dc bc
       0.055289097 -0.006080628 -0.00062656053 -0.026879428
000380 a5 f9 a8 3b 9b aa 27 3d 1d 5f 27 3d 22 3a 2e 3d
       0.005156713 0.040934186 0.04086219 0.04253591
000390 fb 6c 0a 3d 94 14 df bc 23 b2 8f bc fa 34 d0 ba
       0.033795338 -0.027231492 -0.017540997 -0.0015884929
0003a0 5c d6 94 3d 27 ee 4e bd 5b e0 cf bc 0c 13 b7 bc
       0.07267448 -0.05052009 -0.025375536 -0.02234795
0003b0 92 5b 84 3c 37 5b 7b bd d3 7d 88 bd 43 f4 af 3d
       0.016156945 -0.061366286 -0.06664624 0.08591511
0003c0 e5 21 59 bd 77 88 31 bd 56 22 c0 bb 19 17 a0 3d
       -0.05301084 -0.043343034 -0.005863468 0.078169055
0003d0 09 c4 51 3b d2 cd 13 3d 95 48 8e bd 67 e0 be 3c
       0.0032007715 0.036084957 -0.06947438 0.023300363
0003e0 ed 99 88 3d 97 10 ce 3c 9d 71 a0 3d c7 3a 13 bc
       0.06669984 0.025154395 0.0783417 -0.008986182
0003f0 98 44 93 bc 81 e6 13 3d a9 f5 82 bd 1f 39 ee 3b
       -0.017977044 0.036108498 -0.06394512 0.007269993

weight_hh_l0 f4 [512, 128]
000000 ee 90 b4 bd 28 28 57 bd c6 40 2c bd 2a 64 b9 3c
       -0.08816706 -0.05252853 -0.04205396 0.02263077
000010 7b 7e cf 3d ce 9b c1 3d 9a d5 31 3d b6 d2 a7 bc
       0.10131546 0.094535455 0.043416597 -0.020486217
000020 80 9a 6c 3d d1 ec 17 bd 47 9a 34 3d 4f da ab 3d
       0.05776453 -0.03709108 0.044092443 0.083912484
000030 21 6f 5d bd eb 1b 8d bc 63 b8 b1 3d 95 6f e2 bd
       -0.05406106 -0.017225226 0.08677747 -0.11056439
000040 45 33 28 3d 10 6a cf bc 64 bb 06 bd 1e fd 99 3b
       0.04106452 -0.02531913 -0.032893553 0.0046993634
000050 f6 c7 20 bd af 99 c2 3d 00 0b ff 3c 3b 97 ab 3b
       -0.039253198 0.09501969 0.031133175 0.005236534
000060 33 31 01 3d a5 42 ba 3d b3 cb d8 3d 47 53 85 b7
       0.03154106 0.09094743 0.105857275 -1.5893615e-05
000070 96 cf 47 3c 60 6f 4e bb 42 ea 93 3c 0a d8 65 3d
       0.012195488 -0.003149949 0.018056039 0.056114234
000080 ec 9c d7 3d 0c ea 8c 3c 89 3d 8f 3d f5 87 3f bc
       0.10527977 0.017201446 0.06994159 -0.0116901295
000090 d8 b6 c8 3c 48 ba c0 3d 42 bb 5d 3b a6 3e 97 3d
       0.02450125 0.0941053 0.0033833538 0.07384996
0000a0 96 f0 e2 3c e4 b0 13 3d 0c c7 c2 bc bc 7b 46 3d
       0.027702611 0.036057368 -0.023776554 0.048457846
0000b0 27 8f bc 3c db 4c 96 bc 6b f0 ee 3c 29 ce e6 bd
       0.02301748 -0.018347194 0.029167375 -0.11269791
0000c0 84 40 8e 3d 23 83 5c 3c 42 47 0b 3d 8c 29 ce bc
       0.06945899 0.013459 0.034003504 -0.025166295
0000d0 02 0a a8 3b 7e b4 41 3d b2 5a 21 bd 7b dd 4a bd
       0.005128146 0.04729127 -0.039393134 -0.049527626
0000e0 5d 95 f5 3c 6c d6 15 3d b8 10 0d 3d c3 db 93 3d
       0.029978449 0.03658144 0.034439772 0.072196506
0000f0 97 70 39 bd b1 d3 0c 3c 59 05 85 3d ca cd 4f bd
       -0.04527339 0.008595393 0.064951606 -0.050733365
000100 59 1a 58 bd 8a b9 f5 bd 92 00 3b bc 50 9f f4 3d
       -0.052759502 -0.119982794 -0.01141371 0.11944449
000110 70 de e9 bb 80 93 d1 bd d6 ae 37 bd 6c ac cb 3d
       -0.0071371123 -0.102332115 -0.04484447 0.09944996
000120 cf 19 92 3c be 2f e5 3d a4 b9 a6 bc de 2c c6 bc
       0.017834572 0.11190747 -0.020352192 -0.024191316
000130 ec 78 ad 3d a8 3b 17 3c f5 64 b1 bd ea 93 85 bd
       0.0847033 0.009230532 -0.08661834 -0.06522353
000140 8e 8a e7 3b 34 ad bc 3d c0 91 80 3d 60 7e 6e bd
       0.0070660776 0.092127234 0.062777996 -0.05822599
000150 77 ce 8c 3c 5d cd f5 3d 01 e9 0a bc 32 73 40 3d
       0.017188294 0.120020606 -0.008478404 0.04698486
000160 52 ed 14 bc f5 24 fe bb ef 3a 99 3c 39 f8 79 3c
       -0.009089785 -0.0077558705 0.01870486 0.015256935
000170 aa 0b 64 bd fe e3 b4 bc 03 d3 b5 bd 0d 74 29 bc
       -0.055675186 -0.022081371 -0.08878138 -0.01034261
000180 c2 cc 85 3d 45 65 92 bd 90 10 51 bc 4e 90 d4 bb
       0.06533195 -0.07148222 -0.012760296 -0.006486929
000190 1e 1d 77 3b d2 b6 5f b8 28 16 f3 3c e4 90 e6 3d
       0.0037706564 -5.3337608e-05 0.02967365 0.112581044
0001a0 a6 91 2c 3d 9e b9 f8 bd 19 58 83 bd 9b 8a b1 3d
       0.04213109 -0.12144779 -0.06413288 0.08669015
0001b0 70 cc 3d bc 42 67 94 3d ba 1d ee bd f8 1f 3d 3d
       -0.011584386 0.07246257 -0.11626764 0.046173066
0001c0 53 94 c1 3d 35 81 6a bd 9e 38 1c bd 27 f9 5f 3d
       0.09452119 -0.057252128 -0.03813993 0.05468097
0001d0 44 2c a2 bc 4b a9 10 3d 58 88 9b 3c e5 8e eb ba
       -0.019796498 0.0353177 0.018985912 -0.0017971663
0001e0 ec 57 06 bd 5a c2 83 3d 2b 43 e5 3d d1 49 71 bc
       -0.032798693 0.06433554 0.11194452 -0.014727072
0001f0 d0 ed 69 bd 7d bc fe 3d dd 4c ff bd 4c bd 83 bd
       -0.05711156 0.12438295 -0.124658324 -0.0643259
000200 b0 85 90 bc db 91 b1 3c 55 ab a9 3d 44 4b d6 3d
       -0.017641872 0.021675995 0.08284632 0.104635745
000210 8f 12 71 bd de c9 50 3c bb 6b 78 bd bf 28 46 bd
       -0.05885559 0.012743441 -0.060649615 -0.048378702
000220 31 fd 57 3c a5 83 06 bd 77 a4 95 3d 05 06 7e bd
       0.013182924 -0.03284039 0.0730676 -0.06201746
000230 73 18 10 bd ac 76 e0 bb 65 d4 c4 3b fb c5 c1 3c
       -0.035179567 -0.0068500843 0.0060067647 0.023653975
000240 2f 70 6f 3d 80 e8 71 bd c6 8c 27 3d 71 94 be bd
       0.058456596 -0.05905962 0.040905736 -0.09305657
000250 c2 94 6a bd 71 70 a1 bd 07 3c 10 bd 9d 92 80 3d
       -0.057270773 -0.078827746 -0.035213497 0.06277964
000260 dc 55 4d bd 84 e4 90 3c 2d 28 94 3d d1 0b c1 bd
       -0.05013071 0.01768709 0.072342254 -0.09426082
000270 30 d0 4d bd 4b 1c 7a bd be f3 1c bb 11 11 11 bd
       -0.05024737 -0.06106214 -0.0023948993 -0.035416666
000280 c9 cc df bc 93 a4 47 bb dc 36 25 bd f4 95 a3 bd
       -0.027319329 -0.0030463084 -0.04033552 -0.07987586
000290 5e c7 00 3d be a7 58 3d 3a 99 a9 3d 9f cd 8a 3d
       0.03144013 0.052894346 0.08281179 0.067775
0002a0 b9 e5 2e 3d f1 b1 d9 bd 4f 10 bd ba bd e4 bd bd
       0.04269955 -0.10629643 -0.0014424416 -0.09272144
0002b0 da 04 31 bd e5 7f 57 bd 60 fd 51 bd 20 c0 0f 3c
       -0.043217517 -0.052612204 -0.051267028 0.0087738335
0002c0 b0 79 e6 bc fc a4 ae bb a6 19 61 3d 1a d4 6d 3d
       -0.028134197 -0.0053297263 0.0549561 0.058063604
0002d0 9c 7e 13 3d 5c e3 e9 3c 9a 4f 41 3d fe fd f5 bb
       0.036009416 0.028550796 0.047195055 -0.007507085
0002e0 8f dd c2 3d 72 6e 4c 3d dc cf 93 bd 53 52 1f 3d
       0.09514915 0.049910016 -0.072173804 0.03889687
0002f0 49 13 a9 bd 08 8e 3b 3d 33 5f a3 bd f3 9d 63 3c
       -0.082556315 0.04578975 -0.07977142 0.0138926385
000300 9b 8e a8 bd e3 f5 d1 3b 8c aa 89 3c 0d 91 ca 3d
       -0.08230325 0.006407486 0.016804956 0.098909475
000310 ad 7f 1b bd a8 b8 94 3c 4b a3 e1 3c fa c7 1a 3d
       -0.037963558 0.018154457 0.027543684 0.03778837
000320 f8 9e 4b 3c 8e 12 9d bc 66 a2 87 3b 48 3c 86 bd
       0.012428038 -0.019173887 0.0041392324 -0.065544665
000330 63 e5 a3 bb 9e 21 49 bd e9 1b 54 bd 74 6b a0 bd
       -0.0050017103 -0.049104325 -0.05178443 -0.07832995
000340 16 c1 3d bd 27 7b 58 3d 0a dd c4 3d e2 30 ee ba
       -0.04632672 0.052851822 0.09612472 -0.0018172527
000350 c8 f5 be bd 4a 6d 1b 3b f7 a3 5e 3d c6 16 01 3d
       -0.09324223 0.0023716264 0.054355588 0.03151586
000360 c3 41 26 3d ea 50 bf 3d b7 c1 b9 bd 8f bf 06 3c
       0.04059006 0.09341605 -0.09070151 0.008224382
000370 9b 22 5a bd 1d 5d aa bc 42 27 15 3d 92 3f 14 bd
       -0.05325566 -0.020796353 0.036414392 -0.036193438
000380 88 13 4c 3d 15 79 c0 bc 7a 3d 83 bd 43 7e 3b 3d
       0.049823314 -0.023495236 -0.0640821 0.04577471
000390 77 8d ca 3d 83 fe 8d bd e3 d7 24 3d 03 4a e5 3a
       0.098902635 -0.0693331 0.040244948 0.0017493371
0003a0 23 55 68 bc 7f fd 83 bd af 8c 06 3b 65 8c 45 3b
       -0.014180454 -0.06444835 0.0020530631 0.0030143496
0003b0 82 94 8c 3d 62 f9 80 bc d3 c8 72 bd 6c f3 bb 3c
       0.06864263 -0.015743915 -0.059273552 0.022943221
0003c0 64 30 00 bd 09 5b 7a bd 57 66 3f 3d f3 f9 38 3c
       -0.03129615 -0.061121974 0.04672846 0.011290061
0003d0 b3 8a 06 bc b2 64 30 bd 1c 0e 0f 3d d0 43 be 3d
       -0.008211779 -0.04306478 0.034925565 0.09290278
0003e0 e3 95 15 bd 59 f5 35 3d 0e 5f 79 3c c4 3c 4e bc
       -0.036519896 0.044423435 0.015220417 -0.01258773
0003f0 a6 91 37 bc 22 df 1e 3d ff 68 d3 3c 19 61 51 bd
       -0.011204159 0.038787015 0.025806902 -0.05111799

bias_ih_l0 f4 [512]
000000 31 e5 fd bc c3 af 2d 3d a7 80 b8 3c bd 73 9d bd
       -0.030993076 0.042403948 0.022522284 -0.07688091
000010 e7 c9 f7 3d 82 d6 b7 3d 06 2b 80 bc 3b 6a a1 3d
       0.12099057 0.08976461 -0.015645515 0.0788159
000020 92 3e b0 3d ce 76 af 3d 18 43 2e 3e 8a 8c be 3c
       0.08605684 0.08567582 0.17017782 0.023260374
000030 4b b1 1a 3e e7 43 5c 3d 28 c8 be 3c c0 69 84 3d
       0.15106694 0.053775694 0.023288801 0.06465483
000040 c2 d9 35 3d 17 bf e7 3d 05 85 b6 3d 0a 32 eb 3d
       0.044397123 0.11315744 0.0891209 0.114841536
000050 c5 6b 5d bd d8 0b 31 bd c8 28 a5 3d d6 f5 d0 3c
       -0.054057855 -0.043224186 0.08064419 0.025507849
000060 71 a8 98 3a ff cc 1a 3c 64 69 d4 3d 79 66 9a 3d
       0.0011646879 0.009448289 0.10371664 0.07539076
000070 45 7a 67 3d 11 9c 98 3d 9e 39 a0 3c 03 5c 86 bd
       0.05651309 0.07451642 0.019558724 -0.065605186
000080 0d 9b 12 bd 18 8f 4d bc 43 b8 be 3d 43 61 8e 3d
       -0.0357924 -0.012546323 0.09312489 0.06952145
000090 d9 28 c9 bd 04 c8 13 3d 03 2a 17 3c de 79 27 bc
       -0.09822244 0.03607942 0.009226325 -0.0102219265
0000a0 6f 52 07 3d e7 ab 06 3d fb d1 de 3c 72 39 47 bd
       0.0330376 0.032878783 0.027199736 -0.04863877
0000b0 57 de 3d bd 6d e9 5d 3d ca 2e cf bd 4c 0a 7c 3d
       -0.046354618 0.05417769 -0.10116346 0.061533257
0000c0 61 02 89 3b 58 81 9a 3d eb 11 68 bd 03 ac 17 3d
       0.004181192 0.075442016 -0.056657713 0.037029278
0000d0 26 50 0e 3d fd 1c 14 3d cc bc 5d bd f9 9b 95 bc
       0.034744404 0.036160458 -0.05413513 -0.01826285
0000e0 29 2c 5f 3b 1c 52 28 3d a1 54 a4 3d a3 aa 80 bd
       0.003405342 0.04109393 0.08023954 -0.06282546
0000f0 0e aa 51 3d 89 0a ad bc b5 63 51 3c 2f dc af 3d
       0.051187567 -0.021123188 0.01278012 0.085869186
000100 4b 6f c6 bc 56 e2 0e 3e 19 df 31 3d 11 31 95 bd
       -0.02422299 0.13953528 0.043425653 -0.07284749
000110 36 20 87 bc 81 61 6f bd 09 8c 9d 3a 98 4d a6 3d
       -0.016494852 -0.058442596 0.0012019883 0.081202686
000120 e0 76 0d 3e ff e8 8c 3d ca ff 3c 3d 5a 8c 61 bd
       0.13814878 0.06880378 0.046142377 -0.05506549
000130 22 f4 12 bd 67 3f f1 3c 1c a7 14 3d 54 b4 74 3d
       -0.035877354 0.029449178 0.03629218 0.059742287
000140 05 8e ca 3c 76 da b2 3d cb 44 e3 bc b6 06 dd 3d
       0.024725923 0.08733074 -0.027742764 0.10792296
000150 47 cf 62 bc 8f 31 2e 3d 7d 01 ec bc a5 85 8c 3a
       -0.013843364 0.04252773 -0.028809303 0.0010720982
000160 ce df 95 3c 39 4f 29 3d 0c 36 89 bd 85 d2 03 bd
       0.018295195 0.04133532 -0.06699762 -0.03218319
000170 7a 6c a7 3d ad 58 c4 3b 71 02 53 3d 0c 6c b5 3d
       0.08174987 0.0059920163 0.051516 0.08858499
000180 a7 c9 82 3b 14 69 98 3d de 48 d3 bb 7f fa c5 bd
       0.003991324 0.07441917 -0.0064478954 -0.09666919
000190 a6 dd b1 3c 7e f2 76 3d e3 04 0f 3c f5 79 16 3d
       0.021712136 0.060289852 0.008729192 0.0367374
0001a0 e3 8c 4c bd de 46 6b bd da 06 72 3d d0 84 9c 3c
       -0.049939048 -0.05744063 0.059088565 0.019106299
0001b0 91 ac b7 3c 9d 73 34 3d 3e 5c 5f 3d c8 c9 56 3d
       0.022421153 0.04405557 0.05453133 0.052438527
0001c0 28 22 92 bb 8e a6 a6 3d 76 ef 17 3d 71 bf dc 3d
       -0.004459638 0.081372365 0.037093602 0.10778702
0001d0 fd 96 ae bd 44 c0 28 bc 62 81 36 3d e7 ce 91 3d
       -0.085248925 -0.010299746 0.044556983 0.071195416
0001e0 d8 47 7b 3c cd 07 35 bd 16 d1 a7 3d 82 64 fc 3d
       0.015336953 -0.044196893 0.08194177 0.12323858
0001f0 62 ec 06 bd d7 05 0d 3d 7c 00 b4 bd 3f 60 a1 3d
       -0.032940276 0.034429397 -0.08789155 0.078796856
000200 5e ad 8c bc 23 ab 80 bb e8 88 76 bd b8 ce 91 bd
       -0.017172512 -0.003926651 -0.060189158 -0.071195066
000210 bd 88 90 bd fa b8 94 bc f5 3f 2e bd 83 20 89 3d
       -0.07057331 -0.01815461 -0.042541463 0.06695654
000220 d4 ba e7 bc eb e5 b3 bd be e9 81 bd cd b0 b0 bd
       -0.028287329 -0.08784088 -0.06343411 -0.08627472
000230 4e 74 9f 3b 32 b9 6f bd fb 7a a1 bd ce 9d 91 bd
       0.0048661595 -0.058526225 -0.07884785 -0.07110177
000240 8a ad de bc 91 d4 58 3c 06 33 93 bc 66 63 4d bd
       -0.02718236 0.0132342735 -0.017968666 -0.05014362
000250 25 e2 39 3d 6b f1 c1 bd 24 70 3a ba e6 71 b8 bd
       0.045381684 -0.09469875 -0.0007112047 -0.090060994
000260 13 bf 99 bd 4b df 9c 3d 0e 13 2b bc 4f b6 ff 3c
       -0.07507148 0.07659777 -0.010441555 0.031214861
000270 49 44 38 3d 9d b7 2f 3d f3 af 45 3d 81 e7 20 3d
       0.044986997 0.042899717 0.0482635 0.03928328
000280 8b ff 9f 3b 56 93 7c 3b 93 b4 2a 3d 76 43 8d 3d
       0.004882758 0.0038539967 0.041676115 0.06897633
000290 9e 42 9e bc d1 8c 66 3d 7c ec d7 3c 64 8b 7e bd
       -0.019318875 0.056286637 0.026357882 -0.062144652
0002a0 a4 c7 09 3d dd cf 96 bd 77 bf 10 3d e4 ef a9 bc
       0.033637658 -0.073638655 0.035338845 -0.020744272
0002b0 ce c8 92 3d 45 0f b9 bd 33 3c 94 bd 3e 7c 47 3d
       0.07167207 -0.090361156 -0.072380446 0.04870247
0002c0 9c 95 d3 38 5c cc e1 bd 11 47 8b 3d 2b 38 4c 3d
       0.00010089131 -0.110253066 0.06800664 0.049858253
0002d0 44 2e 79 bd 24 05 0e bd f3 8e 4d 3b 0e e9 a0 3c
       -0.060835138 -0.03467287 0.0031365722 0.01964238
0002e0 3d 38 ee bc 75 ea ae 3d 11 b4 d0 3c 7d a9 b4 3c
       -0.02907955 0.08540813 0.025476487 0.022053475
0002f0 3c dc 36 bc e4 88 a4 bd 6b a2 ae bd 4a a2 02 bd
       -0.011160906 -0.08033922 -0.085270725 -0.031893052
000300 ee 08 b1 bc 50 f4 92 3c 45 63 4e 3d d5 fd 3b 3d
       -0.021610703 0.017938763 0.05038764 0.04589637
000310 5e a0 e4 3b d6 60 8d bc 05 12 ae 3d d8 af 99 3d
       0.006977125 -0.017258089 0.08499531 0.07504243
000320 75 f5 68 bd a6 9e b4 3d 77 9c 19 3b 86 ca 8c bd
       -0.05687471 0.08819322 0.0023439208 -0.06874566
000330 f5 b2 58 bc f7 27 26 bd 97 a9 9d bd 0b 37 62 3d
       -0.01322626 -0.040565457 -0.07698362 0.055228274
000340 0f 23 b6 bd 03 12 b9 bc f6 bc 3b bd f5 99 f5 bc
       -0.08893406 -0.022591596 -0.045834504 -0.029980639
000350 61 11 af bc df 66 70 bd a1 8d fb bc 73 ef d6 bc
       -0.021370592 -0.058691856 -0.030707182 -0.026237225
000360 d3 ba 37 be 73 35 b8 3c 6e 35 f8 3c 1d 3c 60 bd
       -0.17942362 0.022486424 0.030298915 -0.05474483
000370 9d 1e 72 bd 0c 34 98 3b 61 ad 4b bd 77 02 ca 3c
       -0.059111226 0.0046448763 -0.049725894 0.024659378
000380 aa ab bf 3c fe f9 84 3c 95 f3 e8 3c 92 5c b1 bd
       0.023397285 0.016232487 0.028436461 -0.086602345
000390 e6 2c 86 bd b0 19 ba bd 40 2f 22 bc 80 38 80 bc
       -0.065515324 -0.09086931 -0.009898961 -0.015651941
0003a0 3f ec 7d bd a6 71 9f 3d 2b 93 28 bd db 9e 6a bd
       -0.06199288 0.077853486 -0.041155975 -0.057280403
0003b0 22 d1 32 bd 15 74 5d 3d 6a 8b d7 3c 5d cd f5 bc
       -0.043656476 0.054065783 0.026311595 -0.030005151
0003c0 90 d0 2f 3d ad be 41 bd 42 46 51 3b 20 96 db bd
       0.04292351 -0.047300983 0.0031932746 -0.107219934
0003d0 97 f5 cd bc cd 6a 86 3b 5a 32 8a bc cc 00 74 bc
       -0.02514152 0.004102087 -0.016869713 -0.014892768
0003e0 72 94 1e 3c c5 ea ab bd 10 8f a8 bd 65 d1 67 bd
       0.009678947 -0.08394388 -0.08230412 -0.05659618
0003f0 24 d8 73 bc 5e 00 8e 3d c8 ca 73 3d 19 a2 79 3d
       -0.014883075 0.06933664 0.05951956 0.060945604

bias_hh_l0 f4 [512]
000000 80 db 85 3d 33 8e cb 3d 84 39 22 3d 01 fa 85 3d
       0.06536007 0.09939232 0.039605632 0.06541825
000010 29 07 03 3e dc 2e ad ba d2 0b 99 bb 67 07 06 3b
       0.127957 -0.0013212818 -0.0046705985 0.002045119
000020 ef e3 8e bd 6f 26 93 bd 86 49 02 3d e8 aa aa bb
       -0.06977069 -0.07185065 0.0318084 -0.005208362
000030 17 ff 0d 3e bf af ed 3c 38 77 9d 3d 83 97 bf 3c
       0.1386684 0.029014466 0.07688755 0.023387676
000040 6a 27 95 3c 81 a6 37 3d 0d 90 bf 3d ec 6e ff bc
       0.01820727 0.044836525 0.093536474 -0.031180821
000050 22 84 53 3c 2e 1d 11 3d cc e5 22 3d 71 60 51 bd
       0.012909921 0.03542822 0.039769933 -0.051117364
000060 9d 03 58 3d 61 7b 05 bd 6f 68 66 3b d2 ed 15 bd
       0.05273782 -0.032588366 0.0035157462 -0.036603756
000070 6f e8 3e bd 14 b8 b5 3c 20 33 63 3d 20 78 c8 bc
       -0.046608385 0.022182502 0.05546868 -0.024471343
000080 47 ab d6 3c 60 d5 6e bd 5c e5 90 bb b8 9d 4e 3d
       0.026204718 -0.05830896 -0.004421873 0.05044338
000090 a0 9b 8d 3c a6 65 80 3c ee 31 19 bc b4 d9 d3 3c
       0.017286122 0.01567347 -0.009350283 0.025860645
0000a0 ca 51 0b 3e 6f 8b 6f 3b ce 33 c7 3d 75 8f 42 bd
       0.13605419 0.0036551615 0.09726678 -0.047500093
0000b0 66 8d b2 3d 02 35 dc 3c a3 21 ba 3c 70 cf b8 3c
       0.08718376 0.026880745 0.022721117 0.022559851
0000c0 86 3f 14 3e 4a 11 d3 bc 24 cb 69 bd ff b5 28 bd
       0.14477357 -0.02576508 -0.057078496 -0.04118919
0000d0 57 c6 c3 bd fc de 72 bb 2d 18 86 3d 47 a5 27 bd
       -0.09559315 -0.0037059179 0.0654758 -0.040929105
0000e0 ea 38 e3 bc 5d 47 48 bc 1b fd 8c bc e4 91 16 bd
       -0.0277371 -0.012224046 -0.017210534 -0.036760226
0000f0 d0 a8 3e bd 09 0b ef 3c ad c3 80 bd a5 5c b3 3d
       -0.04654771 0.029180067 -0.06287322 0.08757905
000100 a0 67 06 bd dd fa 9f 3d d8 bc 88 3d c9 36 24 3d
       -0.03281367 0.0781152 0.06676644 0.04009131
000110 d4 9d c3 3d d1 84 d8 bc f5 1f e1 3c 0f cd 3a 3d
       0.09551588 -0.02643052 0.027481059 0.045605715
000120 fe b2 e3 3d 1e 91 49 3d 61 0a 7f bd 34 b7 f0 bc
       0.111181244 0.04921066 -0.062265757 -0.029384233
000130 16 bc b1 bc 5a 08 7c bd 01 7a 9e 3d 1a 1e 81 bd
       -0.021696132 -0.061531402 0.07738114 -0.063045695
000140 a4 53 26 3e bc af 44 bc eb 9e 4f bd 2a fd 19 3e
       0.16242844 -0.012004789 -0.050688665 0.1503798
000150 2c 3d ff bc 79 93 54 bd c5 11 0a 3d 25 dc dc 3c
       -0.031157099 -0.051898453 0.033708353 0.026960442
000160 d8 61 a4 3d 86 b8 5a 3d a1 c7 da 3d df 31 91 3d
       0.08026475 0.05339863 0.106826074 0.0708959
000170 70 fb 84 bd 15 26 01 bd 99 b5 4b bd 3b 82 21 3d
       -0.064932704 -0.03153046 -0.049733732 0.039430838
000180 59 df fd bc 18 2d 6f bc bb 9f 3b bc 6a 8f 99 3c
       -0.03099029 -0.0145981535 -0.011451657 0.018745143
000190 0e 41 48 3d ee c6 2b 3d a2 e2 92 bd e6 c6 6f 3d
       0.048890166 0.04193776 -0.07172133 0.058539294
0001a0 ba fe 39 3c 1c 6a e4 bb 34 00 20 3d 87 b3 89 bd
       0.011352235 -0.006970657 0.039062694 -0.06723695
0001b0 b6 73 98 bd 01 2d 90 3d f6 8f 0e 3d 58 44 36 bd
       -0.07443945 0.07039834 0.03480526 -0.04449877
0001c0 08 60 32 3d 7a 3b 68 ba 85 29 7f bd 63 4f 93 3d
       0.043548614 -0.00088589604 -0.062295455 0.07192876
0001d0 ba d1 aa 3d 5f 6b 71 bb db 65 c4 3d da d5 9a bd
       0.083407834 -0.003683768 0.0958974 -0.0756032
0001e0 f9 1a b0 3c 78 75 b5 bd 32 fc 8f bd d3 7f 04 3e
       0.021497237 -0.08860296 -0.07030524 0.12939386
0001f0 2e db 86 bd 03 fd 4f 3d 0d a5 90 bc e6 a0 58 3c
       -0.06584774 0.0507784 -0.017656827 0.013221955
000200 30 99 59 bd b8 3e 13 3d 1a 58 e5 3c 16 03 6f bc
       -0.053124607 0.035948485 0.027996112 -0.014588138
000210 9a e8 29 3d b4 d8 58 3c 28 1a 8e bd 68 d0 83 bd
       0.04148159 0.01323526 -0.06938583 -0.06436235
000220 14 a0 ac bc e1 5d cf bd b0 cc 43 bd 27 2a 97 bd
       -0.021072425 -0.10125328 -0.047802627 -0.07381087
000230 6a c5 fd bd 8a 5d a9 bc 39 7d 10 3d 35 25 8e bd
       -0.12391169 -0.020674486 0.03527567 -0.069406904
000240 35 86 03 bd 75 ab c7 bc 3a e4 05 bc 59 e9 d5 bd
       -0.03211041 -0.02437375 -0.008172089 -0.10444898
000250 39 09 c3 bd 60 61 1d 3d 17 fa ab bd 67 1c 67 bc
       -0.095232435 0.038422942 -0.0839731 -0.014105893
000260 3d c6 64 3d 82 ae b4 bd 89 de d2 bd f1 72 35 bd
       0.055853117 -0.08822347 -0.102963515 -0.04429907
000270 d3 c3 c5 bc 76 f0 03 3d 63 51 1f 3c 14 90 9c 3d
       -0.024141228 0.032211743 0.009723994 0.07644668
000280 42 8a b5 bd 2d b9 c0 bd 97 8d b8 bc ad f4 bf bd
       -0.08864261 -0.094103195 -0.022528453 -0.0937284
000290 00 13 ca bd 5d 68 ba bc e8 63 53 3d 58 34 b0 3d
       -0.09866905 -0.022754842 0.05160895 0.08603734
0002a0 21 a9 ee bc 8c 2b 9a 3d 17 e8 f0 bc 48 5e ec bc
       -0.029133381 0.07527837 -0.029407544 -0.02885355
0002b0 ec a2 47 ba 01 33 c0 3c c8 df 89 bd 15 28 ca bd
       -0.0007615525 0.02346182 -0.06732136 -0.09870926
0002c0 68 be 41 bd cb c9 a9 3c 9c 11 c7 bc c7 bd d4 bd
       -0.047300726 0.020726105 -0.024300389 -0.1038776
0002d0 f6 80 50 bb 00 11 ae bc a7 25 70 bc f0 4b 2f bd
       -0.0031815148 -0.02124834 -0.0146574145 -0.04279703
0002e0 03 f9 a2 bd ef d6 92 3d 63 3e 2a 3d c7 5c 3d 3d
       -0.079576515 0.071699016 0.041563403 0.046231057
0002f0 98 ea 16 3c 38 bb df bd a0 da fd 3c b2 64 df 3c
       0.009211205 -0.10924381 0.030988038 0.027269695
000300 54 a5 ed bc 26 ae 8c bd 89 94 28 3d ba f9 bd 3c
       -0.029009499 -0.06869154 0.04115728 0.023190368
000310 33 c9 70 bd 3b be 95 3c b9 40 86 3c c5 29 b1 3c
       -0.05878563 0.018279186 0.016388284 0.021626363
000320 44 1a ae bd f9 6d 67 bd ee ce 8b bc c1 b4 90 bd
       -0.085011035 -0.056501362 -0.017066445 -0.07065726
000330 f5 21 64 bd 9f 25 0d 3d d3 5f 26 3d b7 c0 e3 3c
       -0.055696446 0.034459706 0.04061873 0.027801855
000340 ea 17 68 3d 97 fd c4 bd 09 ab 9c bd d1 69 d4 3c
       0.05666343 -0.09618681 -0.0764981 0.025929363
000350 94 e3 97 bc 98 04 2f 3d 65 79 ba 3c c6 9c de bc
       -0.018541135 0.04272899 0.022762964 -0.027174365
000360 a4 cf 0c be 2a 69 16 3d 37 ee bd 3c 1a 59 5d 3c
       -0.13751084 0.036721386 0.023184879 0.013510013
000370 75 f0 4b 3d 0d 21 58 3d 62 84 69 bd 06 b6 8e 3c
       0.049789865 0.052765895 -0.057011016 0.01742078
000380 b6 f1 a1 3b ef e8 b1 bc 59 7e 51 3d 69 eb 55 3d
       0.0049421443 -0.021717517 0.051145885 0.052226458
000390 93 f8 95 bd 00 aa c8 bc a7 68 96 3d c9 dd 75 ba
       -0.073228024 -0.024495125 0.073441796 -0.0009379057
0003a0 6f be 94 bd 80 0a 9a bd 60 51 4a bd 9b 74 8c 3d
       -0.07262885 -0.07521534 -0.04939401 0.06858178
0003b0 08 2b fa 3c 98 2e ae bd 61 db d5 3c 5b 20 a7 bd
       0.030538097 -0.08504981 0.026105585 -0.08160468
0003c0 41 16 0f 3d 8f 4a 54 bd d9 11 0e 3d da 8b 41 bd
       0.034933332 -0.051828917 0.03468499 -0.047252513
0003d0 f1 51 a0 bd 79 2f 96 bc 6a 10 42 bc 21 aa af bd
       -0.07828129 -0.018333184 -0.011844734 -0.085773714
0003e0 69 a9 b0 bb b7 28 92 3d ce 35 41 bd 2f 97 01 3b
       -0.005391289 0.07136672 -0.047170453 0.001977395
0003f0 83 b9 67 bc e2 8f 40 3d 75 2d a0 bd f9 59 7c bd
       -0.0141433505 0.047012217 -0.0782117 -0.061609242

weight_ih_l1 f4 [512, 128]
000000 0e 7b 96 bd cd eb 98 3d 39 0e 7e bc b5 2a c2 3d
       -0.073476896 0.074668504 -0.015506321 0.09480802
000010 a2 28 8c bc a2 ff ef 3c d4 ae 3f bd a7 86 d5 bc
       -0.017109219 0.0292967 -0.04679759 -0.026065184
000020 8e 83 b5 3c b6 50 19 3d 75 89 0a 3d 71 39 c7 3c
       0.022157457 0.037430488 0.033822495 0.024319382
000030 74 33 74 3d 00 da 0d bd 7f 7d 39 3d 1c df d6 3b
       0.059619382 -0.03463173 0.045285698 0.0065573584
000040 ba ec 54 3d 43 0c 6b bd 99 c3 ab bc d3 3f 0f bc
       0.051983573 -0.05738474 -0.020967292 -0.008743244
000050 e8 02 a5 3d 01 c1 89 bd b9 54 39 3d fd a4 4c bd
       0.08057195 -0.06726266 0.045246813 -0.049962033
000060 64 a5 a1 bd 44 0c 72 3b 3e 75 2a bc 88 40 d2 3c
       -0.07892874 0.003693358 -0.010403929 0.025665537
000070 71 58 c3 bd 27 a0 ce 3d 49 7a d2 bc 22 ef 92 3d
       -0.09538353 0.100891404 -0.025693076 0.07174517
000080 2a 64 2f bb 03 5b 90 3d c8 1a 15 bd 27 11 77 bd
       -0.0026762583 0.07048609 -0.036402494 -0.060319092
000090 6b b2 d2 bd 7c dd 8e 3d e0 c7 8b 3d 13 9e 87 bc
       -0.10287937 0.069758385 0.068252325 -0.016554868
0000a0 8e 2f 1e 3d 81 90 40 3d 41 16 63 bc 9b ce eb bb
       0.03861957 0.04701281 -0.013860286 -0.00719626
0000b0 bf 2f 04 3d 8b bc 01 3d ef 37 15 bd 83 0f a5 bb
       0.032272097 0.03167395 -0.036430296 -0.0050372495
0000c0 5c 21 61 3c 84 c9 d8 bc 61 2e e5 bc cb be 72 3c
       0.013740864 -0.026463278 -0.027976217 0.014815996
0000d0 6f 74 29 bd 63 ea 35 bd b2 a6 fa bc 47 1a 7f bc
       -0.041370805 -0.04441298 -0.030597065 -0.01557023
0000e0 3f 4f a0 b9 d1 3e 2f bc 7d b2 bb 3d c6 cc e2 3d
       -0.0003057662 -0.010696129 0.09164903 0.11074214
0000f0 65 1c bf bd 8a a2 51 3d db 8c 5a bd f0 50 65 bc
       -0.09331588 0.0511804 -0.053356986 -0.013996348
000100 fd 09 d0 bd c4 f2 16 3d 81 f2 7e bd 34 dc 88 bc
       -0.10158155 0.036852613 -0.06224299 -0.016706564
000110 27 d8 25 3d fb 2b bc bb 06 49 8e 3d d2 13 fd 3c
       0.040489342 -0.0057425476 0.06947522 0.03089324
000120 cb f3 82 3d 67 89 5f 3c 39 0d 84 bd 67 59 7b bd
       0.06394156 0.013643599 -0.064478345 -0.061364558
000130 c7 ed 50 3d b6 f1 3a bd 3b 56 6c 3d a8 f9 67 3d
       0.051008012 -0.04564067 0.057699423 0.056634575
000140 72 73 f3 3c 8c c7 61 bd 3e 6f e4 3d 10 19 5e bc
       0.029718135 -0.055121943 0.1115403 -0.01355578
000150 11 99 72 3d ee 42 de 3c 4f 2f a1 3c a6 5e 3b bd
       0.059228007 0.027131524 0.019675879 -0.04574456
000160 8e 8a 7f 3d b9 56 c4 bb 9e 56 d1 3c db 47 d1 3c
       0.062387995 -0.0059917835 0.025553998 0.025546959
000170 0f 78 c2 bd 1f 1b fd bc 33 23 c0 bd 98 a4 83 bd
       -0.094955556 -0.030896721 -0.09381714 -0.06427878
000180 f1 b0 86 bc a2 ec cb 3c d4 7c 8a 3d 4a 7f 1c bc
       -0.016441794 0.024893109 0.0676209 -0.009551832
000190 15 94 7e 3d 64 a8 e1 bb 52 0b 0a 3d 86 16 9e 3d
       0.06215294 -0.006886529 0.033702202 0.0771914
0001a0 e2 fc 18 3c 65 9d fd bd 65 cc 5a 3d 1d 64 b4 3c
       0.009337636 -0.12383536 0.053417582 0.022020394
0001b0 b0 97 92 3d 34 17 41 bd 57 b9 8c bd bc a1 f2 3a
       0.07157838 -0.04714127 -0.06871288 0.0018511335
0001c0 dc d0 06 3d 5b d8 90 bd 25 35 bb 3d 0a 2e c2 3c
       0.032914028 -0.070725165 0.09140996 0.023703594
0001d0 e7 a9 9b 3d 7a f2 6e bd 0a a3 9f 3d 34 de b4 3c
       0.07600766 -0.058336712 0.07794769 0.022078611
0001e0 03 28 63 bd e4 46 4e 3d 59 0a 0c 3c ce a6 30 3d
       -0.05545808 0.050360575 0.008547389 0.043127827
0001f0 9a c4 8b 3c 39 bf a8 3d 91 bc cd bd d8 31 7c bd
       0.01706152 0.08239598 -0.10045732 -0.061570972
000200 5e 90 a5 bd 0b 1b d7 3b 48 02 80 3d e3 55 92 bd
       -0.080841765 0.006564503 0.06250435 -0.07145288
000210 93 ca 54 bd b6 6a 24 3d d8 3b dd 3c e4 45 a0 3d
       -0.051951002 0.04014083 0.027006075 0.078258306
000220 13 46 16 3d 74 f6 31 bc a9 16 8e 3c 76 cf 09 3d
       0.03668792 -0.010861982 0.01734479 0.033645116
000230 c8 bf cd b9 84 3c 55 3d 43 61 68 bd 41 fb be bd
       -0.00039243535 0.052059665 -0.05673338 -0.09325267
000240 08 28 c7 bc 85 da 1c 3d 7e 36 9b 3d 2b 6c 01 3c
       -0.02431108 0.038294334 0.07578753 0.007899324
000250 77 d4 75 bd c4 9b 18 3b 16 76 6b bd d5 8e 7a 3d
       -0.060017075 0.0023286203 -0.057485662 0.06117137
000260 37 c8 65 bd be 5f ef 3c 15 d6 4e bd 48 ee 3d 3d
       -0.056099143 0.029220458 -0.050497133 0.04636982
000270 7e 48 cd bd fe 14 35 3c 5f a2 30 3c 2b 6a 76 bd
       -0.100235924 0.011052368 0.0107809 -0.060159843
000280 80 88 ae bb e5 db bc 3d ac 8d c3 3d d0 10 6d 3c
       -0.0053263307 0.09221629 0.09548506 0.01446934
000290 b3 f6 46 3d 0f 7c 47 3d e3 c3 a1 bd e5 34 c5 bc
       0.048575114 0.048702296 -0.078986906 -0.024073074
0002a0 ad 8c 42 3d 79 8a 0d 3c 85 5d b7 3d ec f5 a2 bd
       0.04749744 0.0086389715 0.08953384 -0.07957062
0002b0 9a 1c 36 3d b2 b7 27 3c 87 2f ed bc d1 64 a1 bd
       0.04446087 0.0102366675 -0.028953327 -0.07880557
0002c0 69 d5 79 3d c3 7f 5f 3d e6 9f 38 3d e7 d1 8d bd
       0.06099454 0.054565202 0.045074366 -0.06924801
0002d0 6c f5 4b 3d 53 d6 b1 bb d9 c9 90 3d 6d 94 12 bb
       0.0497946 -0.0054271608 0.070697494 -0.00223663
0002e0 cf 05 9e bc 39 83 de 3d d0 44 65 3d d1 bf 97 3d
       -0.01928988 0.108648725 0.055973828 0.07409633
0002f0 6e 6a 85 3d 88 b7 f1 bc 6f 65 21 3d d9 81 c7 3c
       0.065144405 -0.02950646 0.039403375 0.024353908
000300 25 39 93 bb a1 73 99 bc b5 c2 37 3c 27 85 8c bd
       -0.004492896 -0.018731894 0.011215855 -0.06861334
000310 05 7b 68 3d 52 7e 91 bc eb fa 02 bd 1d 2c a8 bd
       0.056757946 -0.01776043 -0.031977575 -0.08211539
000320 5e b6 0e 3c b1 4c 87 3c c2 ca 8a bd d4 68 de bc
       0.008710472 0.016516061 -0.06776954 -0.027149595
000330 ae 77 a2 bc 4d fd a4 bd 79 e2 76 bd 95 6d 41 bd
       -0.019832458 -0.08056126 -0.060274575 -0.047223646
000340 b0 ec ce bc 8c b2 5c bd 7d 71 6f 3d fe bf c8 bd
       -0.025259346 -0.053881213 0.05845784 -0.098022446
000350 cb ba 7a 3c d9 9c 96 3d c2 85 6e 3c 0c 4d 83 3d
       0.015303324 0.07354135 0.014558258 0.0641118
000360 7f c8 0a 3b af 49 50 3c 82 2f d6 bd 8c 5e 38 bd
       0.0021176634 0.01271288 -0.1045828 -0.045012042
000370 98 f4 d7 bc bf c3 1c 3c 92 d5 85 bd f7 8b 64 bd
       -0.026361749 0.009568154 -0.06534876 -0.055797543
000380 b5 5c eb bc f3 76 c2 3c c0 1d b6 3d 69 1a ca bc
       -0.02873073 0.02373836 0.08892393 -0.024670796
000390 79 7f 45 3d 02 f5 a1 3d 54 cb e1 ba 82 4f 8f 3c
       0.04821727 0.0790806 -0.0017226734 0.017493967
0003a0 92 41 1e 3d 84 84 41 bd 48 2a 38 bc d2 7d 14 3d
       0.03863675 -0.047245517 -0.011240549 0.036252804
0003b0 12 6b 64 bd a8 b6 8b 3d 68 6d 30 3d 26 b0 20 bd
       -0.055766173 0.06821948 0.043073088 -0.03923049
0003c0 80 15 ca 3d a8 f0 d3 3c 6e 5f 81 bd 0f c1 bf bc
       0.09867382 0.02587159 -0.0631703 -0.023407487
0003d0 1e 7f fd bc 5c 6d 0c bd d6 83 24 bd c7 cc 3f bd
       -0.030944403 -0.03428398 -0.04016479 -0.04682615
0003e0 a8 b6 7d 3a 84 b0 8a 3c 92 8d 05 bd f4 42 43 bd
       0.0009678402 0.016929872 -0.032605715 -0.047671273
0003f0 60 6d a8 3d c4 77 53 bd 5c eb 7f bd f8 3d b8 bd
       0.082239866 -0.05162789 -0.062480316 -0.089961946

weight_hh_l1 f4 [512, 128]
000000 ce f3 01 3d 9b 64 9b 3d b0 f8 f8 bc f5 83 9e 3d
       0.03172665 0.07587548 -0.030392021 0.077400126
000010 7e 13 3e 3d 68 37 28 bd 98 72 02 bd a3 b0 81 bd
       0.046405308 -0.041068465 -0.031847566 -0.06332519
000020 cd 88 83 bd d7 8a 99 bc 31 f4 dd 3d 4c e6 f6 3c
       -0.06422577 -0.018742962 0.108375914 0.030139111
000030 3c 40 bb 3a 99 96 1b 3c 84 ea a5 3c 73 1a 87 bc
       0.0014286111 0.0094963545 0.020253427 -0.016492104
000040 7b 4a c1 bd 9a f6 5f 3d 04 13 c4 3d b8 67 35 3d
       -0.09438034 0.054678537 0.095739394 0.044288367
000050 84 e7 0d 3b 69 ef 3f bd cb 78 a5 3c e6 81 3f bd
       0.0021652887 -0.04685918 0.0201992 -0.04675474
000060 8b 5a 97 bd 61 a6 dc 3c 05 40 74 3c d8 73 15 3d
       -0.073903166 0.026934804 0.014907842 0.03648743
000070 68 65 cb bc 15 c9 b9 bd 42 e6 25 3d 97 2c 96 3d
       -0.024828628 -0.090715565 0.040502794 0.073327236
000080 10 b8 6c 3d e2 9f 07 3b ef 39 e9 bc 67 ec 9e bd
       0.057792723 0.0020694663 -0.028470008 -0.07759934
000090 c2 01 61 bd 8d 5c 84 3d f0 0d 74 bd 98 b0 3f bd
       -0.054933317 0.06462965 -0.059583604 -0.046799272
0000a0 c3 83 dd 3c ca ec 96 bc bd b0 c4 3d c6 d7 11 bd
       0.027040368 -0.018423457 0.09604023 -0.03560617
0000b0 30 72 ae bc ea 77 4f bd 30 3e 94 bd 16 8b 61 3d
       -0.021294683 -0.05065147 -0.07238424 0.055064283
0000c0 14 5a b8 bb d8 02 31 bc 57 a8 44 bd 87 8a b1 3d
       -0.0056259725 -0.010803901 -0.048012104 0.08669
0000d0 e5 e2 ee bb cb 7a 82 3d 84 e1 12 3d c0 4c 2b 3b
       -0.0072902315 0.06371077 0.0358596 0.0026138276
0000e0 48 d5 52 bd 8d 2e 8a bd b9 66 e6 3b 28 f3 8f 3d
       -0.051472932 -0.0674716 0.0070312885 0.070288
0000f0 f1 a1 0f 3d a8 51 ef 3b 6c ff 2f 38 f1 1c ad 3c
       0.03506655 0.0073034354 4.196113e-05 0.021131964
000100 75 53 6a 3d b5 d0 1b 3c 16 dd 0a 3c 59 d8 97 3c
       0.057208497 0.009510209 0.008475563 0.01853578
000110 29 dc c9 3d ff 87 41 3d aa f3 86 3d 13 e8 8e 3d
       0.09856445 0.047248837 0.06589444 0.069778584
000120 ed d9 53 bc da 7b cb 3d b6 a5 16 bd 16 13 17 3c
       -0.0129303755 0.09935732 -0.036779128 0.009220859
000130 6c c2 3a 3d a3 6b 62 bd 16 1b 8f bd 7b bb 48 bd
       0.04559557 -0.05527843 -0.06987588 -0.04900692
000140 3a 41 4f 3d d5 dd f7 bc ed 89 03 3d 2f 67 a2 3b
       0.050599314 -0.030257145 0.03211396 0.004956148
000150 27 34 ee 3b 34 25 2c bd 95 12 00 3d a7 cc b8 3d
       0.0072694006 -0.042027667 0.03126772 0.09023409
000160 45 a8 3f 3c 09 c8 42 bd 72 5d 4b bd c8 14 b6 3d
       0.011697833 -0.04755405 -0.049649663 0.088906825
000170 a1 6a bd bc 2b cd 96 ba 94 9a 0b 3c 34 5d 59 3d
       -0.023122134 -0.0011505237 0.008520741 0.0530674
000180 56 24 1f bd 1f fa 05 bb 66 e5 85 3d dc 63 88 bc
       -0.038853012 -0.0020443273 0.06537895 -0.01664918
000190 5d 10 1f bc 66 24 3f 3d ba 1d 08 bd d6 9e df 3d
       -0.009708491 0.04666557 -0.033231474 0.109189674
0001a0 c0 e2 78 3d c3 dc a7 3c 1e 9b f0 bb bc ae 55 bd
       0.06076312 0.02049101 -0.00734271 -0.052168593
0001b0 32 20 c9 bd 02 bb 77 bd a3 1d 8b bd a6 ed 0c 3d
       -0.09820594 -0.06048108 -0.06792762 0.034406327
0001c0 99 4b 48 bd da b3 ae 3d e7 1f 6e 3d de 0a 12 bd
       -0.04890022 0.08530398 0.058135893 -0.035654895
0001d0 a5 9e 85 bc c2 c6 ac 3d 4b b1 17 ba da 25 cc 3a
       -0.016311 0.084363475 -0.00057866116 0.0015575245
0001e0 be 36 b8 3d d5 91 9c bd 16 1f 9d bc 9f d0 bc bd
       0.08994816 -0.07645003 -0.019179862 -0.09219479
0001f0 ad 0e 27 bd 7e 5b a7 3d b0 30 01 bd 06 b6 68 3d
       -0.04078548 0.081717476 -0.031540573 0.056814216
000200 ea 8a 71 3c 43 33 3f 3c 6e 66 45 bb f5 22 4c bd
       0.014742592 0.011669937 -0.0030120867 -0.049838025
000210 6c 44 89 bd 14 0c 23 bd f4 c2 75 3d 7f e7 db bc
       -0.067025036 -0.03980644 0.060000375 -0.026843784
000220 48 89 bb 3c c1 e6 3c 3d 0f bb 99 bd 4e bb ef 3c
       0.02289261 0.0461185 -0.07506382 0.029264119
000230 b5 73 e2 3c ae 7e 71 bd 8c 1e 1d 3d 6e 5a 32 3d
       0.027643064 -0.0589587 0.03835921 0.04354327
000240 a3 ef 52 3d 2e bd c0 3c d6 3c 1d bd 5f 0b 82 3d
       0.051498067 0.023527708 -0.038388096 0.06349825
000250 5e a8 4f bd 83 f2 73 bd 27 86 8c 3d 35 e7 16 3d
       -0.050697677 -0.05955745 0.06861525 0.03684159
000260 4e bb 5c 3d 2e e7 01 3d f2 6e ba 3b fa c1 bb bc
       0.053889565 0.03171461 0.0056894952 -0.022919644
000270 9b a9 be 3d ee 32 31 bb 49 e0 c2 bd 33 b9 6e 3d
       0.093096934 -0.0027038413 -0.09515435 0.05828209
000280 39 8b 29 bd 01 91 bb bd db c5 ee 3c 03 db d1 3d
       -0.04139254 -0.09158517 0.02914708 0.10246851
000290 c8 7d d7 bd f7 3a 56 bd 77 fd 9e bc ba 91 7e bc
       -0.10522038 -0.052302327 -0.01940797 -0.015537674
0002a0 43 4f fc 3a 94 0e 90 3c 42 72 bd bd 9b 21 2e 3c
       0.0019249696 0.017585076 -0.092503086 0.010628129
0002b0 a7 63 b6 3c fe 6d b6 bc 51 68 8b bc 85 3e bd bd
       0.022264315 -0.022269245 -0.017017515 -0.0924044
0002c0 c8 5a ed 3c 6c 12 89 bc 8a ff a4 bd 35 ba 64 bd
       0.028973952 -0.016732417 -0.08056553 -0.055841643
0002d0 3d 6a 46 3c 03 68 d8 bb 3d 82 4b 3b f2 1d a9 bc
       0.01211029 -0.006604196 0.003105297 -0.020644162
0002e0 1d 03 87 3d e7 78 e0 3c 42 21 89 3d 83 4d 8b bd
       0.06592391 0.0274014 0.066957965 -0.068018936
0002f0 e5 5d 89 3d 19 5b 1e bd d5 1e 99 3d 8f 93 69 3c
       0.06707362 -0.038661096 0.07476584 0.014256372
000300 70 8f 54 3c a6 0b 04 bd 05 24 24 3d 54 9a 14 3d
       0.012973651 -0.03223767 0.040073413 0.03627999
000310 57 ec 95 3d 4b d8 01 3d 07 5d 8e bd c3 59 48 bd
       0.07320469 0.031700414 -0.06951337 -0.04891373
000320 67 e3 47 bd 2d 0e 8d bd 41 06 7c 3d 64 3f aa 3d
       -0.048800852 -0.068874694 0.0615294 0.08312872
000330 06 79 9b 3d ac db 54 3d d5 15 64 bd 76 8d 8c bd
       0.07591443 0.051967308 -0.055684883 -0.06862919
000340 71 82 9e 3d 35 27 3f b9 a2 63 21 3c 0d 1e c1 3d
       0.077397235 -0.00018229785 0.0098504145 0.0942956
000350 c3 25 9f bd ba f6 c2 3c 83 da 07 bc 18 9f 47 3d
       -0.07770874 0.023799289 -0.008291843 0.048735708
000360 65 39 ae bb 7d 8d 43 3d 21 f8 3d 3d b8 3d 96 bd
       -0.0053169006 0.047742356 0.046379212 -0.07335991
000370 05 b1 a5 3d cc af 80 3c 2e 14 87 3c 3a d4 34 bd
       0.080904044 0.015708826 0.016489115 -0.044147708
000380 b2 69 99 3d f5 e7 86 3d 37 e3 92 bd 81 b8 ab 3c
       0.07490863 0.06587211 -0.07172244 0.020962002
000390 ac e1 0c 3d 14 9f 91 bd 9c d4 8a bd 14 5d cf bd
       0.034394905 -0.0711042 -0.06778833 -0.10125175
0003a0 12 3a 35 3b 2b 0e fa 3c 3c bf a7 bd 03 4e b1 bd
       0.002765302 0.030524334 -0.08190772 -0.08657458
0003b0 e9 3e ba 3d e2 b3 f5 3b 96 94 b4 3d 79 60 60 bd
       0.090940304 0.0074982503 0.08817403 -0.054779503
0003c0 a2 cc 8d 3d b7 be 7c 3d 79 28 59 3d 26 3b ee 3c
       0.06923796 0.061705317 0.053017113 0.029080939
0003d0 e8 9c 8c bb 06 74 83 3d b8 5f 23 bd 5e f0 f1 3c
       -0.0042911656 0.06418614 -0.039886206 0.029533561
0003e0 58 f8 17 bd f2 6e 3b 3d 17 28 ae 3d 7b d2 71 3c
       -0.037102073 0.045760103 0.0850374 0.014759655
0003f0 53 fa 71 3d 93 b8 8f bd 7d fb 53 bc 07 c2 5b bd
       0.05907662 -0.070176266 -0.012938377 -0.053651836

bias_ih_l1 f4 [512]
000000 ae 7a 7b 3b 2a 93 16 bd 66 b6 68 3d 88 ca bc 3c
       0.0038372683 -0.03676144 0.056814574 0.023045793
000010 50 4a d8 3d 53 bd 8c 3c a4 a4 34 3d 93 f1 8d 3c
       0.10561049 0.01718012 0.044102326 0.017327106
000020 82 8a 56 3e b7 8a 4a bd a7 84 22 bd 89 f3 83 bd
       0.20951274 -0.049448695 -0.03967729 -0.06442935
000030 e4 1d ef 3c 34 f9 73 3d df 5a 46 3d 41 5e c3 3a
       0.029189058 0.05956383 0.048426505 0.0014905409
000040 bd 6a d0 bb f5 62 70 bd 24 d6 ac 3c dc 03 0b 3e
       -0.0063603804 -0.058688123 0.021098204 0.13575691
000050 d8 be fc bc 48 31 95 bc a0 d4 13 3d 4e 1b 64 3c
       -0.03085272 -0.018211976 0.036091447 0.013922526
000060 2e 45 d9 3c 53 3d cd 3d 80 53 49 3e e8 a5 07 bc
       0.026522245 0.10021462 0.19660759 -0.008279301
000070 58 fb 5f bd e8 46 d8 3d 16 a9 cf 3d fa 57 ac bd
       -0.05468306 0.10560399 0.101396725 -0.08415218
000080 e4 ba a2 3d 11 8b 79 3a 42 11 33 bd 36 2a ad bb
       0.07945803 0.00095193187 -0.04371763 -0.005284573
000090 b4 2e bb 3c bf 72 a5 3c d1 59 84 3c d3 17 a1 bd
       0.022849418 0.020196317 0.016156109 -0.07865872
0000a0 62 5b 8b bd 83 79 0f bd 0b 04 4b bc db a6 93 3d
       -0.06804539 -0.035027992 -0.012391101 0.072095595
0000b0 c9 e6 a0 bd 5c 58 df 3d 75 86 0b 3d 61 d6 21 3d
       -0.07856519 0.10905525 0.034063775 0.03951109
0000c0 08 31 21 bd 0d 73 9f 3d 7d 9e f5 3d 28 96 84 bd
       -0.0393534 0.07785616 0.1199312 -0.064739525
0000d0 5b b9 2e bd bd df 75 bd 48 17 53 3d 72 dc 83 3d
       -0.042657237 -0.060027827 0.051535875 0.06438531
0000e0 45 78 43 3d 6d 4e b0 3b 91 d6 5d 3d ee 34 33 3b
       0.04772212 0.005380443 0.054159705 0.002734478
0000f0 c1 0b 21 3d b8 34 64 3c 02 77 9c 3d a8 64 8f 3b
       0.03931785 0.013928585 0.076398864 0.004376013
000100 92 c3 30 3d d9 79 e5 bc 40 ac 29 3d 49 51 f2 3d
       0.04315526 -0.028012203 0.041424036 0.1183191
000110 06 2e d6 3b 9a 50 82 bc 1d 66 77 3d 3f 18 ee 3d
       0.006536248 -0.015907574 0.060400117 0.11625718
000120 6b 0c b7 3d 56 ab e1 bc ef c0 b6 bc 21 0e 01 3d
       0.089379154 -0.02754752 -0.022308795 0.031507615
000130 e3 47 af bc c5 94 7f bd 9e 00 6e bd 05 8c 81 3d
       -0.021396583 -0.062397737 -0.058106057 0.06325535
000140 3d 7a 61 3d 67 bc 44 3d f4 6f 9a 3d 58 cd 9a 3c
       0.055048216 0.048031237 0.075408846 0.018896744
000150 16 5a 81 3d e3 d9 14 bd 56 96 80 3d 14 a4 03 bd
       0.06316011 -0.036340605 0.06278674 -0.0321389
000160 e0 3d 00 3e aa f7 39 bd 56 d5 ef 3d 1f 17 5c 3d
       0.12523603 -0.045402206 0.117106125 0.053732987
000170 b7 4f 5c bd 3c ac 96 bd f5 67 e6 bc e1 c4 b1 3d
       -0.05378696 -0.0735707 -0.028125742 0.0868013
000180 4c 59 2b bd 08 09 9a 3d d7 0f 2b bc bb ea 16 3e
       -0.041833207 0.07521254 -0.010440788 0.1473798
000190 3f 0b 6d 3d 25 f9 e7 3d 56 bf 67 bc 34 46 13 3c
       0.057872053 0.113268174 -0.014144739 0.008988906
0001a0 16 68 92 bd 44 8a 87 bd f0 fd cc bc 85 39 4b 3d
       -0.07148759 -0.06618169 -0.02502343 0.0496154
0001b0 1b a9 8a bd 0d 12 31 bc f1 93 a3 bd 82 2b b0 3d
       -0.067705356 -0.010807526 -0.07987202 0.086020485
0001c0 f9 4e 02 bd d7 66 2a 3c 57 9d a2 3d 88 7d 87 3d
       -0.031813595 0.0104004955 0.079401664 0.0661574
0001d0 61 fe 88 3c 60 ef b3 bb d0 6c de 3d ac 77 c0 3d
       0.01672286 -0.005491182 0.10860598 0.093978256
0001e0 d3 43 a0 3c 26 c1 b3 bd 2d d9 ed 3c c2 bd 84 bc
       0.019563591 -0.087770745 0.029034222 -0.016203765
0001f0 60 55 95 3d 80 f7 6f bd 87 01 9e bd 37 23 dd 3c
       0.072916746 -0.058585644 -0.07715135 0.02699433
000200 68 81 5b 3d f4 5c 73 3d 89 65 e9 bd c3 b2 3e 3b
       0.05359021 0.05941482 -0.113963194 0.002909825
000210 10 75 a3 bd ea 76 a7 3c 69 5b 83 3d d2 41 ad 3c
       -0.07981312 0.020442445 0.064139195 0.02114955
000220 44 19 1e bc 75 1e df bd a5 0a 95 bc aa d7 a4 3d
       -0.0096495785 -0.10894481 -0.018193552 0.08048947
000230 4a 6a 86 3d 06 de aa bb 10 63 ee bd f4 82 65 bd
       0.06563242 -0.0052144555 -0.116399884 -0.05603309
000240 d0 d7 a2 3c 07 a2 b0 3c 35 b0 15 3d 4f 65 1b be
       0.019878298 0.021561636 0.036544997 -0.15175365
000250 b9 7e f7 bc eb e0 c0 3c 8b aa 06 bc 1b 66 8e 3d
       -0.030211793 0.02354475 -0.008219372 0.06953069
000260 25 9e 35 3d f6 fa 1e 3c b2 fe 0b be 83 28 a0 bb
       0.04434027 0.009703388 -0.13671377 -0.004887642
000270 6d 56 b7 3c 00 4e c2 bd f6 20 62 bc 56 6c cc bd
       0.022380078 -0.094875336 -0.013801804 -0.09981601
000280 c8 3b 86 3d 6e 73 b8 bc c9 13 5d bd b0 5c 45 bc
       0.06554371 -0.022515979 -0.053973947 -0.012046024
000290 bb ed e0 bd 7c 7d 92 bb aa fd 28 bd 2a 32 65 bc
       -0.109828435 -0.0044705253 -0.041257538 -0.013989011
0002a0 d6 3a 85 bc f2 42 55 bc ac 8e 16 bd 09 f8 fc bc
       -0.016263407 -0.013016449 -0.036757156 -0.030879991
0002b0 bb 57 1d bd c7 4e 35 3d 61 5e 87 bb 6b f2 bb bd
       -0.038413744 0.04426458 -0.004131124 -0.09177097
0002c0 6d b1 62 bd 09 d8 a3 bd b4 34 d9 bc 39 15 86 3c
       -0.055344988 -0.0800019 -0.026514389 0.016367542
0002d0 2a 23 5b 3b ed 3e db bc 6e 67 ae bd 4d ea e8 bd
       0.0033437707 -0.026763404 -0.085158214 -0.11372814
0002e0 6e ed c1 3c b2 69 2d 3d b5 54 8f bd 2f ab e5 bc
       0.023672786 0.042337127 -0.069985785 -0.028035728
0002f0 36 1e b0 3c ab 8a 7f bc 9f 0e 37 3d 14 b6 4e 3d
       0.02149878 -0.015597026 0.044691678 0.050466612
000300 8c 6e fe 3c 54 34 98 3d 0b b1 a6 bd a4 5e dd bc
       0.031058572 0.07431856 -0.08139237 -0.027022667
000310 85 cc aa bd dc c7 cb bd b9 92 89 bd 41 98 9c bd
       -0.0833979 -0.099502295 -0.06717438 -0.07646228
000320 b1 79 b3 bd bc 99 be 3d 0a 84 02 3d 5d 3a 88 bd
       -0.08763445 0.09306666 0.031864204 -0.06651757
000330 45 38 1b bd 14 94 3f 3d 70 d1 8c bd 11 45 f6 bc
       -0.03789546 0.046772078 -0.068758845 -0.03006223
000340 0e 00 cc bb 4a 58 97 bd e7 27 8d 3c 01 f3 c0 bd
       -0.0062255925 -0.07389887 0.017230941 -0.09421349
000350 49 e5 93 3c f9 5a 0e 3d 1d cf 77 bd 5b e0 22 bb
       0.018053668 0.034754727 -0.060500253 -0.0024852965
000360 15 28 d8 bd 6a 6d 0a 3d 7f 17 99 3c 49 cb c0 bd
       -0.1055452 0.03379575 0.018687962 -0.094137736
000370 02 2a d5 bd 2d 7e 1d 3d 83 5a a2 bd 14 1c c4 3c
       -0.10408403 0.03845041 -0.0792742 0.02393917
000380 8f a3 8b bd 49 64 b4 bd 38 5f ac bd 9d c8 7f bd
       -0.06818306 -0.088081904 -0.08416599 -0.06244718
000390 a9 5d 9b 3b 66 3d 1c bd bc d6 03 bd 37 e3 f5 3a
       0.00474139 -0.03814449 -0.03218721 0.0018759732
0003a0 6c cc 98 3c c6 8a a9 bd 93 49 2f bc 83 9e cc bc
       0.018652163 -0.08278422 -0.010698694 -0.024977928
0003b0 ac c2 a0 3d a3 76 bd 3b b1 d4 8c bd e4 87 47 3d
       0.07849631 0.005781965 -0.06876505 0.04871358
0003c0 4a f5 57 3d 46 2d 6f bd 14 7b 10 bd 89 cc 6f bc
       0.05272416 -0.058392785 -0.035273626 -0.014636167
0003d0 01 55 d3 bc 69 36 6c 3d d0 64 d8 bb 1e 79 36 bb
       -0.025797369 0.057669077 -0.0066038147 -0.0027843188
0003e0 e3 d2 04 bd 03 b4 ae bd 24 0f fe bc 63 e4 58 bd
       -0.03242768 -0.08530428 -0.031013079 -0.05295218
0003f0 99 b6 0e bc 50 7a 6f 3d 55 47 cc bd d4 9d 2f bd
       -0.008710527 0.058466256 -0.09974543 -0.042875126
