stockforecasting/300078_model.pkl (torch, 858496 bytes, 14 tensors)

weight_ih_l0 f4 [512, 4]
00000000: 8fa9 673d 3a4a dcbd 0249 81bd b6eb babd
00000010: de88 9dbd a2a7 1fbd a789 4bbd da83 693d
00000020: 5463 b9bb 5c31 3d3c cc6a 7abc 7c80 903c
00000030: 71aa 763d 6cde bebb 9a01 1dbc e6c4 a53d
00000040: 6541 183d 814e a1bd eb2d 37bd 529b 573d
00000050: 9681 be3c 467c 45bd 9fda 873d 1369 37bd
00000060: 3538 48bc d0c1 bc3c 7f4c 16bb 0c63 203c
00000070: 62df c0bd 3eae 3d3b b0a0 b4bd f3f8 623d
00000080: 114a 723c 02df 04bd e369 5fbc 4537 563d
00000090: 4744 1e3d 31b2 353d 58f0 683c 3d39 5a3c
000000a0: a383 69bb a429 5c3d 8ed5 83bd 42db 5a3c
000000b0: bcac 903d 8c71 913d 3e23 dd3d f024 903d
000000c0: 7f91 6c3d d125 dbbc 9c4a d03c e38e 9bbd
000000d0: fc76 c6bc e838 89bd 1d39 67bb 7263 243d
000000e0: 2f0f 093d dd59 933d 3876 8c3d 75ec b23d
000000f0: c723 8d3c f9c4 b93c d1a3 083d 8d39 143d
00000100: df5d c4bc 9369 973c b5b3 a13d 4f7e 303d
00000110: 878a 973d bdef 8dbc 6700 fbba 9a3a 2b3d
00000120: 8b4e 8c3d 4f55 b2bb 4ed9 893c ac22 b8bc
00000130: b788 74bd e02c 4b3d c3da cfbc c588 7f3b
00000140: 6bd8 66bd 10ce 983c a39b c93d 3fac 943c
00000150: e400 8dbc 0327 5e3c 3e7b 553d 2fd5 953c
00000160: c100 9a3c c893 473d a5df 5d3c ffcf e13c
00000170: ae44 b63d e669 953d c43d 9fbd 97b8 24bd
00000180: f96f 80bd 7399 89bd dd07 eebc e895 f4b9
00000190: 73b6 d7bd 4c5a 73bd 7c13 61bd dc30 0bbd
000001a0: e815 903a a62b debc 59f4 a53b 0801 533b
000001b0: 1d57 17bc 1a06 653d c0aa 8bbd 8a8b 523d
000001c0: 0fa8 413c 83bd 083a 29d0 98bd b474 3cbc
000001d0: 9380 273d 2f6a 3c3d f980 8dbd 3f5c 04bd
000001e0: af9b 433d fbec aabd c38f b1bd 9dab 82bd
000001f0: c4b7 77bd 1a8a d2bb 2af8 18bd 3191 3a3d
00000200: d5f6 92bd 399a babd 595e 663d c801 b3bd
00000210: 138e b93d f774 3b3d fe3c 55bd fd40 113d
00000220: b92c ae3c 8fc7 b43d 74d7 af3d e8c9 723d
00000230: 748c 7abd 3502 76bb df54 873d fc0f 4fbd
00000240: 77cb 38bd 2cee 8abd eb7f a23b 1f3e 27bc
00000250: 45e9 1cbd cceb 853d ee82 9fbc a006 7a3d
00000260: d831 d9bc 126c 0dbd 2065 bebd d883 473d
00000270: caa8 7abc b98f 9fbd 0f42 9d39 944d 913d
00000280: c60c 33bc d767 86bd ca40 b33c f981 94bc
00000290: a0c0 a1bd 1c96 b73c 2390 aa3a ab6f 113d
000002a0: 4166 ed3b 0620 a63d 17ed 9f3d 32d8 9a3d
000002b0: f2c1 13bd 128b 51bd 51eb 9cbd 9bbb 6cbc
000002c0: 1383 edbb eca8 743d dee4 61bd fbbb 073d
000002d0: 11e0 02bd 593c 85bc 5933 afbb e6a5 4c3b
000002e0: 1e14 b33c c94d 9abd a828 d33c cef7 783b
000002f0: e6ff 1f3d b795 753d 81c9 9d3c dc0c af3b
00000300: eb13 c73d da2d 823d 74e8 da3b 3ba4 c23d
00000310: 1b13 78bd c023 063d 860b 963d 6554 313c
00000320: 8d41 16bd 1111 17bd 9677 493c 1bd2 48bd
00000330: 9ac9 023d 30bc 1bbd db27 10bd acf1 683c
00000340: 250f 673d d958 ab3d 8ca7 bb3d 8950 a53b
00000350: 035a 71bd 0530 4bbd 7f5d 94bd a26b 05bc
00000360: 01ea 38bd 4e88 1a3d 3343 92bd 7ad9 b73d
00000370: 8e73 b5bc 0019 3a3d 87df 61bc f005 50bc
00000380: 521e 433d fa45 aa3d 178b 663c 58c4 853d
00000390: d21e a2bd 5ee4 0ebd c75e b0bc 59ef fbbb
000003a0: 4ec0 b53b 9149 7b3c 2fc8 203d 5665 20bd
000003b0: 66d4 ac3d f525 843d a01c c43d 60dd 1ebd
000003c0: b4dd c9bd 84df 12bd 1624 b5bd c045 a3bd
000003d0: c6fc a33d e749 553c e9f4 98bd 468d ba3d
000003e0: fb0b 8f3d a4ea 673d df1b efbc 5fa2 a6bd
000003f0: e831 d03d 579e 65bc b16a 21bd 7197 62bc
0.056558188 -0.10756345 -0.06312753 -0.091269895 -0.07692121 -0.038978226 -0.049691822 0.05701051
-0.005657593 0.011547413 -0.015284251 0.017639391 0.06022114 -0.0058248546 -0.009582901 0.08094196
0.03717174 -0.078763016 -0.044721525 0.05263836 0.02325515 -0.04821422 0.066334955 -0.04477794
-0.012220432 0.023041636 -0.0022933779 0.00978924 -0.09417607 0.0028942968 -0.08819711 0.055413198
0.014788167 -0.03243924 -0.013636085 0.052298803 0.038639333 0.04435939 0.014217459 0.013319311
-0.003563144 0.05375065 -0.06437217 0.013357939 0.070641965 0.071017355 0.107977375 0.07038295
0.057755943 -0.02675143 0.025426202 -0.07595613 -0.024226658 -0.06700307 -0.0035281845 0.0401339
0.033461746 0.071948744 0.06858486 0.08736507 0.017228974 0.022676932 0.033359352 0.036187697
-0.023970542 0.018482959 0.078956045 0.043089207 0.07399469 -0.01732623 -0.00191499 0.041803934
0.068509184 -0.0054422985 0.016827252 -0.02247747 -0.059700694 0.049603343 -0.025372868 0.0038991433
-0.056358736 0.018652946 0.098441385 0.01814854 -0.017212339 0.013559106 0.052119486 0.01829013
0.018799188 0.04872492 0.013542091 0.027565 0.08899818 0.07295589 -0.07775453 -0.0402151
-0.06271357 -0.06718721 -0.029056484 -0.00046650996 -0.10532846 -0.059412286 -0.054950222 -0.033982143
0.0010992857 -0.027120423 0.005064529 0.003219666 -0.009237078 0.055914022 -0.06819677 0.051402606
0.011819853 0.0005216228 -0.074615784 -0.011502434 0.040894102 0.045999702 -0.06909365 -0.032314535
0.047755893 -0.08345982 -0.086699985 -0.06380389 -0.060477987 -0.0064251544 -0.037346043 0.04554862
-0.07175986 -0.09111447 0.05624232 -0.08740574 0.09060302 0.045765843 -0.05206012 0.03546237
0.02126156 0.08827125 0.08586016 0.059274584 -0.061169103 -0.0037537937 0.06607985 -0.050552353
-0.045115914 -0.06783709 0.0049590967 -0.010207682 -0.0383084 0.06539115 -0.019471612 0.061041474
-0.026513025 -0.034526892 -0.09296632 0.04870972 -0.0152990315 -0.07791085 0.0002999459 0.07094875
-0.010928338 -0.06562775 0.02188148 -0.018128382 -0.078980684 0.022410445 0.0013012927 0.035506885
0.0072448556 0.08111577 0.07808893 0.07560767 -0.036073633 -0.05115802 -0.076620705 -0.0144490255
-0.0072482913 0.05973141 -0.055149905 0.033138257 -0.031951968 -0.016264128 -0.0053466973 0.0031226813
0.021860179 -0.075343676 0.025776222 0.00379895 0.039062403 0.059957232 0.019261124 0.005342109
0.09720596 0.06356402 0.0066805426 0.09503981 -0.060565095 0.032748938 0.07326417 0.010823344
-0.036683608 -0.03688151 0.012296578 -0.049028497 0.031930543 -0.038021266 -0.03519426 0.014217775
0.056410927 0.08366556 0.091628164 0.005045001 -0.058923732 -0.049606342 -0.072443955 -0.008143337
-0.04514504 0.037727647 -0.071417235 0.08977027 -0.022149827 0.045433998 -0.013786203 -0.012696728
0.047636338 0.08314128 0.014071248 0.0653159 -0.07916035 -0.034885757 -0.021529568 -0.0076884446
0.005546606 0.015337364 0.03925341 -0.03915914 0.08438949 0.06452552 0.09575772 -0.03878534
-0.0985674 -0.035857692 -0.088447735 -0.07972288 0.08007197 0.013018108 -0.07468588 0.09108977
0.06984707 0.056620255 -0.029188095 -0.081364386 0.10165769 -0.014014802 -0.03940839 -0.013830052

weight_hh_l0 f4 [512, 128]
00000000: ab0a d13b 4856 813b cdbc 49bc cf91 14bd
00000010: 4b1b 55bd 9460 60bd 67d9 e0bc 0959 f73c
00000020: 9f00 813d 2cb9 39bd 7d84 a7bd bab9 933d
00000030: c997 943d 118d 98bd 8e4c 70bd 5afd 3e3c
00000040: 6902 adbc a1be 853c bc17 27bc 9cb8 35bd
00000050: e66e 503d 6c25 d43c 646c d4bc 2921 4c3b
00000060: 4d21 103d bcca 43bc add6 ebbc 1481 773d
00000070: 3edc 863d e518 a13a d578 723d d272 393d
00000080: 48a0 2ebd 8610 633d 6055 a4bd 79e4 593d
00000090: 700e 0fbd ba8c 683b 4f29 73bd 0ab6 5cbd
000000a0: c294 8ebd 9f89 87bc a9f8 963d f93b 3bbd
000000b0: cb85 7e3d e816 b2bc 850c ae3b e247 eabc
000000c0: 001b 54bd aaab 28bd 2e4b 953b 1073 b4bd
000000d0: ee41 88bc 1690 d73c b1fb 053c ab30 66bd
000000e0: 5b3a 993d eb7a c6bb ee46 4abc 947a 3f3d
000000f0: 3e5e 52bd f4d1 1ebd 2e52 773d cb3f 223c
00000100: f101 9abd ef78 92bd 5d40 993c 78b1 8ebd
00000110: bc3d 9ebc 374d 943d 504e 49bd 93c2 72bd
00000120: 0735 b53d 61bd b3bc 3465 88bd 3f8a a0bb
00000130: ef2d 03bd 2b1c 86bd b9ad 2fbd 1a75 a2bb
00000140: 3fab 163d 5b29 adbd c8bd 1dbc fc7e 01bd
00000150: 2303 083d 8a9d 7f3c b9b3 89bd e7b9 643d
00000160: 6a88 a5bc 8e9a 02bd 9c73 1ebd bc1d 7fbd
00000170: 9f9e 04bd dabf f4bc 3901 b43d 34f2 693d
00000180: edef 523b 8572 6c3c 9726 36bd 9da9 633d
00000190: e66a f33c fc9b 9c3d e9bb ad3d 93d7 833b
000001a0: 16cb a33c ff6b 093d f7f3 cd3d 6084 bc3c
000001b0: e08a 033b 0100 72bd e12b c13d 1457 9d3d
000001c0: 3c9b 2f3d a326 f7bc 26b9 aebd 7c7d 6cbd
000001d0: e9d7 d53c f494 0d3d 3f91 633d 1d9f 7bbc
000001e0: 5338 23bd ad85 5e3d f5df 9d3d 078d 8dbd
000001f0: b8eb abbd 91a5 96bd d0df 9cbb 9646 7ebc
00000200: ad37 37bd 97e5 c9ba b759 0fbc f138 d9bb
00000210: 7b34 8dbd 8acc 903d 3bcd 163d 0601 1fbc
00000220: 23f3 7c3d 292e bdbc 82ff c7bc bb5b 4d3c
00000230: 694b 3f3d 3336 19bc 49c0 ab3d 14c0 98bd
00000240: 3d6b 2ebd b10a 14bc 1b04 98bd d7a3 96bc
00000250: 57c0 b43d 2493 323c e21d 7f3d 9ce1 b03a
00000260: 9b5f 84ba 092a 8d3d 6e59 8abd 539d 4d3d
00000270: a8a2 84bd 2d9f 8abc 9376 a53d 1109 c8bc
00000280: 782c 153d f88f 943c 8ae3 8bbd 3ee7 183d
00000290: b72a a4bd 4e50 7bbd 5d38 1abc eaf1 8b3d
000002a0: cea7 1e3d cf26 163d 329b 4abd f3a3 b83c
000002b0: a281 ce3a 9e30 dd3c ff4b 673d a1c3 89bd
000002c0: 8670 8d3d c2c3 b23d 1713 153d e465 1b3d
000002d0: 69b0 62bd b5c2 e13b 6a67 5fbd 88e5 b53d
000002e0: e6f8 883d e5a0 5e3d 4593 afba 9f2b a43c
000002f0: e3dc a4bd b5e0 c1bc e8d6 8abd 90ba 083d
00000300: 9721 133d ddc0 ad3d acd1 9c3b f7e1 98bd
00000310: 277e 58bc dfcc 4bbd a263 a03d 949c a6bc
00000320: ffa6 ad3c b6b9 2ebd 349a afbd 180c 8e3c
00000330: 4503 4dbd 9897 c4bd 613b c0bd 1258 af3b
00000340: 9e6d 31bd dbcb 3dbd 7d95 613d 8fa2 8cbc
00000350: 16bf 59bc 164e 59bd aec8 873d c112 1d3c
00000360: 3bd2 ae3d ff43 2bbd aca4 703c 5bb2 243d
00000370: cf3e ba3b 14c0 3cbb c2b9 353d bcda 8cba
00000380: ca2d b83d 8002 903d 2cba 8ebd fa10 13bd
00000390: 1c82 7b3d ae95 4cbb 586e 8dbd 82e6 1ebd
000003a0: 00b3 fbbc 16f4 89bc 8302 0e3d a091 793c
000003b0: 37f9 833d fc25 833d 5102 cbbc fe3e 8d3c
000003c0: c715 753d 8ba0 2e3d 1d03 0c3d 5e48 81bc
000003d0: 3e31 093d 7851 293d c731 edbc 5661 77bc
000003e0: 8e60 ebbb e790 74bb 7dcc 25bd abf7 b5bd
000003f0: 3a8e 59bd 7c52 363d f704 b3bd 1f56 c0bb
0.0063794455 0.003947053 -0.01231308 -0.036271866 -0.05202798 -0.054779604 -0.027447416 0.030193822
0.062989466 -0.04534261 -0.08179567 0.07213159 0.07255513 -0.07448781 -0.05866676 0.011657083
-0.021119313 0.01632625 -0.01019853 -0.04436551 0.05088701 0.02589675 -0.02593059 0.0031147695
0.035188008 -0.011950191 -0.028788889 0.060425833 0.065849766 0.0012290744 0.059197266 0.045275517
-0.042633325 0.05543568 -0.080240965 0.053196404 -0.034925878 0.003548427 -0.059365567 -0.053884543
-0.06961967 -0.016545115 0.07371647 -0.04571149 0.062139314 -0.021739438 0.005311551 -0.02859873
-0.05178356 -0.041179337 0.0045560813 -0.08811009 -0.016633 0.026313823 0.008177684 -0.056198757
0.074818335 -0.0060571334 -0.0123460125 0.04674776 -0.051359408 -0.038774446 0.060381107 0.009902905
-0.075199015 -0.071519725 0.018707449 -0.06967443 -0.019316547 0.0724129 -0.04914695 -0.05926759
0.08848005 -0.021940889 -0.06659928 -0.0048992927 -0.032026228 -0.06548341 -0.042890284 -0.0049578073
0.036784407 -0.084551536 -0.009627767 -0.031615242 0.033206116 0.015601525 -0.067237325 0.055841353
-0.020206649 -0.031885676 -0.038684472 -0.062284216 -0.032377835 -0.029876638 0.08789296 0.05711575
0.0032186464 0.0144316 -0.044470396 0.055581678 0.02971406 0.07646939 0.08483107 0.004023501
0.0199943 0.03355026 0.10056298 0.02301234 0.002007179 -0.059082035 0.09432197 0.076826245
0.042872652 -0.03016979 -0.08531408 -0.05773686 0.02610393 0.03456588 0.05555844 -0.01535776
-0.039848637 0.054326702 0.07708732 -0.069116645 -0.08394569 -0.07355798 -0.0047874227 -0.015519759
-0.04473083 -0.0015403506 -0.008749417 -0.0066291024 -0.068947755 0.07070263 0.036816817 -0.009704834
0.06175531 -0.0230933 -0.024413828 0.012534077 0.046702776 -0.009351301 0.08386285 -0.07458511
-0.04258274 -0.009035752 -0.07422658 -0.018388672 0.088257484 0.010899339 0.062284358 0.0013494971
-0.0010099293 0.06892783 -0.067553386 0.050198864 -0.06476337 -0.016921604 0.08079257 -0.024418386
0.03641936 0.018135056 -0.06830509 0.037329905 -0.0801596 -0.06135588 -0.009412852 0.06833251
0.03873425 0.036658105 -0.049464412 0.022539115 0.0015755186 0.027000722 0.05646896 -0.067267664
0.06906228 0.08728744 0.03639516 0.037938967 -0.05534402 0.006889666 -0.054541983 0.0888167
0.066880986 0.05435266 -0.001339533 0.020040331 -0.08049943 -0.023666719 -0.06779271 0.033381045
0.035920706 0.084840514 0.004785737 -0.074649744 -0.013213671 -0.049755927 0.078315035 -0.020338334
0.021197794 -0.042657577 -0.08574334 0.017339751 -0.050051946 -0.09599227 -0.09386326 0.005351075
-0.04331743 -0.04633699 0.055074204 -0.017167358 -0.013290187 -0.053052984 0.066300735 0.009586991
0.08536192 -0.041812893 0.014687698 0.040209156 0.005683757 -0.002880101 0.044366606 -0.001074634
0.089931086 0.07031727 -0.06969103 -0.035904862 0.06140338 -0.0031217146 -0.06905812 -0.038794048
-0.030725002 -0.016840022 0.034670364 0.015232474 0.06444018 0.06403729 -0.024781378 0.017241951
0.05983522 0.042633574 0.034182657 -0.015781578 0.033494227 0.04133746 -0.0289544 -0.01509889
-0.007183141 -0.0037317814 -0.04047822 -0.088851295 -0.053114153 0.044512257 -0.08741181 -0.0058696414

bias_ih_l0 f4 [512]
00000000: 17a4 02bc 1c98 933d f244 f53b b7b7 64bd
00000010: c9e2 713d ab30 6b3c 4d3d 92ba a23a 183d
00000020: c3d4 df3c 762b eaba 7051 0cbd 458e bb3c
00000030: f850 9e3d b614 c33d ed4f 413d e182 8abd
00000040: 9774 913c 4da7 1fbb 21cf f93c ab36 d73c
00000050: fdaa 8c3c ed07 0ebd 7020 b13c da1b 6abd
00000060: fd88 883c 739d 283d 60d8 7ebd ba92 39bd
00000070: d2f5 babc 73ef cbbb e5e2 953d a724 993d
00000080: 44ab 51bc 05ec c03d 2c4b 813c 401d 48bd
00000090: f640 8dbd d393 993d aeaf 133d 38ab 8abd
000000a0: 348e b13d b7f3 673c 38e7 05bc d9c5 6fbd
000000b0: b14c cbbc a3c1 8bbd b124 53bd 9ed9 18bd
000000c0: 182d a93d 185a d23b 33ab d03d dc8a c4bb
000000d0: 898c 24bc 232c 123d f8ad 02bd a0e5 c3bd
000000e0: 9075 ac3d e6f8 3e3d 04a6 4a3d c0fa 9ebd
000000f0: cb0c c83c 635a 8dbc 0625 88bd 2bf9 8bbd
00000100: 8799 953d 9c4c 0dbc 2a47 813b 9429 aabd
00000110: be50 b4bc 4c33 67bd 14c8 a83d 326c 933c
00000120: f36e 423d 2b5b 89bc 2c67 c0bc 64d0 ab3c
00000130: ba14 c03d 8af5 25bd ed16 143d ecae 01bd
00000140: a992 953d bb3c 8f3d 0fe7 b23d bf33 3339
00000150: fc00 00bd 5f09 b3bc 5090 093d 598e 09bd
00000160: 9a43 94bd a01b a6ba f037 9f3c 244e d53c
00000170: 6f31 8d3d f42d bfbd 20f4 fa3b 807e d6bb
00000180: 169a 73bd a611 a83c b4d5 7c3c 9aa9 243d
00000190: 1b6c 673d 40b9 253c 5c5b 5cbd a9a8 1ebd
000001a0: 1da9 103d b871 4abd 1e25 19bd a867 043d
000001b0: 56a2 fbbc 7f8b 09bd ecb3 1e3b e045 363d
000001c0: f3a4 7bbc 9892 60bd 8cc1 88bd 6c25 9a3d
000001d0: 4a46 7c3d 094e 43bd 0203 7f3d 714d b13d
000001e0: 671f 333b 2b43 a03c 82d7 093d 9e6b 813d
000001f0: 09f4 88bd d7ed 35bd 69c5 8b3c 82a4 c4bb
00000200: 857c 063d 237d 133c 9ebe 3fbd 809d 0a3c
00000210: 0e4a 893c fa5b 7fbd 496b ac3c 6ccd e839
00000220: cc3f 8ebd 5641 12bd 7d51 9c3d f950 a6bc
00000230: 6824 c8bb 80dc d5bc a748 80bd 7809 2f3d
00000240: 4fb8 a9bd 1b79 983c aaa1 833d c779 22bd
00000250: a001 1a3c e99f 6dbd 317c a63c 96bd 83bd
00000260: 796b 813d 627f 823d 83a4 193d 4622 a2bc
00000270: 9e0a 9f3d bc2a 5ebd fa53 003c e673 703c
00000280: b76d a8bd b058 a9bc fd76 573d 579b a33c
00000290: 5bf0 8ebd 892a fdbc 3498 903b ecfb a8bd
000002a0: 3c43 82bc 55b6 dbbc 2e2d f1bc 60d2 3a3d
000002b0: b722 8cbd 8793 fdbb 284f 98bd 787c 83bd
000002c0: d626 903d 9b86 c13c 085a 46bd ad02 323c
000002d0: 2806 99bc da89 183d 039e 7c3c a483 783d
000002e0: b2ba 0fbd 0ce0 d23c 99d5 853b df02 643c
000002f0: d899 d2bc 07e4 813d 7a49 613d f657 413d
00000300: fc22 29bd c59a 6fbd e3ac 86bd 6573 523d
00000310: b144 8dbd 6487 84bd 90ca c73c 90e9 3abd
00000320: 0b3e 9ebc a745 c03c 52f7 943c 3e3d 933a
00000330: 5bb1 89bd 1b7c 9abd 1d4d e8bc 1371 143d
00000340: 3b1a eabc 4bb2 073c a17a f5bb cb7f d63c
00000350: 4441 7dbd 3203 95bd 4b77 583d 4486 e93a
00000360: f2f2 53bc 9a4c 7d3d da92 813d de2a 1dbd
00000370: b777 183b bf41 ff3c 4d2d bdbc 977f 173c
00000380: a35f 533d bd35 493c 88ff 95bc b6d4 f5bc
00000390: 7113 b73c 3753 49bd c514 83bd af8c 50bc
000003a0: f587 263d 976b 0b3d 77a7 593c 34b6 49bd
000003b0: 1ddb c03d 1087 99bd eee5 aa3c 28ac 12bd
000003c0: 3a54 ad3d 7c6b 033d d35c 54bd 0f78 193d
000003d0: 95f4 633b 9f73 58bc e126 cc3c 7100 543d
000003e0: bf8b 813d 4aa5 21bd 9c3d 823c 8127 033d
000003f0: 18d0 2f3d 9d63 8b3d 179e 48bd 52e6 3b3d
-0.007973692 0.07206747 0.0074850256 -0.055839267 0.05905417 0.014354865 -0.0011157185 0.03716529
0.027323132 -0.0017865736 -0.034257352 0.022894988 0.07730287 0.09525435 0.047195364 -0.067632444
0.01775579 -0.0024361194 0.030494275 0.026271185 0.017171377 -0.034675527 0.021621913 -0.057155468
0.016666884 0.04116578 -0.06221807 -0.045305945 -0.022822294 -0.006223613 0.07318667 0.07477694
-0.012797181 0.09420017 0.015782915 -0.04885602 -0.06897156 0.07498898 0.036056213 -0.06770939
0.08669701 0.014157227 -0.008172803 -0.05853829 -0.024816843 -0.06824043 -0.051548664 -0.03731691
0.08260554 0.0064194314 0.10188904 -0.0059979986 -0.010043272 0.035686623 -0.03190419 -0.09565282
0.08420861 0.046624087 0.04947473 -0.077626705 0.024420163 -0.017255014 -0.06647687 -0.068346344
0.07304674 -0.008624222 0.003945251 -0.08308712 -0.022011157 -0.056445405 0.08241287 0.017995927
0.04746909 -0.016767105 -0.023486696 0.020973392 0.09378953 -0.040517367 0.036154676 -0.03166096
0.07303364 0.06994005 0.08735477 0.00017090047 -0.03125094 -0.021855054 0.033584893 -0.03358302
-0.072394565 -0.0012673028 0.019435853 0.026038237 0.06894194 -0.09334937 0.0076584965 -0.0065458417
-0.05947312 0.020516228 0.01543181 0.040200807 0.05649958 0.010114968 -0.053798065 -0.038735066
0.03531753 -0.049424857 -0.037388913 0.032325417 -0.030717056 -0.0335803 0.0024216129 0.04450023
-0.015359151 -0.054827303 -0.06677541 0.07526669 0.06159047 -0.047681842 0.062258728 0.08657349
0.002733195 0.019563278 0.03365279 0.063193545 -0.06687171 -0.044416275 0.017061906 -0.006001056
0.032833595 0.009002003 -0.046812646 0.0084604025 0.016758945 -0.062343575 0.021047251 0.0004440354
-0.06945762 -0.03570684 0.0763273 -0.020302283 -0.0061078556 -0.02610612 -0.06263857 0.04273364
-0.08287107 0.018612435 0.06427319 -0.039666917 0.0093998015 -0.05801383 0.020322891 -0.06432645
0.06319327 0.063719526 0.037510406 -0.019791733 0.07765697 -0.054239973 0.007832522 0.01467607
-0.082240514 -0.020672172 0.05260371 0.019971533 -0.06979438 -0.030904071 0.0044126753 -0.08251175
-0.0159012 -0.026820341 -0.029440489 0.045610785 -0.06842559 -0.007738534 -0.07436973 -0.06420225
0.07038657 0.023623755 -0.048425704 0.010864896 -0.018679693 0.03724084 0.015418532 0.060672417
-0.035090156 0.0257416 0.0040843007 0.0139167 -0.025708124 0.06342321 0.055001713 0.047203027
-0.04129313 -0.05849721 -0.06575944 0.05137958 -0.068978675 -0.06471136 0.024388582 -0.0456329
-0.019316694 0.023470713 0.018184338 0.0011233462 -0.06723281 -0.075432025 -0.028357083 0.03624065
-0.02857696 0.008282254 -0.007491425 0.026183983 -0.06182982 -0.07276 0.05284814 0.0017816504
-0.012936341 0.06184063 0.06326838 -0.03837096 0.0023264715 0.03115928 -0.02309289 0.009246728
0.05160488 0.012280879 -0.018310323 -0.030008655 0.022348138 -0.049151625 -0.06400446 -0.012728854
0.040657002 0.034038153 0.013284556 -0.049246028 0.094167925 -0.07496464 0.020861592 -0.035808712
0.084633306 0.032084927 -0.051846337 0.037468012 0.0034783233 -0.01321116 0.024920883 0.051758233
0.063254826 -0.039464273 0.015898518 0.032020096 0.042923063 0.06806109 -0.04897889 0.045873947

bias_hh_l0 f4 [512]
00000000: 52d0 d4bc 25f6 35bd 732a 9dbd 77a6 a3bc
00000010: d63d a53d 938d dabc b038 de3b 23a7 9abd
00000020: 0bd2 aabc 62f3 63bd 86a5 59bd 72bf 8d3b
00000030: 8846 ad3c 915a 4fbd f1d4 063d 2e56 093d
00000040: feab 3fbd 32f3 b03d 0aac d03b 1599 66bd
00000050: 950c 093d 4c7d b1bc 90cc 393d ba50 8c3d
00000060: 7aa6 0f3d dc63 66bd 48b1 aa3d 0e31 b93c
00000070: 957e de3c 612f b93a 71d3 833d 8210 f0bc
00000080: 0bde ad3d 051a 19bd 5fd6 58bd 0807 4bbc
00000090: de47 d23c 6fce 7a3d a075 4dbd 3291 8ebd
000000a0: 4bd8 dfbc 67f9 9bbd c123 d83c c417 c73c
000000b0: 7415 c6ba e5ec 97bd daa8 89bd 2738 973d
000000c0: af23 50bd 9a04 4fbd 59ad 7d3d 5cf9 913c
000000d0: 53d5 ce3d a538 42bd 1ba9 a33c a7c2 9cbd
000000e0: 7119 833d a73d b43d 5eef c5bc 5767 683d
000000f0: b2b0 2dbd 1104 683d 108d 0a3d 5257 fd3b
00000100: c773 eebc 2b33 84bc cdad debc 8eeb 03bd
00000110: 5f3e 9abd 191f 3ebb 8e0d 1ebd 88db bf3d
00000120: f3bf e53b abd4 b83d 1737 89bc b871 eebc
00000130: 39b6 163d 2399 54bd 88ea ab3d 3754 863c
00000140: 586e 9d3d 7abb cc3d 521e 74bc 5b8e 41bc
00000150: a207 37bd 9799 2b3d 20ca 64bd 64a6 373d
00000160: fcb0 d2bc 79e2 aabc b29a b7bc 28b9 82bd
00000170: e40f 3abd 88b7 9dbd 5d73 353c 4860 9a3c
00000180: 6d5c 723d 1611 433d fe6e 87bc 524f 583d
00000190: 5c6d bbbc 38cb 0ebd e4b4 01bd 25a6 e6bc
000001a0: 3fc1 a63d 11a0 cfbc 9867 453c 2abb 45bd
000001b0: 9718 f1bc 0036 33bd 49c2 3a3d debc fcbc
000001c0: 7845 96bd 88f9 86bd ecc2 98bd ba59 483d
000001d0: 53f8 e63c 931e a93d 0a2e 523d a004 7a3d
000001e0: 9515 92bc cc3c f63a a108 3bbd b4a0 a1bd
000001f0: 4445 81bb 1782 2b3d 5d6e 013d d4a7 713d
00000200: fe08 a9bd 78e4 86bd 1438 88bc 347b 31bc
00000210: 9310 c13c 69bb 4abc f427 56bd 9429 a5bd
00000220: b140 403d a6cd 66bc f168 69bd d9eb cc3b
00000230: 3700 77bd 11b7 bbbb ce28 de3c 0cd8 2f3d
00000240: db6d 8b3c 1911 133d b5df 853c daaa 2e3c
00000250: b13c 883d 61a0 3f3c a1df 563d 9bd9 653c
00000260: e3d4 9d3c 0f1c 2cbd bf82 173d bb01 1b3d
00000270: 8678 933d 5fdd 81bd da13 a13c 7ee9 b13d
00000280: b7ab 43bd 6993 2ebc dede 863d 7a41 883d
00000290: 4e6b a63d b87a a0bc fddf 813d 99be 8dbc
000002a0: 8402 02bd cda2 8f3d 11ba 023c 64cc 5a3d
000002b0: f1c0 4b3d 4554 99bd 7f25 76bd 6db0 563d
000002c0: 9800 643c 73ed a73d 284e bf3d 2d2c a8b9
000002d0: e4f8 23bc 7b56 953b 9bb0 02bd 2e51 833d
000002e0: a595 9c3d 1fff 6abd 4d39 033d adba 0e3d
000002f0: b048 5a3d 4c13 b6bb 8aa9 9e3d 486a 6b3d
00000300: f115 3e3c e540 843d 8bcc 373d c5d0 6bbd
00000310: 57bf 97bd 4115 813d 5c04 973c d914 f2bc
00000320: d81d a33d 7b2d 313d 9b2b 713d 1cd7 c5bc
00000330: 39e4 2dbc 8752 983d 60ef 243d 1d5f 2abd
00000340: 751a 0b3d 5799 d43c 24ec cd3c 0010 ad3d
00000350: 3b8c 3cbd 2b72 7ebd a6f3 ea3c 8ca2 4b3d
00000360: fff9 87bd eeb1 223c 2dae 12bd 89d1 343d
00000370: 0b8f afbc 9dd8 dcbc 4356 04bd d983 943d
00000380: 731d 1e3d 5724 863d 444c 36bd c9d1 8c3d
00000390: 0873 96bd 6f02 413d 81db 863d 61cc 90bd
000003a0: efcc 97bd 6cfa 743c e56d 97bd b549 04bd
000003b0: 537c ad3d fc70 16bc 7a79 093d 9503 2cbc
000003c0: 2560 efba 374f 3e3d 3f8c a6bd d7a3 153d
000003d0: b593 b2bc c610 2c3d 6eee ae3c dba2 debc
000003e0: fa33 943c 13e2 093d 32d2 d13a 650b 873d
000003f0: bacf a0bd f2e6 283b 44eb 72bd 0c8a a33d
-0.025978241 -0.044424195 -0.07674112 -0.019976838 0.08068435 -0.026678836 0.00678166 -0.0755141
-0.02085211 -0.05565203 -0.05313637 0.0043258006 0.021151796 -0.05062348 0.03291792 0.033529453
-0.046794884 0.08640136 0.006368165 -0.056298334 0.033459265 -0.021666192 0.0453611 0.06851335
0.035070874 -0.056247577 0.08334595 0.022606399 0.027159968 0.00141285 0.064368136 -0.029304747
0.08489617 -0.03737833 -0.052938815 -0.012391813 0.025669035 0.061232027 -0.050161004 -0.069612876
-0.027324816 -0.07615929 0.026384236 0.024303325 -0.0015112595 -0.07418231 -0.06721659 0.07383757
-0.05081528 -0.050541498 0.061932895 0.0178191 0.10099282 -0.0474173 0.019978097 -0.076543145
0.06401337 0.08800822 -0.02416199 0.056739178 -0.042404838 0.056644503 0.033825934 0.0077313567
-0.029107941 -0.01613768 -0.027182484 -0.032207064 -0.075314276 -0.0029010235 -0.038587146 0.09368044
0.0070114075 0.09024938 -0.016749902 -0.02910696 0.036794875 -0.051903855 0.08394343 0.016397579
0.07687062 0.09996696 -0.014899807 -0.011813725 -0.044685014 0.04189452 -0.055856824 0.044836417
-0.025719158 -0.020859944 -0.022412632 -0.06382972 -0.04542531 -0.077010214 0.011074868 0.018844739
0.059170175 0.047623716 -0.016532417 0.05281002 -0.022879295 -0.034861773 -0.03166665 -0.028155396
0.081423275 -0.02534488 0.012048624 -0.048274197 -0.02943067 -0.04375267 0.04559544 -0.030851778
-0.07337469 -0.06590563 -0.074590534 0.048913695 0.028194582 0.08257785 0.051313438 0.061039567
-0.017832557 0.001878643 -0.045662526 -0.0789198 -0.0039450247 0.04187211 0.03159939 0.058997944
-0.08253668 -0.06586546 -0.016628303 -0.010832597 0.023567474 -0.012373784 -0.052284196 -0.08064571
0.046936695 -0.014087116 -0.056984846 0.006253701 -0.06030294 -0.0057286103 0.027119067 0.042930648
0.017020157 0.035904977 0.016342023 0.010660851 0.06652201 0.011695952 0.052459363 0.014028932
0.019266551 -0.042018946 0.036989924 0.037843447 0.072007224 -0.06341051 0.019662786 0.08687113
-0.047771182 -0.0106552625 0.06585477 0.06653114 0.081259355 -0.019589767 0.063415505 -0.017302798
-0.03174068 0.07013474 0.007978932 0.05341758 0.04974455 -0.07486776 -0.060094353 0.052414346
0.013916157 0.08199587 0.09341079 -0.0003207637 -0.010008071 0.0045574284 -0.031906705 0.06411968
0.0764573 -0.05737221 0.03203707 0.034845997 0.053291976 -0.0055564996 0.07747181 0.057474405
0.011601911 0.0645769 0.0448728 -0.057572145 -0.07409542 0.06302882 0.018434696 -0.029550957
0.079646766 0.043256264 0.058879476 -0.024150424 -0.010613495 0.07437616 0.04026735 -0.041594613
0.03396078 0.025952024 0.025137015 0.084503174 -0.04603217 -0.062120598 0.028680634 0.049715564
-0.0663948 0.009930117 -0.03581064 0.04414514 -0.021430513 -0.026958758 -0.032308828 0.072517104
0.038602304 0.065499 -0.044506326 0.06875951 -0.07346159 0.04712146 0.06584836 -0.07070232
-0.07412135 0.014952283 -0.073940076 -0.032296855 0.084709786 -0.009182211 0.033563115 -0.010498901
-0.0018262906 0.046462264 -0.081322186 0.036533203 -0.021798948 0.042008184 0.021353927 -0.027177265
0.01809119 0.033662867 0.0016008078 0.0659397 -0.07852121 0.002577242 -0.059306398 0.07985315

weight_ih_l1 f4 [512, 128]
00000000: 71b6 b73d 9c33 d6bc 830f 31bd 47bc 393d
00000010: 2efc b3bc f5b1 003d dba7 673d 6ee6 8d3d
00000020: 9eb0 503d 3f2d 823d 6806 86bd 1da7 7dbd
00000030: 41a7 b8bc 5f6a 3f3d 7a7b b4bc 68b2 753d
00000040: 9d77 a8bc 0187 253b 6a03 213d b333 89bd
00000050: cc91 05bc 0d82 8c3d 91e5 ac3d eda3 ac3d
00000060: 84a0 73bd 5e98 843d 39ae 433c 6cf7 e63c
00000070: 8d96 b93d bef4 2cbb 0c39 953d d79c a5bd
00000080: f214 de3c 5fbd efbb 7917 9abb 065b 483d
00000090: 67f6 123d af39 84bd 42ab 933c 22aa 143d
000000a0: e592 2fbd 7efd 33bd 8f12 b3bd 116e 80bd
000000b0: 7697 293d 7b5f 4ebd ee8e 9fbd 195a 893d
000000c0: ab5b 4dbd 019e 7abd b943 edbb 8bb8 6e3d
000000d0: d68a 35bd 7cc1 47bd cc91 4bbd a237 573d
000000e0: 9fb2 dcbc 9976 2f3d 0d78 55bd 4562 913d
000000f0: 8288 af3b 1fa8 b23d f1f0 19bd 28e7 673d
00000100: c3ce 91bb 4c0f 94bc 9150 f93c 78bd 77bd
00000110: ad6a e9bc ed8c 81bd 2a1b 353c dcee fabc
00000120: e6e3 36bd 6aaf 3fbd 6ab6 893d 6f3d 913c
00000130: b2e5 9e3d 55c3 96bd 89f6 5cbd 50dd 903d
00000140: 2c59 78bc c7ef cd3b 1175 e23c 3025 b5bc
00000150: 6d44 b33d a2bc 973d 8780 213d 1b05 caba
00000160: a252 5bbd a8d7 233d 67e9 ac3c e9f9 88bd
00000170: 1ef9 7c3d adaf cebc 68f9 86bc 3eb8 043d
00000180: 254a 0abd 63c3 d93b 4c3d 60bd b549 9d3c
00000190: c5af a0bc a60c ad3d 5d67 6cba bb5e c03b
000001a0: dbb0 9d3d ea83 283d 6e91 c1bd 72d1 1ebd
000001b0: 64b7 9dbd 2e63 3abd 1c44 abbd 9898 b13d
000001c0: 694e b13a 831b 133d 6f7f 2dbd 8f9e 853d
000001d0: 9695 713c 09bb a2bc 1d73 923d 2a07 403d
000001e0: 69c8 9f3c 5bae 39bd 68d3 c2bb 702d 3abd
000001f0: 53cd 7c3d 1695 313d 6810 9abd 5c0b af3d
00000200: b0ed a63d f28d dd3c 16ae 39bc ca85 d43c
00000210: b7c7 0b3d eb68 053d 8801 dcbc 9cce ef3b
00000220: 8f87 873d c66a a8bc 822f bbbc 19c4 853d
00000230: c661 08bd 1591 a1bc 8853 6dbc 784b 3bbd
00000240: 8152 0ebb 4700 bbbd 1677 5fbc cf02 38bd
00000250: a0b6 d8bc 1a8c 97bd 602b b23d f20c 133d
00000260: 7240 f0ba 41c5 b7bb 8031 87bd b694 113d
00000270: a5bc 03bc 8757 413d 454c a4bc bf86 45bc
00000280: fac3 50bb 3394 43bc 90fb a8bd d6ee 233d
00000290: a4df 6d3d 475c 55bb 5832 70bd e31d a5bc
000002a0: 2841 aa3d 48b3 b5bb d438 6bbd 992b 99bd
000002b0: e182 57bd 2b52 afbd a736 3ebd 2a8e 4cbd
000002c0: 6123 72bd 472f 813d c2ec 9c3d 6eaf 85bd
000002d0: 46ef 5c3d b647 d03c e59b 53bd 1737 713d
000002e0: aa76 92bd 7c41 66bd c405 b03d 6033 763d
000002f0: 29c8 18bd 0fe5 163d fec6 81bd 8c09 e1bc
00000300: 4d03 0a3c ca30 653d d5fa 18bd 7c49 a53a
00000310: b1df 4cbc dfa2 fe3b 206f 79bd e5ce a53d
00000320: bb9d b0bc 8135 a9bd e8fe 97bd 194a 04bc
00000330: 4ca8 a03d 8c45 443d 38e8 56bc 014c 9f3d
00000340: 0613 cfb9 718d 10bd effa 61bd 0dbd 72bd
00000350: a5b4 b5bc 0843 b73c 9a9f a13d df91 eb3c
00000360: aaa2 863d 0b11 163d b751 93bd 2e20 743c
00000370: 1bab 8d3d 42e4 89bd fe53 ff3c b741 273d
00000380: f94b 693c e458 dfbc 84a2 86bd a6ec 493d
00000390: c6c7 9a3d d578 a2bb dd65 5d3d d200 b7bd
000003a0: c068 5c3d fcc0 d1bc 76ca f83b 83ea bb3d
000003b0: d17a 433d b412 15bc 9091 13bc 5328 833d
000003c0: 2630 fe3c 06ee 3ebc 17d3 843c ef3d 743c
000003d0: 4902 8ebd f885 a0bd 800d 5d3d 47ca 473d
000003e0: 7e31 763d df1d 9cbd c892 7fbd 1468 ad3d
000003f0: e424 813d 179e 473d d87f 26bd 1012 0dbd
0.08970345 -0.026147656 -0.043227684 0.04534557 -0.021970835 0.031419713 0.056556564 0.069287166
0.050949685 0.06356286 -0.06544191 -0.06192695 -0.02254069 0.046732303 -0.022031534 0.059984595
-0.020564849 0.002525747 0.039309897 -0.06699314 -0.008152436 0.06860743 0.08442224 0.08429704
-0.05947925 0.06474374 0.011943393 0.028194152 0.090619184 -0.0026390995 0.072862715 -0.080865555
0.027109597 -0.007316276 -0.004702505 0.04891493 0.03587952 -0.06456315 0.018025998 0.036295064
-0.0428647 -0.04394292 -0.08743774 -0.062709935 0.04140421 -0.050384026 -0.077909335 0.06706638
-0.05013625 -0.06118584 -0.007240739 0.058281463 -0.044321857 -0.048768505 -0.04969959 0.05254329
-0.026940642 0.042837713 -0.052116442 0.070988216 0.005356849 0.08723473 -0.037583295 0.056616932
-0.0044496967 -0.0180737 0.030433925 -0.060483426 -0.02849325 -0.063257076 0.01105384 -0.030631475
-0.044650935 -0.046798147 0.06724246 0.01772949 0.07758655 -0.073614754 -0.05394605 0.07073462
-0.015157979 0.006284687 0.027643712 -0.022112459 0.087532856 0.07409026 0.039429214 -0.0015412899
-0.0535456 0.040000588 0.021107389 -0.066882916 0.061761014 -0.025230253 -0.016476348 0.03240227
-0.033762116 0.0066456064 -0.054745957 0.019200185 -0.019615063 0.08449678 -0.0009018088 0.0058706678
0.07699748 0.041141428 -0.09451567 -0.03877396 -0.077009946 -0.04550474 -0.083626 0.08671683
0.0013527396 0.03591491 -0.04235786 0.06524383 0.014745137 -0.019864576 0.07150862 0.046881832
0.019504743 -0.045332294 -0.0059456117 -0.04545349 0.06171925 0.04335507 -0.075226605 0.085470885
0.08150804 0.027045224 -0.011333009 0.025942702 0.03412601 0.03257076 -0.026856199 0.007318331
0.066176526 -0.020558726 -0.022849802 0.06531543 -0.03329637 -0.0197225 -0.014485247 -0.04572627
-0.0021716657 -0.09130912 -0.013639232 -0.044924553 -0.02645427 -0.07399769 0.086996794 0.035901017
-0.0018329753 -0.0056082313 -0.06601238 0.035542212 -0.008040582 0.047202613 -0.0200559 -0.012056052
-0.0031855092 -0.011937189 -0.08251107 0.040022694 0.05807461 -0.0032556222 -0.05864176 -0.020155853
0.08313209 -0.0055450536 -0.057427242 -0.07479019 -0.05261505 -0.08560594 -0.04643884 -0.049940266
-0.05911577 0.063078456 0.076623455 -0.06527601 0.053939126 0.02542482 -0.051662344 0.05889043
-0.071515396 -0.056214795 0.0859485 0.06010759 -0.037300263 0.03683954 -0.06336783 -0.027470373
0.0084236385 0.055954732 -0.037348587 0.0012610401 -0.012504504 0.0077708806 -0.060896993 0.080961026
-0.021559587 -0.08262158 -0.074216664 -0.008074307 0.078446 0.047917888 -0.013116889 0.077781685
-0.0003949629 -0.03529114 -0.05517095 -0.059262324 -0.022180865 0.02237083 0.0789177 0.02875608
0.065739945 0.036637347 -0.0719332 0.01490025 0.069174014 -0.0673299 0.03116798 0.040834155
0.014239305 -0.027264066 -0.06573966 0.04929795 0.07557635 -0.004958252 0.054052223 -0.08935703
0.053810835 -0.025604717 0.0075924946 0.09175589 0.04772455 -0.009098697 -0.009006873 0.064041756
0.031028818 -0.011653429 0.016213937 0.014907344 -0.069340296 -0.078380525 0.053967953 0.04877689
0.060105793 -0.07622885 -0.06239584 0.08467117 0.063058645 0.04873475 -0.040649265 -0.034441054

weight_hh_l1 f4 [512, 128]
00000000: aaa0 bb3d f20c 08bc b10b 9dbd 657f abbc
00000010: ba14 8abc 9653 98bd 941d 953c dfae c5bc
00000020: 4212 26bd ec13 3e3d 0e20 85bd 9644 2c3d
00000030: c742 56bd 310e b33c 897a 603c deca a03d
00000040: 9c45 01bc 1502 813d ec5c 803d b7a2 a7bd
00000050: 6a82 563d 1f9b 743d cdba 14bd 17ef 91bd
00000060: 3364 60bd 8046 763d be68 dcbc 6c92 5dbd
00000070: 8fae 8fbd c073 31bd 14c4 0e3d a21f 4b3d
00000080: f0dd 633c 2218 8b3c aeff 633d f4e6 2ebd
00000090: bae1 923c 0b77 8bbd 52c1 913d 76b0 18bc
000000a0: beb1 6bbc c929 a23d fa21 503d 652f 6bbd
000000b0: e0f2 0b3d 7306 37bd b0c3 a03c 569f 913c
000000c0: 7a7d 593d accd a0bd 1cab f9bc ab15 69bb
000000d0: eb46 c83a 67e8 3a3d dd13 913d 7fb8 07bd
000000e0: d863 663d c7bf b3bd f11e dc3c 89ed a43b
000000f0: 082c d6bb 8d9c a3bd 2891 903c 824b 82bc
00000100: 9858 87bd f59c 5a3c 84a7 8fbd 3686 2b3a
00000110: 4576 42bd a58f df3b 8d6a f83b 2ea1 a63d
00000120: 6215 ea3c ad3c 0fbd 8164 473d c7d6 b83d
00000130: 8361 4abb 13c3 88bd c3f4 d13c f100 1dbd
00000140: 9197 473d 3bf4 2c3d 1818 ad3d 359d f5bc
00000150: 9b8a 643d bea3 97bd 6006 c8bc 54b1 333d
00000160: 66aa 8abd 17fc 87bc 1e0d 8dbd 6099 12bd
00000170: 3687 8f3d 72b1 a6b9 fb20 72bd fd0c 4f3d
00000180: 4ec1 003d dc2a 76bd 9e76 2fbd 73c6 893d
00000190: 9054 96bd 3ebf 993d 8ef1 78bd 31a8 7ebd
000001a0: ffd8 65bd 51cd 983d 695d 583d 78bb b03d
000001b0: 25db 78bc 038b 4bbd c202 f53b 1e20 b93b
000001c0: 4c89 b8bd b845 adbc 0257 463d aa7b 74bb
000001d0: 53cf 93bc 4cbc 68bd 3cbd 86bd 9e99 62bd
000001e0: 12a3 cdbc ba57 b83c 51a3 a33d 13f6 2e3d
000001f0: 3272 ab3c 94da 22bd f1f9 bc3b 5e9d 90bd
00000200: 702a 6e3d 1816 fabc 9666 63bd 4476 52bd
00000210: bcb5 c33c 0efc edbb 5d1a 64bd c663 083d
00000220: d2a6 0c3c 6fed c0bc 4aea a5bd 5d8f 8d3d
00000230: e4de 763d 738c aebd f8fd 8bbd cf39 5abd
00000240: 5e8d 653d 9b2a 22b9 d2f6 73bd d77a 8a3d
00000250: 4504 883d 85c6 563d d950 bd3d 88e7 48bd
00000260: 53c4 2b3d c5b1 cf3c ded3 25bd 2a3d a03d
00000270: fff2 9bbd 9d13 5c3d 8ce1 5d3d b49b 593c
00000280: 600a d43c 80ae 6ebd 3d2b 9e3c 958f 9d3c
00000290: 9ac1 933d baa0 2d3d ae59 c4bc bd5b 513d
000002a0: c574 a4bc 92a9 3fba b967 d6bc 4fd8 3fbb
000002b0: a2fb ecbc c260 1bbd 6ade 233c b4f2 5d3a
000002c0: 20f1 a0bd efb6 913d 79ba 41bb 8d9d 93bc
000002d0: fb42 12bc 1eb1 cfbc 4efc 28bd b8dd 16bd
000002e0: 98d1 9dbd 0138 3a3d 155c e6bc 458d 7c3d
000002f0: bef0 ac3d 1ba3 06bc 37ee 863d 281c 933d
00000300: 9c23 a83c d626 56bd 6c11 863d 2feb 9ebd
00000310: dda1 393d 8e35 a73d 13d0 a83d 8c46 83bc
00000320: 66bd 8e3d 55d6 743d 7e16 113d badb 91bc
00000330: cfef b3bd fbdb 9abd 7387 7a3c 2a69 963d
00000340: 0b6c 9c3d 2b56 4cbd 91db a7bc 32a8 ed3b
00000350: 1d28 983d f1ed 513d 7b39 813d dcc6 1bbd
00000360: e9f9 0e3d 14b5 323d 1df4 1a3d ac09 02bd
00000370: dff7 213c 10ce 883c 7481 cf3c e604 803d
00000380: 79fd c6bc 084a 84bd 1569 84bb 2bc9 873d
00000390: 474a 52bd 28f9 f13b ecdb cfbc 0cfd 6e3a
000003a0: e823 b2bc 1daf ddbc 8a53 8f3d e9a8 98bd
000003b0: 1127 c2bd 316e 0fbd 64ad b23d 34fd 87bd
000003c0: 1ebc 4fbd 578a c8bc 58ce c2bc 7bd2 9ebd
000003d0: 9979 e93b c31a 66bd 99e5 ea3c f207 39bc
000003e0: 434e 4cbc 844f be3c ecbf 6bbd 0127 82bd
000003f0: 7037 c43c d6e7 753d 95b1 acbd 1774 82bd
0.091615036 -0.008303868 -0.076682456 -0.02093477 -0.016855586 -0.07437818 0.01820258 -0.024131237
-0.040544756 0.046405718 -0.065002546 0.042057596 -0.052309778 0.021857353 0.01370109 0.07851194
-0.007890131 0.06299225 0.062677234 -0.08185332 0.052370466 0.059718248 -0.03631096 -0.07125681
-0.054783057 0.060125828 -0.026905414 -0.054094717 -0.07015716 -0.04332328 0.034854963 0.049590714
0.0139078945 0.01697928 0.055663757 -0.042700723 0.0179299 -0.06809815 0.07116951 -0.009319415
-0.014385639 0.07918126 0.050813653 -0.057418246 0.03416717 -0.044683885 0.019624561 0.017776173
0.05309818 -0.07851729 -0.0304771 -0.0035565894 0.0015279924 0.045631792 0.07083867 -0.033134934
0.056247562 -0.08776813 0.026870223 0.005033199 -0.0065360107 -0.07988844 0.01764734 -0.015905146
-0.06608695 0.013343086 -0.07014373 0.00065431313 -0.047476072 0.0068225437 0.007581061 0.08136211
0.02857465 -0.034969974 0.048679832 0.090253405 -0.0030880875 -0.066778325 0.025629407 -0.038330976
0.04872853 0.042225104 0.08451861 -0.029982189 0.055796247 -0.07404278 -0.024417102 0.043870285
-0.06770782 -0.016599698 -0.068872675 -0.0357908 0.07008211 -0.00031794194 -0.059113484 0.050549496
0.03143435 -0.060099468 -0.04283773 0.06727304 -0.07340348 0.0750718 -0.06077724 -0.06217212
-0.056115147 0.07461036 0.052823458 0.08629507 -0.015188967 -0.04969312 0.0074771354 0.0056495806
-0.09010562 -0.021151409 0.04842282 -0.0037305155 -0.018043196 -0.0568202 -0.06579062 -0.055322282
-0.025102172 0.022502769 0.079901345 0.042715143 0.020928476 -0.039759234 0.0057671 -0.070612654
0.05814594 -0.030528113 -0.055517755 -0.05138232 0.023890369 -0.0072627133 -0.055689204 0.033298276
0.008584695 -0.023550717 -0.08101328 0.0691211 0.06027116 -0.08522882 -0.0683555 -0.053277787
0.05604302 -0.00015465396 -0.059561558 0.06761711 0.06641439 0.052435417 0.09243936 -0.04904893
0.041935276 0.025353322 -0.040485255 0.07824166 -0.07614707 0.053729642 0.054170176 0.013281751
0.025883853 -0.058271885 0.019307727 0.019233504 0.07214661 0.04238961 -0.023968544 0.05111288
-0.020075211 -0.000731134 -0.026172506 -0.0029273217 -0.028928582 -0.037934072 0.010001758 0.00084666465
-0.07858491 0.0711497 -0.002956061 -0.018019462 -0.008927102 -0.02535301 -0.04125624 -0.03683254
-0.077059925 0.045463566 -0.02812008 0.061658163 0.084443554 -0.008217598 0.065884046 0.07183105
0.020524792 -0.05228313 0.06546292 -0.077597015 0.04532038 0.081645116 0.08242812 -0.01602485
0.06969719 0.059774715 0.03542184 -0.01780497 -0.08785974 -0.07561489 0.015291083 0.07344277
0.07637795 -0.049886864 -0.02049044 0.0072527165 0.07429526 0.05125231 0.06309792 -0.038031444
0.0349063 0.04362972 0.03783046 -0.031747505 0.009885757 0.01669982 0.025330283 0.06250934
-0.024290787 -0.06459433 -0.004040847 0.066301666 -0.051340368 0.007384438 -0.025373422 0.00091166864
-0.021745637 -0.02706104 0.06998356 -0.07454092 -0.094801076 -0.035017196 0.08724478 -0.066400915
-0.050716512 -0.024480028 -0.023780033 -0.0775499 0.0071250913 -0.056177866 0.028673934 -0.011293398
-0.012469831 0.023231275 -0.057556078 -0.06355096 0.023952216 0.06003555 -0.084323086 -0.06369799

bias_ih_l1 f4 [512]
00000000: 673c 54bd 9877 963d 0d79 afbc 98f4 743d
00000010: a01a 893c c06b 413c db49 ae3d 3a6f b93d
00000020: e4fa 063d 4979 60bc 6b88 8d3d 5dc9 813d
00000030: 594c 143b b5a6 bf3d f412 8abd e49e 69bd
00000040: 65c9 c6bd a153 1ebc cc9b 9a3c 3475 8d3d
00000050: a9a1 b33b 0ba3 b53a 4853 2e3d 8fe5 3e3d
00000060: afd5 5bbd e94e 483d 4247 50bc b79c 783b
00000070: f1e8 043d 912d bbbc 043d e6ba 7522 2abd
00000080: 4ee8 ac3d 00b1 963d 61db f2bc ef48 09bd
00000090: 228d 8e3d ecaf e8bc a7dc 723c e530 bb3d
000000a0: fcdc 8f3c b4bf cfbc 4334 0b3d 46b9 3b3d
000000b0: e85b 15bd bd0a b53d 76d2 913c ab27 7fbb
000000c0: 2572 5bbd d6a8 82bd d7b1 c23d ae50 8b3d
000000d0: 7578 3b39 8fbf debc 184f 6f3d 80e2 ba3d
000000e0: 7112 663d a5a9 0ebc 6cfb bb3c 5fe3 3cbc
000000f0: 4793 9b3d d2f2 edbc 1378 b73d 8e20 943d
00000100: aeb1 b23d 8b1b 84bd 0c11 cf3b 56e9 90bd
00000110: f069 263d 3ed7 303c f66f 933d 8534 f1bb
00000120: a1c0 5d3c 07ee b03d 1122 c13d ba00 a13d
00000130: cb2c a33d fd5c 263d 40c0 643b 837f 93bd
00000140: 5344 7b3d 111f 033c 9d84 a2bd 1117 343d
00000150: 2d08 bf3c 4eca 643d c49d 9abd 28d8 863d
00000160: 6cc6 b7bc d764 0bbc 4e00 3cbd e7f2 ac3d
00000170: 3225 873c 1343 94bd ba2d 363d ac57 f23b
00000180: 3f53 81bb 9633 16bd 5981 40bd acbd 753d
00000190: 07f3 99bd c600 44bd 5ab8 fbbc 600d 9dbd
000001a0: 15cb c53d 75fe 593d 36a0 073d 312c fd3c
000001b0: f6c0 153d 9f98 a73d 3eff 9c3d 7a13 8abd
000001c0: af6b 3c3d 8292 92bc 4492 56bd 7306 ce3d
000001d0: 1b3b 21bd 5d62 4b3d e049 edbb bcb4 9a3d
000001e0: 280b f5bc 39a6 95bd 2e6e 90bd 43af 6bbc
000001f0: 0f11 fcbc 430a 8bbd 3f21 71bd ac58 4a3d
00000200: 4dbc 083d 6417 673d 0b28 453b 3759 cb3c
00000210: 6290 80bd b10f 23bd 9cf4 0abd 717e 27bc
00000220: 7be2 133d 3d95 e3bc 1890 8c3d 7ab3 603d
00000230: e027 a03d f883 d3bc f5a2 aabd 1b15 4dbd
00000240: d049 dd3c 574f 6ebd 2164 01bd 2625 4cbd
00000250: dbd4 5c3d 6da1 46bc 5301 8ebc 88b4 ee3c
00000260: 3a41 05bc 10e3 18bd 6b6d 0bbc 961b 93bd
00000270: a2e9 ba3d 4a80 c3bb 0463 6cbd 9491 483d
00000280: 335e cc3c 5808 9abb cc24 8ebd 68fd 11bd
00000290: f432 ce3c 61a0 693d 3819 613d 44d0 a9bd
000002a0: 6331 acbd ccd1 fb3c 3f0d 97bc 3307 d43c
000002b0: 011d 073d a425 e4bc 78e6 40bc 8a74 c93c
000002c0: 3515 033d 389a 413d 0236 1c3d db31 a13d
000002d0: 0d5d 9ebc 075a 48bc 291c 84bd ad49 8d3d
000002e0: b6e2 5ebc fa7c a5bc 1815 7bbc 2928 a33c
000002f0: 3529 913c 74c0 493d 879f 993d 7cfe 293d
00000300: 153c 2bbd 48d2 92bd 6419 5c3d a546 df3a
00000310: 38cf 893d ed01 593d d258 6d3d d7dd 6cbd
00000320: eb77 b43d ee1d 93bd 65df 8bbd 39bc 4cbd
00000330: df18 893d 0630 febb 94c5 973d 7df1 c73c
00000340: f79c 383d e623 cebc 8da4 60bc 5224 103d
00000350: 227a 593d a22a 54bd 53ce 53bc a0e7 e2bb
00000360: 6d73 67bd 0b03 2abd 031a aebc 15d8 d0bc
00000370: e041 a93d 23ab 4bbd 2482 823d 563f 65bd
00000380: 482f c13d 110b 55bd a4b9 6f3d e48c 4c3d
00000390: 5196 f2bb bfc9 973a 4224 5abc 2074 62bd
000003a0: b524 c8bc 26b7 44bd 9256 833d 0fb3 7bbd
000003b0: 9408 27bd a082 523d 7a94 c6bc 0f7f b3ba
000003c0: 740f 1c3d d88f d7bc d000 59bd a3b3 a1bd
000003d0: 0b73 20bd c035 413c 010b 773d e737 b73d
000003e0: da23 b0bc acc2 1d3d fe9d ae3c 2190 aabd
000003f0: aa3b 96ba f55d 34bd 87df 04bd d7ed b63d
-0.051815417 0.073470294 -0.021420026 0.059803575 0.016736329 0.011805475 0.085101806 0.09054418
0.03295411 -0.013700792 0.06910785 0.06337235 0.0022628515 0.09357969 -0.06741896 -0.057036296
-0.09706382 -0.009663493 0.018873118 0.0690712 0.005481918 0.0013857795 0.042559892 0.046605643
-0.05367058 0.04890338 -0.012712302 0.0037935206 0.032448713 -0.022848876 -0.0017565791 -0.041536767
0.08442746 0.07357979 -0.029645624 -0.03351682 0.06960513 -0.028404199 0.014823115 0.09140185
0.017561428 -0.025359966 0.033985388 0.045830987 -0.0364646 0.08839939 0.01780055 -0.0038933556
-0.053575654 -0.06379859 0.095065765 0.06802498 0.00017878583 -0.027190952 0.05842504 0.09125233
0.05616993 -0.008707439 0.022947036 -0.011528819 0.0759645 -0.02904645 0.08958449 0.07232772
0.08725296 -0.06450566 0.006319171 -0.07075755 0.040628374 0.010793505 0.07199089 -0.007360997
0.013534696 0.0863915 0.09430326 0.07861467 0.07967528 0.040616024 0.003490463 -0.07202055
0.061344456 0.008003012 -0.0793545 0.04396731 0.023319328 0.055856995 -0.07549623 0.06584197
-0.022433482 -0.008507929 -0.045898728 0.084447674 0.016497228 -0.07239356 0.044477202 0.007395705
-0.0039466913 -0.03667029 -0.046998356 0.05999534 -0.07517057 -0.0478523 -0.030727554 -0.07668567
0.096578754 0.053221185 0.033111773 0.030904861 0.036560975 0.08183407 0.07665871 -0.06741996
0.046001133 -0.017892126 -0.052385584 0.10059824 -0.039363008 0.049654353 -0.0072414726 0.075540036
-0.029912546 -0.07307095 -0.07052265 -0.014385047 -0.030769853 -0.06789067 -0.058869597 0.04940097
0.033382703 0.05641879 0.0030083682 0.024822814 -0.06277539 -0.039809886 -0.033924684 -0.010223017
0.03610466 -0.027781123 0.06863421 0.054858662 0.078201056 -0.025819764 -0.08331863 -0.050068956
0.027012736 -0.058181133 -0.03158963 -0.049840115 0.053913932 -0.012123448 -0.017334616 0.029138818
-0.008133227 -0.03732592 -0.008509974 -0.07182996 0.09126593 -0.005966221 -0.057711616 0.04896696
0.024947261 -0.0047007017 -0.06940612 -0.035642058 0.02517078 0.057037715 0.05495569 -0.08291677
-0.08407857 0.030739687 -0.018438933 0.02588234 0.032986645 -0.02784998 -0.011773698 0.024591703
0.032002646 0.047266215 0.038137443 0.07870837 -0.01933148 -0.012228495 -0.064506836 0.06898818
-0.013603857 -0.020201195 -0.015324853 0.01991661 0.017719844 0.049255803 0.075011306 0.04150246
-0.041805346 -0.07169014 0.053735152 0.0017034604 0.06728977 0.052980352 0.057946034 -0.05782875
0.08811935 -0.07183443 -0.068297185 -0.04998419 0.06694197 -0.0077571897 0.07410732 0.024407143
0.04507157 -0.025163602 -0.013711107 0.035190888 0.05309499 -0.05179847 -0.0129276095 -0.0069245845
-0.056506563 -0.04150681 -0.021252638 -0.025493661 0.08264518 -0.049723756 0.063724786 -0.055968605
0.09432846 -0.052012507 0.05852665 0.04993905 -0.007403173 0.0011580511 -0.013314309 -0.055286527
-0.024431566 -0.048026226 0.06412996 -0.06145006 -0.040779665 0.051394105 -0.024240721 -0.0013694483
0.038100675 -0.026313707 -0.05297929 -0.07895591 -0.039172214 0.0117926 0.06031323 0.089462094
-0.02150147 0.03851573 0.02131557 -0.08328272 -0.0011461873 -0.044034917 -0.032439735 0.08932083
