stockforecasting/300078_model.pkl (torch, 858496 bytes, 14 tensors)

weight_ih_l0 f4 [512, 4]
000000 9e ba 7f 3c 7e 4e a6 3d df 2b 4a 3c 74 2d ed 3d
       0.015608458 0.0812044 0.012339561 0.11580935
000010 c2 79 10 bc 2d 05 9c 3c fc d6 70 3d 96 ef e1 3d
       -0.008818092 0.019045437 0.058798775 0.110320255
000020 bc da 44 bd 73 e9 e3 3c a6 46 f2 3d 6f a5 38 3d
       -0.048060164 0.027821278 0.11829881 0.045079645
000030 b4 e8 c3 3d 9b b1 61 3d ff 37 a2 bb a7 45 b9 3d
       0.09565869 0.05510102 -0.004950523 0.09046488
000040 f7 a9 1d 3d f2 5c a8 3c fd ee 97 bd f7 ec ce bc
       0.03849217 0.020552132 -0.0741863 -0.025259478
000050 a0 e1 b4 bb 6a be 92 bd 76 00 25 bd 78 6b 7a 3d
       -0.0055200607 -0.07165225 -0.040283643 0.061137646
000060 d4 d2 dc 3c d2 c1 91 3d d0 78 d9 3c e0 21 0a 3e
       0.026956 0.071170464 0.026546866 0.13489485
000070 c3 1f 87 bc e6 f7 c0 3d 4b e0 e7 bc 72 e6 1e bd
       -0.016494637 0.09422283 -0.028305193 -0.03879399
000080 61 2b 52 bd 08 80 0f bd 8b c2 9b bd ac 0b 25 3d
       -0.0513109 -0.03503421 -0.076054655 0.040294334
000090 d8 6a 38 3c 4e 87 50 bb 89 92 1d bd 1d e4 43 3a
       0.011255942 -0.003181893 -0.038469825 0.0007472651
0000a0 03 27 81 3c 51 93 88 3d 9b d0 aa 3d cb a0 17 3d
       0.015765673 0.066687234 0.083405696 0.03701858
0000b0 09 ee bb bc f7 d0 66 bd 6f cd 95 3d b7 c4 2d 3d
       -0.022940652 -0.05635163 0.07314574 0.04242393
0000c0 2b f3 d5 bc f2 95 a1 3b 8b e0 53 bd d2 11 db 3d
       -0.026116928 0.004931205 -0.051727813 0.10696758
0000d0 bb 21 66 bd c2 64 2e bd 84 5f 80 3d aa 17 b4 3c
       -0.05618451 -0.04257656 0.06268218 0.02198394
0000e0 8e c3 e6 3c c0 10 20 bc 87 2e 04 bb 0b a8 bb 3d
       0.02816942 -0.0097696185 -0.0020169334 0.09162911
0000f0 39 1f b4 bc 52 78 03 bd 3e 8c be bd fc a8 35 bd
       -0.021987544 -0.03209717 -0.09304093 -0.04435061
000100 ff f3 2b b9 42 c1 a1 3c c5 16 8a 3d f5 7a 98 3d
       -0.00016398726 0.019745473 0.06742624 0.07445327
000110 79 6a 41 bd 7e d6 9f 3d 11 f9 95 3d 1a e5 0a 3d
       -0.04722068 0.07804583 0.07322896 0.033909895
000120 55 3e 03 bd 8e a2 40 3d 90 b8 08 3d dc cc 91 bc
       -0.032041866 0.047030024 0.033379138 -0.01779788
000130 05 1d 9b bd 86 fa 05 3b 59 cf 8c 3d bf a2 af bc
       -0.075738944 0.0020443513 0.06875486 -0.021439908
000140 6e 88 32 3c fb d0 a0 bd d0 04 63 3b fe 78 b3 3d
       0.010896785 -0.0785236 0.003464032 0.08763312
000150 2a a0 8a 3d 44 86 6f 3d 22 f8 49 3c 6a 15 c3 3c
       0.0676883 0.058477655 0.012327226 0.023813922
000160 b2 73 75 bb 84 a9 b6 3c db 47 9a bd ef 94 75 bd
       -0.0037452993 0.022297628 -0.075332366 -0.059956487
000170 c2 7b 8f bc fc 7a 04 3c f7 df 8b bc bc ab 59 3d
       -0.017515067 0.008085962 -0.017074568 0.053142294
000180 ae e7 eb bc 0a 8c c3 3d 21 f0 23 bd bd 73 1f 3d
       -0.028796997 0.09548195 -0.040023927 0.038928736
000190 ce a3 ec 3c 08 32 a9 3c 8b d6 04 3d e3 38 73 3d
       0.028886702 0.02065374 0.032431167 0.059380423
0001a0 8f 21 c9 bc ce cd a5 3d 2d 7d b4 3d 84 fc 5c bd
       -0.024552135 0.08095895 0.08812938 -0.053951755
0001b0 51 3e 3e bd 07 12 88 bb a0 e7 32 3d 5b 15 23 3d
       -0.04644615 -0.0041525397 0.043677926 0.039815288
0001c0 28 7d d0 3c 09 fc 4a 3d 86 d9 50 3d 3b da 26 3d
       0.025450304 0.049556766 0.050988697 0.040735465
0001d0 aa e8 49 3d c9 47 97 3d 7c fc eb 3d a6 7a 0a 3d
       0.04929415 0.07386739 0.11522767 0.033808373
0001e0 5f 4c a5 3d b0 72 d1 3d 45 d4 9b 3c ee b6 63 bc
       0.08071207 0.10226953 0.019022116 -0.013898594
0001f0 cb 2f b0 3c a5 db 32 3d da 0d b4 bc 65 4d 64 3d
       0.021507164 0.0436665 -0.021979261 0.05573787
000200 72 fe 8d 3d 8d a4 26 3d c6 19 87 bd 07 48 47 bd
       0.06933297 0.04068427 -0.06596713 -0.048652675
000210 d7 d5 3d bc ab 4b 66 bd 11 be c3 3d fe eb 82 bd
       -0.011586628 -0.056224506 0.09557737 -0.06392668
000220 26 87 47 3d 34 29 04 3e 20 71 96 3d 5a 11 11 3e
       0.048712872 0.12906343 0.07345796 0.14166775
000230 7c 04 0c 3d 99 8b 39 bd 88 82 bd 3d 79 c6 d8 3c
       0.034183964 -0.045299146 0.092534125 0.026461827
000240 18 6f 8b 3d f1 ba 96 3d 35 bc 5d bd 2a d0 5d bd
       0.06808299 0.07359875 -0.054134566 -0.0541536
000250 2d 6c 5e 3b 0d f0 64 bd fa 12 8f bd f3 d6 06 3d
       0.003393899 -0.055892993 -0.06986041 0.032919835
000260 37 8a 3c 3c cd da de 3c 0d d3 9d 3d ee 2d 7e 3d
       0.011507562 0.027203942 0.0770627 0.06205552
000270 a3 b1 62 3d cd 22 1d bd 75 b8 99 3d 8d 3b ab bd
       0.05534519 -0.038363267 0.075058855 -0.08360968
000280 48 73 d3 3b fe 27 68 bc f9 7f e4 3d 39 21 18 3d
       0.0064529516 -0.014169691 0.11157221 0.03714106
000290 dd 88 64 bd cc 14 b7 bd ef 92 d1 3c 91 1c ab bd
       -0.055794585 -0.089395136 0.025582759 -0.08355058
0002a0 f5 d2 d1 bd 01 d8 a2 bd 53 de ee 3c 15 32 88 bd
       -0.10245315 -0.07951356 0.029158747 -0.066501774
0002b0 b6 32 1b 3d 12 56 76 bc 9d 53 6a 3d b1 94 52 3d
       0.03789016 -0.015035169 0.057208646 0.051411334
0002c0 79 b3 2c bd a7 61 7d 3d 40 95 72 3d a5 53 7f 3d
       -0.042163346 0.061860707 0.059224367 0.06233563
0002d0 c9 6b 80 3d bd 6d 99 3d bc 15 2e bd db 5a a0 bd
       0.062705584 0.07491634 -0.042501196 -0.07829829
0002e0 a2 51 df 3c d6 e7 a6 bd 30 36 8a 3d 74 ce 2c 3d
       0.027260605 -0.08149688 0.06748617 0.042189077
0002f0 7d e5 13 bd 86 58 5a 3d b3 90 52 3d e9 91 68 bc
       -0.03610753 0.05330708 0.051407527 -0.014194944
000300 22 b8 b4 bd 74 3a 46 3b 82 c1 9f ba 17 75 94 bb
       -0.08824183 0.0030247243 -0.0012188407 -0.0045305598
000310 f6 ce e3 bc fc d6 27 bd b7 6c 8c 3d a5 72 35 3d
       -0.027808648 -0.04097651 0.06856673 0.044298787
000320 b6 b3 f5 3c 86 ad 6c 3d 1a b4 7c 3d 44 80 83 bc
       0.02999292 0.057782672 0.061695196 -0.016052373
000330 a5 11 8e bd 92 7b f2 b8 b6 d4 c9 3c ff b7 98 3d
       -0.06936959 -0.00011562476 0.024637561 0.074569695
000340 94 64 d8 bc 11 5d 88 3d 0e e2 ce 3d ad 0a 22 3d
       -0.026415147 0.06658376 0.1010171 0.039560962
000350 0b ae 02 3e 2d 4d bc bc b6 a9 2c 3c 55 2e c8 bc
       0.12761705 -0.022986019 0.010538509 -0.024436155
000360 10 90 a0 3c 17 f5 9f bd df 19 f6 bb 54 99 c1 bc
       0.019599944 -0.07810419 -0.0075104083 -0.023632683
000370 25 77 c3 3c 23 00 ad 3d 45 49 94 3d 52 ef 8b 3d
       0.023860523 0.08447292 0.072405376 0.06832756
000380 44 0d 9d 3d b7 33 89 3d d6 84 23 3d 39 2d a6 3c
       0.07668546 0.06699317 0.039921604 0.020285236
000390 ea 7b 9a 3d 4f 83 44 3d c9 20 a4 3c 02 98 87 3d
       0.07543166 0.047976788 0.020035164 0.0662079
0003a0 4e d1 92 bc 3f a9 30 3d ab 8b 4e 3d e4 4d e8 3c
       -0.01792207 0.043130156 0.050426167 0.028357454
0003b0 cc f3 8d bd a1 c4 36 3d b3 90 90 bc 34 d3 97 3d
       -0.06931266 0.044621114 -0.017647123 0.07413331
0003c0 ab 56 bf 3c ea 14 6b bd ab 97 2b bc 6d 06 90 bd
       0.023356756 -0.057392992 -0.010473172 -0.070324756
0003d0 67 54 85 bc e2 06 5c bd 11 52 72 3d c4 76 26 3d
       -0.016275598 -0.0537175 0.059160296 0.040640607
0003e0 76 9d 37 bd 6e 74 e8 3b 50 2b 74 3d 47 ca c3 3d
       -0.0448279 0.0070939576 0.05961162 0.09560066
0003f0 80 e7 22 3d 73 2c 0b 3c 17 29 c1 3b df 14 55 bc
       0.039771557 0.008494484 0.005894791 -0.013005464

weight_hh_l0 f4 [512, 128]
000000 9c 0b 90 bd 0f 78 cc bc f2 ed ca 3d cb 62 9b 3d
       -0.07033464 -0.024959592 0.09908666 0.07587203
000010 4c d7 fe 3c b8 3f 57 bd 8c 94 16 3d 10 99 98 3c
       0.03110852 -0.052551 0.03676276 0.018627673
000020 35 e2 58 3d 8a 86 cb 3c f8 be 92 bd 5a 05 03 3d
       0.052950103 0.024844427 -0.07165331 0.031987526
000030 a4 21 e8 3c ea 75 57 bd 6d b1 8d 3d 49 e5 d1 bc
       0.028336354 -0.052602686 0.06918607 -0.025622027
000040 f5 dd a3 bd 8f d6 05 ba 55 53 82 bd b1 86 3e bd
       -0.08001319 -0.0005105519 -0.063635506 -0.04651517
000050 6a b4 84 3b 87 08 63 3d 7b 31 18 bd 51 a6 00 bc
       0.0040498273 0.055428054 -0.037156563 -0.007852153
000060 c7 e1 ea bb a2 1d 50 bc c1 45 4f bd fb e4 18 be
       -0.007168028 -0.0127023775 -0.050603632 -0.14931099
000070 c6 39 45 bd a5 91 00 bd dc 54 d1 ba 9e 70 1a be
       -0.0481508 -0.031388897 -0.0015970725 -0.15082023
000080 9f ac bf 3d 5c 9b de 3d b5 e0 e1 bc 5e ef 36 3d
       0.09359097 0.10869476 -0.027572969 0.044661872
000090 83 99 32 3d 2b e5 01 3e 38 3e 1b 3d 9f 8b 35 3d
       0.04360343 0.12685077 0.037901133 0.044322606
0000a0 4d 6c 1c bd 3d f0 42 3d 6a 4d 35 3d c9 e0 c5 3d
       -0.03818922 0.04759239 0.04426328 0.09662015
0000b0 db 7b ac 3d 7a 41 ee 3d 90 c8 d7 3d d6 5d 09 be
       0.08422061 0.116335824 0.10536301 -0.13414702
0000c0 77 22 f8 3c 08 94 38 3d 08 ce 82 bd af 8c 10 bd
       0.030289872 0.04506305 -0.063869536 -0.035290416
0000d0 5a fc 35 bd d9 8e 4b 3d fe 87 a4 bd 71 18 87 bd
       -0.044430114 0.049696777 -0.08033751 -0.06596459
0000e0 6b d7 1f 3d ba 0c 85 3d 16 b2 58 bd 31 38 52 bd
       0.039023798 0.06496568 -0.05290421 -0.05132312
0000f0 aa 71 d5 bc 05 90 9b 3d 10 f0 e8 bd d0 be b5 3d
       -0.026055176 0.07595829 -0.11373913 0.08874285
000100 13 9a d0 3c ae 16 cd 3c c3 b8 39 3d 81 44 11 3e
       0.025464093 0.025035229 0.045342218 0.14186288
000110 ca 59 68 bc 93 ed 72 3d 26 05 ea bb ed 81 d5 bc
       -0.014181564 0.0593086 -0.007141727 -0.02606293
000120 dc 77 ab 3c 51 66 24 3d 0f 5c aa 3d e9 93 6a 3d
       0.020931177 0.04013664 0.0831834 0.057269964
000130 aa 41 68 3c 89 05 af 3c 05 d2 f3 3c a9 c6 71 bd
       0.014175812 0.021364944 0.029763231 -0.059027348
000140 30 14 df bc ec 8b 37 3d 62 5e 2a bd 26 46 30 3d
       -0.027231306 0.044811174 -0.041593917 0.04303565
000150 95 f1 60 3d a5 a2 a2 3d 48 ab 99 bd 3a 96 84 3d
       0.05491789 0.07941178 -0.075033724 0.06473966
000160 d3 de da 39 04 62 59 bd fe 7d ed 3c 99 07 a7 3b
       0.00041746217 -0.05307199 0.028990742 0.0050973413
000170 26 ac 43 bc 23 c1 9c bd 1c 19 c4 bd 6b 04 6a bd
       -0.011942899 -0.076540254 -0.09575102 -0.05713312
000180 c5 db 40 3d 5c 07 64 3b 73 b7 a6 3d 7a 43 a2 3c
       0.04708459 0.0034794426 0.08140459 0.019807566
000190 f7 22 57 bd d3 5f 4b bd 10 44 db 3d 8a 08 8a 3d
       -0.05252358 -0.049651932 0.10706341 0.0673991
0001a0 e3 e8 3e bd 1e 52 05 3e 55 e7 12 bc 9f 05 b7 3c
       -0.046608817 0.13019606 -0.008966287 0.022341548
0001b0 b6 f5 9b bc c0 80 6f 3d 50 9c 11 3d a9 e7 50 3d
       -0.019038063 0.058472395 0.03554946 0.05100218
0001c0 e6 90 f4 3a d1 b7 4d 3d b9 1b bd bd bd d6 80 3d
       0.0018658906 0.05022413 -0.09233803 0.06290958
0001d0 6a 89 7b 3d 6a 6d 98 3c d7 41 ef bc 50 60 2c bc
       0.061410345 0.01860686 -0.0292062 -0.01052101
0001e0 54 2d a2 3a 5f de 5b bd 06 0e 3f bd 7d a2 1f 3d
       0.0012373128 -0.053678866 -0.046644233 0.03897332
0001f0 f9 c7 eb bd 4e 80 76 bd ba 18 78 bd 88 f3 48 bb
       -0.11512751 -0.060180955 -0.060570456 -0.0030662734
000200 16 9a 9c 3d cc d4 81 3d 83 ad 4c 3b dd d7 b4 bd
       0.07646577 0.06339416 0.003123135 -0.08830235
000210 60 4b 40 3d 3d 76 98 3d d5 db 75 3d a0 34 2d bd
       0.046946883 0.07444427 0.0600241 -0.042286515
000220 9a c8 46 3d ac d0 92 3d 70 86 20 bd a9 13 e0 bc
       0.048531152 0.07168707 -0.03919071 -0.027353125
000230 22 8f a8 bd 07 ae 52 3d 15 c8 c8 3c a2 57 93 3d
       -0.082304254 0.051435497 0.024509469 0.07194449
000240 7e 5f 1c bd 44 9d 72 bd 42 20 eb 3c 90 1b 47 bd
       -0.038177006 -0.05923201 0.028701905 -0.04861027
000250 0f d6 f5 3c a7 02 2b bd f5 78 50 bb 99 15 aa 3d
       0.030009298 -0.041750576 -0.0031810377 0.08304901
000260 c0 61 0b 3d 77 b8 3f bd 9a 4a 61 bd 0c 15 77 3d
       0.03402877 -0.04680678 -0.055002786 0.060322806
000270 c8 f2 9c 3d e6 65 5c bd 31 c6 bf 3d 3b bd 2b 3d
       0.07663494 -0.053808115 0.09363974 0.04192851
000280 3a 9c 1a bd 78 59 aa 3d 13 1a 01 bd d6 47 14 3d
       -0.037746646 0.08317846 -0.031519007 0.03620132
000290 27 3a 7c 3d 26 b9 71 3d 5d 1f 40 bd 8a 4b 36 bd
       0.061578896 0.059014462 -0.04690491 -0.044505633
0002a0 6a 25 79 3d 4d 2d 55 bd 60 bf d1 3c e7 34 af bd
       0.060826696 -0.052045155 0.02560395 -0.08555012
0002b0 7d ca 5f bd c4 94 13 3d 90 c0 8e 3d ab 52 ab ba
       -0.054636467 0.036030546 0.06970322 -0.0013070902
0002c0 06 37 cd 3c d2 c3 6a bd ce bd 3b 3d 98 57 e9 3a
       0.025050651 -0.057315655 0.04583531 0.0017802594
0002d0 31 5b c3 3b b6 77 40 3d b0 f6 07 bc 6c cd d5 3c
       0.0059617986 0.046989165 -0.008298561 0.02609893
0002e0 ed 26 39 3d 57 a3 ab 3c 15 c7 b0 bd 83 a1 56 bd
       0.04520314 0.02095191 -0.08631722 -0.052400123
0002f0 63 d3 cd bc 0d 14 20 3d 7d 77 5b 3d a9 2e b4 bd
       -0.025125211 0.039081622 0.05358075 -0.08797962
000300 5a a6 54 3c 4f 49 ce 3d bf 67 c7 ba 43 cb ad 3d
       0.012979114 0.10072576 -0.0015213414 0.08486035
000310 1b 1b 32 3d 6f 68 9c 3d 7a 45 54 bd 67 c8 79 3d
       0.04348288 0.076371066 -0.05182407 0.060982134
000320 79 4b b2 bc 9b cb 74 3c dc 28 64 bd 45 74 08 bd
       -0.021764504 0.014941121 -0.05570303 -0.03331401
000330 99 6b e2 3b 6c c6 79 bc 58 a4 97 3d 55 6c ab 3d
       0.0069097993 -0.015245061 0.07404393 0.08370272
000340 e7 78 cf 3c d4 51 06 3d 7c 14 13 3d a3 32 17 3d
       0.025326205 0.03279288 0.035908207 0.036913525
000350 0f af 8b bd 63 a8 cb bc 40 06 64 3d 74 1b 52 bd
       -0.06820499 -0.024860566 0.055670023 -0.051295713
000360 68 9b 1a bc ae 97 3d bd ad 51 a4 bd c6 aa 8f bd
       -0.009436466 -0.04628723 -0.08023391 -0.07014994
000370 68 76 7c bd 37 42 e2 bc e1 20 69 3b 5f 04 bc bd
       -0.06163636 -0.027619464 0.0035572576 -0.09180521
000380 fd dc 3f bd 1a ca 40 bd d9 17 21 3d f6 8d 3c 3d
       -0.04684161 -0.04706774 0.039329384 0.046033822
000390 0a 41 54 bd 3b fd ba bc a3 59 00 3c ca d0 6c bd
       -0.05181984 -0.022825828 0.007833871 -0.057816304
0003a0 93 35 c4 3c 8f 07 38 bd b4 db 64 bc a2 70 6c 3d
       0.023951327 -0.044929083 -0.013968397 0.057724603
0003b0 21 9d a1 3c af 61 0d bd 30 3b c3 3c 6a eb a1 bd
       0.019728245 -0.034516986 0.023831934 -0.0790623
0003c0 6d 94 4e bd df 9a 3c bd 31 a8 6b 3c 0e e4 4a bd
       -0.05043452 -0.046046134 0.014383362 -0.049533896
0003d0 ad 84 8b 3c 4e a7 12 3d 50 06 a9 bc 05 14 f2 bc
       0.017031038 0.035804085 -0.020632893 -0.029550562
0003e0 74 04 26 3d cc bf a0 bd 63 9a 13 3d 5f fc 4d 3d
       0.04053159 -0.07849082 0.036035907 0.050289508
0003f0 d0 77 be bd 61 1f 5f bd b5 9b 53 3c 8d dc a7 3c
       -0.09300196 -0.054473285 0.012915541 0.020490909

bias_ih_l0 f4 [512]
000000 4b 1f a5 bc 72 21 61 3d 23 65 97 3d 2f aa 59 3d
       -0.020156523 0.054963537 0.07392337 0.053140815
000010 bd fe 2e 3c fe fa 12 3c a4 1e f1 3c 55 55 00 bc
       0.0106808515 0.008970974 0.029433556 -0.007832845
000020 9e 7f ab bd 53 ec 0f 3d b6 28 fc bc d4 d0 2d 3d
       -0.083739504 0.035137486 -0.030781131 0.042435482
000030 a3 ca 49 3d 3e 79 52 bd c7 f2 51 bd eb c8 87 3c
       0.049265515 -0.051385157 -0.05125692 0.016575297
000040 20 13 d8 3c b5 63 72 3c 75 b2 99 3b a5 b2 4a bd
       0.026376307 0.01479428 0.004690463 -0.049486775
000050 b4 fa 08 bc b8 59 85 3d 0a cf 85 3d 63 f2 82 bd
       -0.0083605535 0.06511253 0.0653363 -0.06393888
000060 f7 e0 ee 3c b8 7f 9a bd 81 91 dc bd 5c ee 32 bc
       0.029160006 -0.07543892 -0.1076994 -0.010921087
000070 b5 92 02 bd fc 06 9d bd be 60 c4 3c d8 68 e8 3d
       -0.031878192 -0.07667348 0.023971912 0.11348122
000080 e0 8b c7 3c 2a c1 76 3d 38 78 3d 3e 8c 2e 99 bd
       0.02435869 0.06024281 0.18502891 -0.07479581
000090 fa 5d a7 3d 39 50 0e 3d 11 b5 34 3e 77 8f 3f 3c
       0.081722215 0.034744475 0.17647196 0.0116919195
0000a0 0d 27 02 3d 87 21 92 3d ef 07 aa 3d f9 37 4d 3d
       0.031775523 0.07135301 0.083022945 0.050102208
0000b0 af 52 60 bd 1e 7a c8 3d f6 5c 72 bc e0 0a d6 3d
       -0.054766353 0.09788917 -0.014792671 0.10451293
0000c0 46 81 c7 3d 51 dc 56 3d fa 26 b3 bb bc 75 b8 3d
       0.09741454 0.052456204 -0.005467293 0.09006831
0000d0 a7 4d a5 bb 35 b1 cf bc 17 85 8b 3d 38 17 29 bb
       -0.0050446573 -0.025353054 0.06812494 -0.0025801193
0000e0 9a 1c c1 3d 50 a1 9d bc 58 8b c5 3c ea 7a 0f bd
       0.094292834 -0.019241959 0.024114296 -0.03502933
0000f0 65 8c 83 bc 41 38 b3 3d 4e eb 3d 3e 8b b1 bc 3c
       -0.016058156 0.08750964 0.18546793 0.023033878
000100 a4 69 95 3d 35 32 3a 3d d9 2a b9 bd e1 cf 27 3d
       0.0729554 0.045458037 -0.09041376 0.040969733
000110 4e 36 ee bb 13 1e cb 3d c5 bf 0a 3d 32 34 3b 3e
       -0.007269657 0.099178456 0.033874292 0.1828163
000120 04 b7 e3 3c e3 f0 8d bd 47 6f c7 3d cc 7c c7 3d
       0.02779723 -0.06930711 0.09738021 0.097406
000130 59 12 bc 3d da e8 4a bd 6f cc bc 3d c8 46 79 bd
       0.09183187 -0.04953847 0.0921868 -0.060858518
000140 cf c9 63 3c 5d ef e7 3d f6 18 e6 bc e3 1a f3 3c
       0.013903095 0.11324952 -0.028088074 0.029675907
000150 66 9a b5 3d 0f ec 8c bd e3 df 54 3c bb ef 46 3d
       0.0886734 -0.06880962 0.012992832 0.04856847
000160 30 e1 87 3d 6a 9d 16 3d b9 fe 22 3b b4 3b e2 3d
       0.06634748 0.036771215 0.0024871065 0.11046544
000170 cb 81 3d bd af 55 b1 3d 67 c3 ca 3d f4 22 af 3d
       -0.04626636 0.08658921 0.09900551 0.08551589
000180 78 6b 70 3c 01 f2 e8 3c 33 35 cc bc 03 47 67 bd
       0.01467406 0.028435709 -0.024927711 -0.056464206
000190 1a 25 8c 3d b1 56 b5 3c 02 35 04 3d 80 2d e5 3d
       0.06843014 0.022136064 0.032277115 0.11190319
0001a0 aa 5d c6 bc cd b1 19 3e c6 d5 79 3c 9a 42 69 3d
       -0.024214584 0.15009232 0.015248721 0.05694828
0001b0 16 65 2a 3d 8a a2 ea 3d eb ae 94 3d 29 c8 89 bd
       0.04160031 0.11456783 0.072599255 -0.06727631
0001c0 8f 56 a5 3d c6 22 96 3d 94 8b f0 3b af 29 83 bc
       0.0807315 0.07330851 0.0073408578 -0.016011087
0001d0 26 e5 85 bd df 00 9a bd bf f3 ab bd 08 2f 17 bd
       -0.06537847 -0.075196974 -0.083961 -0.036910087
0001e0 5f 19 b3 3d 2f 3e 01 bd 10 36 5d 3d dc 29 36 3d
       0.087450735 -0.031553444 0.054006636 0.044473514
0001f0 a5 89 aa 3d 23 df 91 3d 99 2c e3 ba 59 8b d4 bd
       0.08327035 0.07122638 -0.0017332017 -0.10378141
000200 e8 fe a7 3b b0 81 9a bc 96 6f c1 bd e0 f4 b7 bd
       0.0051268227 -0.018860668 -0.094451115 -0.08982253
000210 17 05 32 bb c2 d1 3b 3d 28 16 e3 bd c9 b1 dd 3b
       -0.0027163678 0.045854338 -0.1108821 0.0067655784
000220 78 84 c2 bc 88 12 92 bd b9 9c 2d 3d 47 6b 19 3d
       -0.023744807 -0.07132441 0.04238579 0.037455823
000230 31 4e 64 bd ed 30 67 3d ca ae 65 bd 11 28 08 3d
       -0.05573863 0.056443144 -0.056074895 0.033241335
000240 33 76 87 3d c4 35 70 3c f5 46 77 bd af 01 84 3c
       0.066143416 0.014661256 -0.060370404 0.016114084
000250 06 21 b9 bd dd b8 66 bd ee fc 6b bd e0 f8 be bd
       -0.09039502 -0.056328643 -0.05761426 -0.09324813
000260 28 70 3e bc 8d 66 6b 3c ac 22 96 bb 44 25 84 bd
       -0.01162342 0.014367712 -0.00458177 -0.0645242
000270 ed 21 11 3d 0c dc a4 bc 3e 69 59 bd 1f 55 78 bd
       0.035432745 -0.020124458 -0.053078882 -0.060628053
000280 c5 98 a7 b9 83 0b 44 bd 27 4b ce bc d5 72 8d bd
       -0.00031966544 -0.04786254 -0.02518232 -0.06906668
000290 43 8f 8d bc 29 2b b8 3b d2 4e 11 3c d1 2b 8d 3d
       -0.017280227 0.0056203795 0.00886889 0.06893123
0002a0 fb de e2 bd 19 d7 19 3d 08 51 d0 3c 3e a4 7c 3d
       -0.110776864 0.03755865 0.025429264 0.06168007
0002b0 62 3a 4b 3b fa 07 89 3d 51 94 40 3d 97 c5 05 3d
       0.003101014 0.066909745 0.047016446 0.03265914
0002c0 bb f5 8d 3d c9 3a 1b 3d 7f ae 8e bd 6d 32 a5 bd
       0.06931635 0.03789786 -0.06966876 -0.080662586
0002d0 de 01 4a 3d 52 4c b7 bb b3 d5 f5 bc 02 6c 9f bd
       0.049318187 -0.005593815 -0.030009126 -0.07784273
0002e0 8c b6 37 bd e0 d1 98 bd c3 d1 87 3d 7a a7 81 bd
       -0.044851825 -0.074619055 0.06631806 -0.06330772
0002f0 72 77 40 bd 6a ab b2 3c d1 b2 2e bd f1 d6 9d 3b
       -0.046988912 0.021810252 -0.042651 0.004816883
000300 e4 1e 00 3d 5c 22 21 3d c9 1c 0e 3c d8 ba 12 3d
       0.03127946 0.03933941 0.008673855 0.03582272
000310 df c2 a7 bc 79 64 d5 bd 5d 1f eb 3a c8 cc 7f bd
       -0.020478664 -0.10419554 0.0017938424 -0.062451154
000320 5c f2 6e bb 6f b1 9f bd a6 f6 c2 bc 77 07 b0 bd
       -0.0036460375 -0.07797515 -0.023799252 -0.08595174
000330 29 38 45 bd b5 d5 42 3d 7c 6f b0 3c c6 f9 8a bd
       -0.04814926 0.04756709 0.021537535 -0.06785922
000340 d6 fc 05 bc 53 80 d4 bd f0 a0 de 3c ac 45 01 bc
       -0.008177957 -0.103760384 0.02717635 -0.007890146
000350 08 f9 d8 3c 66 0b 1e 3d c0 2f 72 bd 27 c4 a2 3c
       0.026485935 0.03858509 -0.05912757 0.019868923
000360 bc ec d3 38 b8 18 a4 3d 70 c0 7c 3d e8 06 81 bd
       0.00010105359 0.08012527 0.06170696 -0.063001454
000370 bc b9 9e bd 96 e8 85 3d 20 ae 7d bc 56 7f 77 bd
       -0.0775027 0.06538503 -0.015483409 -0.06042417
000380 e1 ca ee bd f0 ae 5f 3d 82 8d 14 bd 57 ba aa bd
       -0.1165979 0.054610193 -0.036267765 -0.08336323
000390 0c 27 28 bc 18 8f 1d bd ba 11 70 bd 21 7a 0b 3d
       -0.010263216 -0.038466543 -0.058610655 0.034052018
0003a0 76 ee 45 bc 0e 42 13 be de 79 8a bd 06 7e 77 3c
       -0.012080779 -0.14380667 -0.067615256 0.01510573
0003b0 ef ce b6 bd 63 30 9f 3c d9 41 d5 3c 47 5b 04 3d
       -0.08926188 0.019432252 0.026032375 0.03231361
0003c0 3c 40 16 3d d9 4e 80 bb ef dc 5b bd f6 b7 8b bd
       0.036682352 -0.0039156494 -0.053677496 -0.06822197
0003d0 f2 6f f7 bc 3b 08 4c bd fd f3 f6 bc da c8 5e bd
       -0.030204747 -0.049812537 -0.03014564 -0.054390766
0003e0 1b b5 a1 bc 61 f4 82 bd ca 21 21 3d 39 e8 bb bd
       -0.019739678 -0.06394268 0.039338864 -0.09175152
0003f0 40 94 b6 bd 83 fd e6 3c 1c 03 b5 bd 3b b0 48 3d
       -0.08914995 0.028197056 -0.08838484 0.04899619

bias_hh_l0 f4 [512]
000000 f7 b8 76 3a b7 ff 73 bd 3a 91 13 bd d3 b4 87 3d
       0.0009411717 -0.05957004 -0.03602717 0.06626286
000010 8c 20 4b 3d f3 ee 88 bd be ca 01 3d 69 21 9a bd
       0.049591586 -0.06686201 0.03168749 -0.07525904
000020 d7 4d 65 bd 02 3b 90 3d 75 3d 87 3d be 03 a6 bc
       -0.055982437 0.07042505 0.06603519 -0.020265456
000030 a6 08 c8 3d 8a e2 a7 bd dc 62 a8 bd 86 96 06 3d
       0.097672746 -0.08197506 -0.08221981 0.032858394
000040 ef f2 9b 3d 76 0d c4 3d 72 ad 9d 3c 7b 83 74 bd
       0.07614695 0.0957288 0.019247744 -0.059695702
000050 3c c6 5e 3d 23 0d 82 bd 25 62 9b bd e8 45 7a 3c
       0.05438827 -0.06350162 -0.07587079 0.015275456
000060 a7 35 35 bd 92 44 8c bd da ae d0 bd b1 4b 93 bd
       -0.04424062 -0.06849016 -0.101896 -0.07192171
000070 ec d2 e9 bc 8b db 05 bd 17 b5 bc 3b e5 a9 54 3d
       -0.028542958 -0.032680076 0.0057588923 0.051919837
000080 b7 b2 4b bd 5a b2 12 3c 9d ec d9 3d 2c 1a a8 3d
       -0.049730983 0.008953655 0.106408335 0.08208117
000090 0a 17 c6 ba 39 7a 29 bd 83 13 a3 3d 46 b5 22 3d
       -0.0015113067 -0.041376326 0.07962706 0.039723657
0000a0 73 0f 11 3e e3 b2 98 3d f3 f5 dc 3b 95 ab b5 3c
       0.1416605 0.07455995 0.0067431866 0.022176543
0000b0 dc 4b 04 3d 95 02 a5 3c 57 5f 85 bd fb 74 19 bd
       0.032298908 0.020142833 -0.06512325 -0.037465077
0000c0 27 a8 7f bc a1 35 1b 3d ad d7 28 3d 6c 53 1b 3d
       -0.0156040555 0.03789294 0.04122131 0.037921354
0000d0 ea a7 8b bd a7 eb 00 bd 03 da 19 bd c8 ac 1d 3b
       -0.068191364 -0.031474736 -0.037561428 0.0024059284
0000e0 2f f0 ac 3d 5d 00 fb 3d 80 1a 47 bc 5e e1 f4 bc
       0.08444249 0.12255929 -0.012152314 -0.02989262
0000f0 22 f2 a9 3c 00 0a 01 bd 3c d5 18 3e 36 d6 e0 bc
       0.02074534 -0.031503677 0.14925092 -0.027445894
000100 5e 11 b4 3d 95 b8 a9 3c 4e 8f a5 bd ef f6 4d 3d
       0.08792375 0.020717898 -0.08083974 0.050284322
000110 b1 2a 51 bd 9a f9 24 3d c9 b2 c7 3d 51 f1 86 3e
       -0.051066104 0.0402771 0.097508974 0.26355985
000120 f9 84 05 bc 0c 31 00 bd 05 d5 c0 3d bc 23 eb 3c
       -0.008149379 -0.031296775 0.0941563 0.028703563
000130 84 dc 29 bd d2 ea 93 bc 1d 68 2a bd f7 95 0d 3d
       -0.041470066 -0.018056307 -0.041603196 0.034566846
000140 4e 84 af 3c 93 59 b7 3d 1f 9a ab 3d 36 e7 95 3c
       0.021425392 0.08952632 0.08379006 0.018298727
000150 e3 d5 21 3d b2 31 c4 bb 9c 9d ab 3d 99 ce 63 3d
       0.03951062 -0.0059873695 0.08379671 0.05561695
000160 a2 c3 2b 3e d8 cc b7 3d 99 c0 f6 bc aa 46 39 3e
       0.16773847 0.08974618 -0.030121135 0.18093362
000170 b3 bc 82 bd 9b f0 2d bd da 76 04 3d 40 7f c5 3d
       -0.06383648 -0.042465787 0.03233991 0.09643412
000180 d2 92 e3 3d 12 cc 25 3d c3 8a 30 3d 96 c2 b8 bd
       0.11111988 0.04047782 0.043101083 -0.09021489
000190 98 ed 8c bd bc 69 ac bd d0 b8 4b 3c 90 6f df 3d
       -0.06881255 -0.08418605 0.012434199 0.10909951
0001a0 6c 71 63 bc f0 b5 05 3e 52 ed 9e bd 22 22 a0 bc
       -0.013882022 0.13057685 -0.07760109 -0.019547526
0001b0 aa 4b 19 bc de f5 02 bc a0 06 0b 3c da 4c ab bc
       -0.009356419 -0.00799319 0.008485466 -0.02091067
0001c0 bd 37 b2 bd c6 14 98 bd 1a 65 60 3d ad 7a 8d bd
       -0.087020375 -0.07425837 0.054783918 -0.06908164
0001d0 19 9b 49 3d 5e a1 94 bd 72 87 3c bd 68 25 aa bd
       0.04922018 -0.07257341 -0.04602761 -0.08307916
0001e0 44 98 14 bd 6c 5e 6a 3d af 8b 95 bc 3a 3e b3 3d
       -0.036278024 0.057218954 -0.018255083 0.08752103
0001f0 c3 51 80 bd 25 9f 55 3c ee 57 46 bd aa cb 88 3c
       -0.06265595 0.013038431 -0.0484237 0.016698677
000200 28 9f 4b 3d 20 b1 29 bd 77 ef a1 bd 4c 4c 19 bc
       0.04971233 -0.041428685 -0.079070024 -0.0093565695
000210 03 a6 14 3d 3d ed 79 3d c5 bc 52 bd 77 de 26 bd
       0.036291134 0.061017264 -0.051449556 -0.040739503
000220 31 a5 60 3d 80 9b 1a bb 02 50 a3 bd 51 45 2d 3d
       0.05484504 -0.002359122 -0.07974245 0.042302433
000230 d2 e9 05 bd 1c ab 41 bc 77 5c f9 3c 57 bb 8c bc
       -0.03269369 -0.011820581 0.030439598 -0.017179174
000240 f9 47 8b 3d d3 61 fa bb ca 28 ad bd fb a0 84 3d
       0.06800837 -0.007641056 -0.084550455 0.06476017
000250 a6 8a cb bd 34 91 a3 bd 91 6c 80 3d 49 88 31 3d
       -0.099385545 -0.0798668 0.062707074 0.043342862
000260 42 72 c0 bc cf 02 73 bd 20 d7 98 bc 28 e1 48 bc
       -0.023491982 -0.05932885 -0.018657267 -0.012260713
000270 95 cf c3 3c 1a 81 a9 bd 33 64 50 3d 5e 41 eb bd
       0.023902694 -0.08276577 0.050876807 -0.11487077
000280 3a db 63 bd 7b 4a 2b 3b a4 11 77 bd 5d c6 44 bd
       -0.055628993 0.0026136923 -0.060319558 -0.048040736
000290 4c 38 fc bc 17 a5 41 3c 4a 7d 00 be 7d 90 3d bd
       -0.030788563 0.011819146 -0.12547794 -0.046280373
0002a0 dc fb d1 bb 6d 07 5b 3d 86 3f 83 3a 6e 43 23 bd
       -0.006408198 0.05347388 0.0010013438 -0.039859228
0002b0 48 49 30 bd 53 5d 6e bd 3e 00 ac bd f8 1a c6 bd
       -0.043038636 -0.05819447 -0.08398484 -0.09673113
0002c0 b6 fa 9a bd 1f 4b f7 3b 05 89 b1 bb ad 0a 0d bd
       -0.075673506 0.007546797 -0.0054179453 -0.03443401
0002d0 7b 3a 8b bd 3a 11 d1 bd d1 b5 f2 bc 92 73 2a 3d
       -0.06798264 -0.10208364 -0.029627712 0.041614123
0002e0 68 a9 87 bd 0e a3 0c bd 28 04 26 3c 2b dc 87 bd
       -0.066241086 -0.03433519 0.010132827 -0.066337906
0002f0 05 66 42 3b 4e 44 9a 3d 77 e1 06 3d d5 4f bd bd
       0.002966286 0.07532559 0.032929864 -0.092437424
000300 e7 b4 fc bc 5c bb 8d bd ea 1b 9b bc f0 75 c8 bc
       -0.03084798 -0.069205016 -0.018934209 -0.0244703
000310 2b 9c 92 bd f0 1a bc bd 64 47 d8 bb 54 cc c9 bd
       -0.07158693 -0.091848254 -0.0066003073 -0.098534256
000320 4e 28 61 3c ab 3b 57 bc 6d 5b 5b bd bb 85 da ba
       0.01374252 -0.013136785 -0.053553987 -0.0016671935
000330 bd 60 a3 3d 88 8c a1 bd 68 cb 6c 3d ae ee 64 3c
       0.07977436 -0.07888132 0.05781117 0.013972921
000340 68 09 88 bd 86 7b 91 bd 5a 5a 01 bc 4f e6 18 bd
       -0.06642419 -0.07103638 -0.007895077 -0.037329014
000350 bc 5b 24 bc 4b 04 39 3c 88 12 1a 3c b3 7a 73 bd
       -0.010031637 0.011292527 0.009403832 -0.059443187
000360 f0 56 15 be f0 40 12 3d 6f 8f fd 3c 80 e4 a1 bd
       -0.14583945 0.03570646 0.030952184 -0.07904911
000370 98 13 85 bd 48 66 c5 bd f4 c2 8a bc be b7 1e bd
       -0.06497878 -0.09638649 -0.016938664 -0.03874945
000380 9a 64 fa 3b 2e 1c fe 3b 0a 09 c0 bd 0f a9 a4 3c
       0.007641387 0.007754824 -0.09376724 0.020100145
000390 5c ff 03 3d d0 b4 a1 bd 59 50 35 bd 9d f5 84 bd
       0.03222595 -0.07895815 -0.04426608 -0.064921595
0003a0 05 3b be bd b8 a0 fc bd dc cf 9d 3b 84 56 67 3d
       -0.09288601 -0.12335342 0.0048160385 0.056478992
0003b0 61 eb de bb c0 52 8b 3d f3 52 9d bc 77 44 c5 bd
       -0.0068029617 0.06802893 -0.019204592 -0.09632199
0003c0 aa d8 8f bd b3 30 0c 3c 8c f2 4a 3b a5 38 14 3d
       -0.07023747 0.008556533 0.0030967323 0.036186833
0003d0 f3 e9 81 3d 05 65 67 3d e6 b8 5b 3c e8 a1 86 3d
       0.063434504 0.056492824 0.013410782 0.0657385
0003e0 2c bb d2 bd f6 15 5b 3d 3d 9f 41 bc b4 09 82 3d
       -0.102896065 0.05348774 -0.0118177505 0.06349507
0003f0 7e 9f 68 3d a7 97 92 bd c5 ff 70 3d ed 9d 2c bc
       0.05679273 -0.07157832 0.05883767 -0.010535699

weight_ih_l1 f4 [512, 128]
000000 02 72 2f bd b5 54 10 3d 04 0a cf 3d 01 e4 70 3d
       -0.042833336 0.035237033 0.10109332 0.05881119
000010 d9 81 a1 3d a8 db 4c bd 04 71 57 bd a2 0c ee bc
       0.078860946 -0.050014168 -0.052598014 -0.029058758
000020 17 c9 80 bd d4 a8 ce 3d 9a 7a 8a 3d aa ee 74 3c
       -0.06288355 0.10090795 0.06761666 0.01494948
000030 5b cb b2 bd d8 83 89 bd 8a ba 10 bd ef 60 d6 3c
       -0.08730193 -0.067146 -0.035334148 0.026169268
000040 ab 8f 5e bd f7 fb b0 bd ab 43 83 bd 1f 21 14 3d
       -0.05433623 -0.086418085 -0.06409391 0.0361644
000050 81 44 e2 bb a5 25 fb bd 74 2b 95 bd 2f 3b c7 3d
       -0.006905139 -0.122630395 -0.07283679 0.09728085
000060 49 aa ca bd b4 8a 10 3d 41 6f 5c 3b 5f 6c 9b bd
       -0.098957606 0.035288528 0.0033635648 -0.075890295
000070 ec a0 ba bd b2 8c ee 3a c9 0c be 3d d6 b9 08 3c
       -0.09112725 0.001819989 0.09279782 0.008345088
000080 f9 db 34 3d 20 44 e4 3c 63 93 50 bd 92 20 64 3d
       0.044155095 0.027864516 -0.05092181 0.055695124
000090 32 d9 7f bc 36 3f 52 3d 34 ad 66 3d b7 b5 8a 3a
       -0.015615748 0.051329814 0.056317523 0.001058272
0000a0 54 a9 60 bd 1e 0f 17 bb ea 76 00 3d 0c fb 3c bd
       -0.054848984 -0.0023049782 0.031363405 -0.046137854
0000b0 cf e6 aa bd 43 a0 ed 3d f8 55 b8 bd 9c fa 30 3d
       -0.083448045 0.11602833 -0.09000772 0.04320775
0000c0 af 76 a1 bd 0c 76 69 3d 93 52 87 3b d6 5d 76 3d
       -0.07883965 0.056997344 0.0041297167 0.060148083
0000d0 26 36 3a 3d ea cd c0 3d 96 92 36 bb fc 02 8d bc
       0.045461796 0.09414275 -0.0027858368 -0.017213337
0000e0 a4 2b 6b bd 56 71 60 bd 9e d9 db 3b 20 44 0a 3d
       -0.057414666 -0.054795586 0.0067092916 0.033756375
0000f0 d1 11 1c 3d ff c6 41 bd f3 e9 52 3d ae ef cb bd
       0.03810293 -0.047308918 0.051492643 -0.09957825
000100 21 2a c6 bc fd ec 43 3d 47 53 e1 3b df 99 78 3c
       -0.02419001 0.04783343 0.0068763825 0.0151734045
000110 58 80 0e 3d a9 f8 9e bd b5 61 ae bd a0 c4 5e bc
       0.034790367 -0.07762272 -0.0851473 -0.013596684
000120 85 d3 9f bd 6d ab df ba 54 fe 05 3d 56 59 c2 bd
       -0.07804016 -0.0017064639 0.03271325 -0.09489696
000130 64 fd 97 bc de 86 24 bc 46 8b 85 bd 84 66 a4 3c
       -0.018553443 -0.0100419205 -0.06520705 0.020068415
000140 ff c4 4d bd 15 78 f4 3b e8 f5 b4 bd a2 16 93 3d
       -0.0502367 0.007460604 -0.088359654 0.07182051
000150 3f 4f 9f bd 0d 69 60 3d 62 63 37 3c 77 97 a8 3b
       -0.07778787 0.054787684 0.011193128 0.005145009
000160 42 68 aa 3d 34 20 b3 bc 41 50 77 bd d7 a4 a1 3c
       0.08320667 -0.021865942 -0.06037927 0.019731922
000170 dc 0b a1 3d f7 c3 62 bd 09 65 4c 3d 10 3f 43 3d
       0.0786359 -0.055362668 0.049901042 0.047667563
000180 1c d7 38 3d 95 95 0f bd 32 bb ba bd c6 b2 8a 3d
       0.04512702 -0.035054762 -0.09117736 0.067723796
000190 64 5e 30 3b f8 06 0d 3d 3c 8d 9a bd 3f b9 e2 3d
       0.002691173 0.034430474 -0.075464696 0.11070489
0001a0 05 d2 b9 bd 25 89 55 3c 14 cd 9e bd 32 f8 9e bd
       -0.09073261 0.013033186 -0.07753959 -0.07762183
0001b0 dd 3f 5c 3d 84 8e b1 3d 4a 4d 0a 3d 94 b0 12 3c
       0.053771842 0.08669761 0.033765115 0.008953232
0001c0 8e e3 5b bd f3 59 3d 3d 60 33 7e 3d 20 f3 7b 3d
       -0.05368381 0.04622836 0.062060714 0.06151116
0001d0 d2 5c a8 bd 0b 08 39 bc 7c 24 80 3d 45 ce 9a 3d
       -0.08220829 -0.0112934215 0.06256959 0.07558874
0001e0 59 1e f9 bc 1b 91 35 bd 83 df aa bd 4d 29 d0 3c
       -0.030409979 -0.044327836 -0.08343413 0.025410319
0001f0 c0 fb 18 3c 92 ef 58 3d 0e b7 27 3d 5a c1 8b 3d
       0.009337366 0.052962847 0.04094606 0.06823988
000200 e6 07 30 3d 94 06 f1 3b 7c 64 fd 3d 27 b4 7f bd
       0.042976283 0.0073555205 0.123726815 -0.062427666
000210 88 25 c8 3b 10 d3 4b 3d aa 88 c1 bd 35 36 91 bd
       0.0061079897 0.04976183 -0.09449895 -0.07090417
000220 ca 1a 77 3c c1 eb 6d bd 75 c7 91 3d bc 35 8e 3d
       0.015082071 -0.05808616 0.071181215 0.06943843
000230 bc 21 53 bd 60 2e c4 bd 3a 76 37 3d 67 a7 bc b8
       -0.051545843 -0.09579158 0.044790484 -8.99572e-05
000240 fa 37 75 3d c7 3c b6 bd fa d4 c4 3d 3a e3 ac 3c
       0.059867837 -0.08898311 0.096109346 0.021104444
000250 25 13 a6 3d 4f 2f 52 bd b6 77 97 bd 00 5b 05 bd
       0.0810912 -0.05131465 -0.0739588 -0.032557487
000260 cc 9c e3 3c b7 3c ae 3d f4 b9 b4 bd 1a 89 f8 3b
       0.027784728 0.08507674 -0.0882453 0.007584703
000270 49 f6 98 3c 19 b6 53 3d de 62 c3 3c 24 06 22 bd
       0.018672125 0.051687334 0.023850854 -0.039556637
000280 09 9b 10 3d 24 a4 8c bd c3 46 b9 bc 0f 38 b5 bc
       0.035304103 -0.06867245 -0.02261675 -0.022121457
000290 60 54 7d bc f1 45 fd 3c e5 6a c4 3d d5 d7 bf 3d
       -0.015462011 0.03091714 0.09590701 0.093673386
0002a0 4c 78 22 bd 63 ab 11 3d 21 d8 b9 3a 4e e6 e9 bc
       -0.039665505 0.035563838 0.0014178791 -0.0285522
0002b0 38 5c 11 bd b5 08 72 3d ad be 40 3d e9 48 be bb
       -0.035488337 0.059090335 0.047056843 -0.0058070314
0002c0 ed ef a7 3d 6d 97 fb bc 7d 13 14 3d 89 55 a0 bc
       0.08200059 -0.030711854 0.036151398 -0.019572036
0002d0 3c d5 2e 3d 7b d6 fd 3b b7 9b 1c bd ea 72 b1 3d
       0.042683825 0.0077465153 -0.03823444 0.08664496
0002e0 b8 fa ed 3c 9b b1 ed 3c 34 58 bd 3c 93 f1 c8 3b
       0.029050216 0.029015353 0.023113348 0.0061323135
0002f0 4d 12 db bc cf ef ba 3b 41 f2 82 bd c5 a6 88 bd
       -0.026742125 0.005704857 -0.063938625 -0.06672434
000300 1c 03 be ba 06 7a b9 3c 00 ef 6d bd a0 c2 ff bc
       -0.0014496776 0.022641193 -0.058089256 -0.031220734
000310 45 8f 83 bc a2 a6 41 bc 8b 3f 0e 3d a0 4b 84 bb
       -0.016059527 -0.0118195135 0.034728568 -0.0040373355
000320 2c 5b d0 bd bf 93 06 3d 78 b6 7d 3d 49 94 86 3d
       -0.1017364 0.032855745 0.061941594 0.06571252
000330 5e 22 56 3a c3 dc 4b 3d f2 2e c6 bc f6 d1 6e 3c
       0.0008168573 0.04977108 -0.024192307 0.014576426
000340 2f 34 cf bb 43 3a 86 3c 46 20 17 3d d9 ab 22 bd
       -0.0063233594 0.016385203 0.036896013 -0.039714668
000350 4b f6 97 bd e9 d7 77 3c 5d ca bb 3d 4c 25 f3 3c
       -0.074200235 0.015127161 0.09169457 0.02968087
000360 47 89 5b 3c 11 fb 7d bc d5 ac 5c 3d 40 22 61 bd
       0.013399429 -0.015501753 0.053875763 -0.054964304
000370 0a bd 9a 3c d6 7d 2b bd 9f a3 dc bc 4e 76 be bd
       0.018888969 -0.041868053 -0.02693349 -0.092999086
000380 ba 46 7b 3d 24 b9 fd bc 52 b5 a5 bb ed a2 16 bd
       0.061346747 -0.030972071 -0.0050570155 -0.036776472
000390 cc b5 25 3c 2f 39 15 bd d1 d9 3b bc c3 c5 b5 3c
       0.0101141445 -0.036431488 -0.011465506 0.022189027
0003a0 d5 18 b0 bc b6 51 86 3d 63 7b d1 3c 90 59 9e bd
       -0.021496216 0.06558554 0.02557153 -0.077319264
0003b0 f4 e0 33 bc c9 70 a4 3d 66 9b b2 3d e9 9f 65 3d
       -0.010978926 0.080293246 0.08721046 0.056060705
0003c0 e4 75 21 bd 56 08 2b 3c db 6c fd bc 04 4a 0e 3d
       -0.03941907 0.010438999 -0.030935695 0.034738556
0003d0 98 2a 69 bc d4 d3 a3 bd 07 81 4e bd b1 d0 a3 bc
       -0.014231347 -0.079993874 -0.05041602 -0.019996973
0003e0 f8 d5 0f 3d 17 5a 8b 3c 0a 12 81 3d fb 93 be bd
       0.035116166 0.017010732 0.06302269 -0.09305569
0003f0 09 89 a4 bd e3 e3 98 bc 1c d8 f5 3c 97 94 03 3d
       -0.0803395 -0.018663352 0.030010276 0.03212413

weight_hh_l1 f4 [512, 128]
000000 62 e0 8f 3c 9c 7f cf bb 5f be ec 3b d8 52 0d 3c
       0.017563049 -0.006332351 0.0072248424 0.0086257085
000010 eb 59 bf bd 68 63 38 b9 7e ea 1d bd e6 a5 9a bd
       -0.09343322 -0.00017584639 -0.038553707 -0.07551174
000020 d2 28 6b bd e9 00 25 3c ee c4 b3 bd fe 36 5c 3a
       -0.057411976 0.010071018 -0.08777796 0.00084005285
000030 46 d5 4a 3d c1 60 19 bc 8d 61 18 bd e3 d3 27 3d
       0.0495198 -0.009361447 -0.037202407 0.040973555
000040 f1 ab 78 3d de 0f 94 3d 30 65 73 3d 1e b5 52 3c
       0.06071085 0.07229589 0.05942267 0.0128605645
000050 5f 9e e7 3b cd e9 36 bd ec be 8c bd 33 d6 5b bd
       0.00706844 -0.044656564 -0.06872353 -0.053671073
000060 8a 6d 8e bd eb b7 4c bc 03 2a b0 bd 8e be 9e bd
       -0.06954487 -0.012495021 -0.08601763 -0.07751189
000070 52 08 87 3d 87 25 b0 bd 7e 09 db 3c de a0 86 3d
       0.06593384 -0.08600908 0.026737925 0.06573652
000080 96 1c d1 bc 21 f0 9f 3d 38 9b 03 bd 9b f8 41 bc
       -0.025526326 0.07809473 -0.03213045 -0.011839057
000090 9c 15 b4 3c 70 8c 5d bd d2 c5 a6 3b 24 50 43 bd
       0.02198296 -0.05408901 0.0050895 -0.04768385
0000a0 67 7c 03 3d 46 ac 36 bd 9f 44 1e bd 6a c9 85 3d
       0.03210106 -0.044597887 -0.03863966 0.06532557
0000b0 33 83 07 bc d9 20 d0 bc 06 5d 8c bc e9 3e 00 3d
       -0.008271026 -0.025406288 -0.0171342 0.031309996
0000c0 0a 1d 39 3d 67 02 9a bc 76 75 96 bc 8c ee 9a 3d
       0.04519371 -0.018799974 -0.018366557 0.075650305
0000d0 e9 da 2c bc 07 19 3e bc 92 1d 52 bd ea dc 15 3c
       -0.010550239 -0.011602647 -0.05129773 0.009146908
0000e0 d0 cb bc bc 3f 6a 09 3d f7 58 fe 3c 99 67 13 3d
       -0.023046404 0.03354859 0.031048281 0.03598747
0000f0 f2 83 94 bc 0e af d1 bd 6b e9 a6 bc 90 03 6b 3d
       -0.018129323 -0.10238467 -0.020374974 0.057376444
000100 20 9e 41 3d 26 90 33 bd 91 a1 7a bd a8 6c 26 bd
       0.04726994 -0.043838643 -0.061189238 -0.040630966
000110 c4 ad a6 3d f3 d4 c5 3c 01 d1 b6 3d 3f 62 6d 3c
       0.08138612 0.024149394 0.08926583 0.014488756
000120 39 cb b8 bb fb e7 76 3d 4d 17 01 bd c7 ee 97 3d
       -0.0056394604 0.060279828 -0.031516362 0.0741859
000130 bf 5f 20 3d 0b 0c a7 3b 89 5d a0 3c 37 7b 71 bd
       0.03915381 0.005097871 0.019575851 -0.058955397
000140 72 bc 29 bc 64 57 9a bc 23 cd 85 bc 73 5f b7 bd
       -0.01035987 -0.0188405 -0.016333168 -0.08953752
000150 75 25 e7 3b 5a 9e 92 3d cd 72 95 3d 67 93 4f 3d
       0.007054026 0.071591094 0.07297287 0.050677683
000160 1e 1c 10 3d 49 1d ca 3c 9e 0e e1 bb 45 08 9c bd
       0.035183065 0.024672167 -0.0068681976 -0.07618765
000170 67 b8 15 3c a6 f4 1d 3d 58 6c 29 3d 57 69 b5 3d
       0.009138203 0.038563393 0.04136309 0.088579826
000180 53 b0 55 bd bc 1d 58 3c 99 13 eb bc 09 12 cd 3b
       -0.05217011 0.013190683 -0.028695868 0.0062582535
000190 f6 d2 09 3d aa de e1 3c c7 ee 52 bd ec eb 73 3a
       0.033648454 0.027571995 -0.051497247 0.00093048695
0001a0 71 66 47 39 b9 15 8c 3d aa 26 9f bd 44 57 88 bd
       0.00019016281 0.06840081 -0.077710465 -0.066572696
0001b0 ab de 18 bd 99 dc 0c 3d 4e b2 9c 3d 9b fa 12 3d
       -0.037321728 0.034390066 0.076511964 0.035883527
0001c0 0e 78 ab 3b 1b bd 91 bd c8 b3 87 bd 20 92 9c bc
       0.0052328175 -0.07116147 -0.066260874 -0.019112647
0001d0 83 b5 e9 3b 4d c3 b5 bd e8 26 84 bd 0c 28 1d 3d
       0.0071322336 -0.08875141 -0.06452733 0.03836827
0001e0 f2 09 50 bd 53 e2 9f 3c a6 2e 49 3d 2e 20 9b bd
       -0.050790735 0.0195171 0.049116753 -0.07574497
0001f0 2b 36 96 bd c8 da 73 3d 7c 5c 9f 3d 5f 40 31 3d
       -0.073345505 0.059534818 0.07781312 0.04327428
000200 a3 81 c4 3c a2 5d 7f bd 2c a3 2b bc 8f 54 9d bd
       0.023987597 -0.062345155 -0.010475915 -0.07682144
000210 2d 8f 8f bd e1 b6 76 bd 5a c6 61 bd 5b e5 98 bd
       -0.070097305 -0.060233 -0.055120803 -0.07465621
000220 16 a8 27 bc b1 d5 6d bd e5 50 57 3b 8b 81 3c bd
       -0.010232946 -0.05806512 0.0032854613 -0.04602198
000230 6d dc 93 bd 1d 08 ba bb 78 2c 4d bd 12 6f 8c 3d
       -0.07219777 -0.0056772367 -0.050091237 0.068571225
000240 5f 98 3d bd 67 b5 ee bb e6 c7 11 3d 6b eb c9 3b
       -0.04628789 -0.0072848084 0.03559103 0.006162097
000250 c2 cd 74 bd 8e 5e cd 3d 50 57 40 3b 82 86 b7 3c
       -0.05976654 0.100278005 0.0029348917 0.022403006
000260 d6 a9 51 bd 46 d3 6f 3c fa 5f be bc b5 75 58 bc
       -0.05118736 0.014637774 -0.023239125 -0.013211657
000270 dd 7c e0 3c 20 87 0b bd 01 97 37 3d e6 63 15 bd
       0.02740329 -0.034064412 0.044821743 -0.036472224
000280 69 51 95 bc b1 f8 6d bd 31 fb 14 3d 96 cd 78 3d
       -0.018227296 -0.0580985 0.036372367 0.060742937
000290 04 87 3f ba 22 b9 69 bd a8 0c b0 3d e9 f1 b9 3a
       -0.00073061907 -0.057061322 0.08596164 0.0014186475
0002a0 f2 91 96 bd 0e 95 0b bd 50 c4 a9 bc 70 05 ad 3c
       -0.073520556 -0.034077697 -0.020723492 0.021120757
0002b0 48 9d ac 3c f1 b9 2a bc c3 d0 a8 bd c2 c1 4d bc
       0.021071091 -0.010420308 -0.08242943 -0.0125584025
0002c0 8b 4b a2 bd 22 b2 87 bd db f9 61 3d fe 9a 96 3d
       -0.07924565 -0.06625773 0.05516992 0.07353781
0002d0 80 2d b7 3d 48 56 6a 3d 0f 2a 91 bd 66 38 50 bd
       0.08944225 0.05721119 -0.070881 -0.050835036
0002e0 4c f9 8f bd 5a e7 16 3d 60 70 6a 3d 78 a2 99 bc
       -0.070299715 0.036841728 0.057236075 -0.018754229
0002f0 92 bc 5d 3c 7c dc 77 bd f7 2a 3f 3d 52 96 9a bc
       0.013533728 -0.060513005 0.046671834 -0.018870506
000300 9d 4d 85 3d d6 63 0b 3d d6 95 07 bd d3 41 0f bc
       0.06508944 0.034030758 -0.03310188 -0.008743721
000310 a1 bc c3 bc f9 f7 5b 3b 55 2c 97 3d 5e 50 5c bd
       -0.023893656 0.0033564551 0.073815025 -0.05378758
000320 b3 4c 50 bd cc 7c 94 3d 33 ff 60 bc ba 15 91 bd
       -0.050854396 0.072503656 -0.013732719 -0.07084222
000330 99 04 9c bd c9 aa 34 3d fe 41 3e 3d f5 03 71 3c
       -0.076180644 0.044108186 0.046449654 0.014710416
000340 77 2b 61 3d 89 f1 ae 3c 4e 9b 89 3d af e7 35 3d
       0.054973092 0.021355407 0.06719075 0.044410404
000350 65 25 98 ba 4a 3f 93 3d 52 5e 94 bd 21 ed 60 bc
       -0.0011607824 0.07189806 -0.07244553 -0.013728411
000360 bb 88 ca bc 0b 17 b5 3d 8e dd 9d 3d 52 b9 b3 3d
       -0.024723401 0.08842286 0.07708274 0.087755814
000370 d8 8a 88 3d 01 22 62 3d bf 03 15 bd 51 28 9b bc
       0.06667107 0.05520821 -0.036380526 -0.018940123
000380 19 d0 1c bd e4 cf d4 bd 46 9d 46 3d 55 95 49 3b
       -0.038284395 -0.103912145 0.04848983 0.0030759175
000390 91 39 39 bd 63 c3 99 3d 4e 55 c8 3d 0e 00 9e bd
       -0.045220915 0.0750797 0.097818956 -0.07714854
0003a0 d5 80 22 bc 86 3f fc bc 33 c7 e9 3b 07 e8 e3 3b
       -0.009918411 -0.03079201 0.007134342 0.00695515
0003b0 e1 6c 76 3d 9c 06 97 bd 32 cc 2b 3d 0a a2 82 3d
       0.06016243 -0.073743075 0.041942783 0.06378563
0003c0 2e df 8b 3d 42 55 e1 bb 59 d2 84 3d 88 60 b3 3d
       0.068296775 -0.0068766186 0.06485433 0.08758646
0003d0 e2 a2 6d bd d3 6f b2 ba c7 76 36 3d 48 2b a1 3d
       -0.058016665 -0.0013613648 0.04454687 0.07869583
0003e0 35 97 1f bd bd b5 2f 3d 25 4a 8c 3b 9d 3a 05 bc
       -0.03896256 0.04289793 0.0042812997 -0.00813165
0003f0 58 d7 10 3d 64 fd 93 b9 3a 01 3d bd 38 4d 1d bd
       0.035361618 -0.00028226816 -0.046143748 -0.03840372

bias_ih_l1 f4 [512]
000000 77 4a 35 bd 25 8d b8 3d 0a 09 9d 3d c0 ee 46 3d
       -0.04426047 0.09011296 0.0766774 0.048567533
000010 09 dc 90 3d 58 de 13 bc 42 ab 14 bd ea a9 68 3d
       0.070732184 -0.009025179 -0.036296137 0.056802668
000020 91 24 7b 3d 2f 65 44 3d fd e9 bf 3d 19 fa 69 bd
       0.06131417 0.04794806 0.093708016 -0.057123277
000030 a3 31 00 3e 47 ba a3 bb 68 eb 36 bd 1c 1f 91 3d
       0.12518935 -0.004996571 -0.044658095 0.07086012
000040 e1 41 8b 3c 88 09 2e bd 2f 78 8f 3c fa 03 d7 3c
       0.016999187 -0.04248956 0.017513363 0.026247013
000050 70 a1 31 bd fe ad 74 bd a2 72 e6 3c c7 22 7f 3d
       -0.04336685 -0.059736244 0.028130833 0.062289026
000060 31 b3 37 bd 64 b0 0f bd cf 96 1c 3d 96 1a 95 bd
       -0.044848625 -0.03508033 0.03822976 -0.072804615
000070 ae 23 4b 3c 12 f4 f9 bc be aa fd bc bd 79 d7 3d
       0.012398643 -0.03051189 -0.030965205 0.105212666
000080 d3 ff ef 3d d0 79 4e 3d 0a 23 84 bb 4c cf d0 3b
       0.117187165 0.05040914 -0.0040324973 0.006372368
000090 67 9d 6d b9 fe b1 eb bb 97 1f b6 bc d6 00 ba 3d
       -0.00022660718 -0.007192849 -0.02223186 0.09082191
0000a0 e5 50 8a 3d 57 08 5f 3b bf 80 dc 3b e1 b2 69 bd
       0.06753711 0.003403207 0.006729215 -0.057055358
0000b0 e7 77 9f 3d 22 6e 43 3d 8d d6 16 bd 2e 9f 99 bd
       0.077865414 0.047712453 -0.036825705 -0.07501064
0000c0 30 ca 1e 3c 5d a5 98 3d bd 5a f0 3d 29 e3 62 3d
       0.00969176 0.074534155 0.11736057 0.055392418
0000d0 32 d0 62 bd 6c ce 3f 3c 18 f3 b7 3c d7 56 82 3d
       -0.05537433 0.01170693 0.022454783 0.0636422
0000e0 2f a6 ee 3c a4 b6 96 3c 46 c3 6b 3d bf 7e f2 3b
       0.029131977 0.018397637 0.057559274 0.007400363
0000f0 be 5c 8a bb 02 5b 2d bd ca f8 1c bc a1 7f e5 39
       -0.0042224815 -0.04232312 -0.0095808 0.00043773375
000100 63 d9 53 3d 92 8f 2a bd e1 a0 58 bd 1a 05 07 3d
       0.051720988 -0.041640826 -0.0528878 0.03296385
000110 dd 19 07 3e 76 16 a9 3d 4d 33 c3 3d cb b1 b3 3b
       0.1319346 0.08256237 0.09531269 0.005483841
000120 00 f0 21 3b fb 93 38 bd c9 72 93 3d 4e 6a 39 3d
       0.0024709702 -0.045063 0.07199628 0.045267396
000130 1f 12 79 3d 07 b2 8a bb f0 3e bc 3c 3f b5 4a bd
       0.060808297 -0.0042326483 0.02297923 -0.049489256
000140 6a 52 62 bc dd c1 8e bd e1 66 27 3e 07 a2 73 3d
       -0.013813594 -0.0697057 0.16347839 0.059480693
000150 b7 b5 a2 bc f0 6a 68 bd 10 94 2c 3d 12 36 31 3c
       -0.019862039 -0.05674261 0.04213339 0.010816114
000160 da c2 91 3d 9a 96 1c bd 84 8b 6a 3d eb bd 10 bd
       0.07117243 -0.038229562 0.05726196 -0.03533737
000170 18 58 45 3d 99 18 11 bd b9 ff f3 3b 2e a0 25 3c
       0.048179716 -0.03542385 0.007446256 0.010108991
000180 b3 de a5 3d 9c 9b 7e bd 1f 29 e5 3d 17 23 6c 3d
       0.08099117 -0.06216012 0.11189484 0.05765065
000190 d6 cd 9b bd 91 a6 80 ba ca 82 9f bd ce 0c 2b bd
       -0.076076195 -0.0009815266 -0.07788618 -0.04176026
0001a0 de 67 9f 3d f7 34 a4 bd 0e 23 f0 3b 77 67 5e 3d
       0.07783483 -0.08017915 0.0073283976 0.05429789
0001b0 c3 5f 79 3c a2 22 e1 3d 80 71 01 3e 8b c5 a5 bb
       0.015220585 0.10992934 0.12640953 -0.0050589493
0001c0 20 4d d0 3d f6 a4 43 3d 00 bb cf bb c3 21 f6 3c
       0.101709604 0.04776474 -0.006339431 0.030045396
0001d0 d3 a5 95 3d 17 d4 92 bd 4b 9f c8 3c 2d 31 8c bd
       0.07307019 -0.07169359 0.02449002 -0.06845317
0001e0 40 00 ab bc 8b 24 91 bd a9 b9 9e 3d 05 1a a4 3d
       -0.020874143 -0.07087048 0.077502556 0.08012775
0001f0 b6 e2 4e bd fe 36 38 bc 7e e2 1b bc 71 66 e1 3d
       -0.050509177 -0.01124358 -0.009514449 0.11005867
000200 7a 25 a9 bd 78 ef 95 bc 49 9c 0b bd a0 a8 3c bd
       -0.08259101 -0.018302664 -0.034084592 -0.04605925
000210 bc 97 3e 3d c5 70 17 bd 1e 6f 11 3d 08 c7 3e 3d
       0.046531424 -0.03697278 0.03550636 0.04657653
000220 3f a3 04 bd 44 98 ed bd da fc 40 3d 49 d2 20 bd
       -0.032382246 -0.11601308 0.047116138 -0.039263044
000230 e3 33 86 3d ad 60 e9 3c f9 c1 fe bc a0 8b 68 3c
       0.06552865 0.028488481 -0.031098353 0.014193445
000240 75 a8 2c 3d 6d 5a cf bd 99 53 1b bd 32 51 ca bd
       0.04215284 -0.10124669 -0.03792152 -0.09878768
000250 19 08 90 bd ec e9 a0 bc d2 4c a7 bb c7 f9 b1 bd
       -0.070327945 -0.019642793 -0.0051055932 -0.08690219
000260 96 3a 78 bd 38 82 76 bd 43 65 c4 bb ac 2f 9b bd
       -0.060602747 -0.06018278 -0.0059935167 -0.07577452
000270 01 71 2d bd 9d 47 dc bc 35 7f b3 bc 9e 6c 47 3d
       -0.042344097 -0.026889617 -0.021911243 0.04868757
000280 ba 9c 0b bd ac e8 9e 3c bc 50 17 bd 71 b2 8a 3c
       -0.034085013 0.019398056 -0.03694223 0.01693079
000290 52 eb ad bd d4 f5 d9 3c 61 31 36 3d de 67 08 bb
       -0.084921494 0.026606478 0.044480685 -0.0020813863
0002a0 65 3b 37 bc c8 a5 9e bc 19 23 87 bd f1 98 86 3d
       -0.011183594 -0.01936616 -0.06598491 0.0657214
0002b0 5e 5f b1 3c f4 ba 84 bd 44 5e 2f bd 22 e4 df bb
       0.02165192 -0.06480971 -0.042814508 -0.0068326155
0002c0 cc bb 1a bd e1 a0 d7 bc b2 aa 2c bd 5e 92 bb bd
       -0.037776753 -0.02632183 -0.042154975 -0.09158777
0002d0 2d b2 94 3c ad 7b e5 3c 79 c5 50 bd 08 c8 49 3c
       0.018151367 0.028013075 -0.050969575 0.012315758
0002e0 23 3c 3e 3d 1b 33 11 bd e2 8d 7c bd 2a fa 7d 3b
       0.04644407 -0.03544913 -0.061658747 0.0038753846
0002f0 37 e6 03 bd 17 e8 54 ba 1f e2 b9 bd f8 37 f7 bd
       -0.03220197 -0.0008121742 -0.09076332 -0.12071222
000300 6e e1 ae bd 13 cf 0c bd c9 d8 24 bd 47 c3 e0 bc
       -0.08539091 -0.03437717 -0.040245805 -0.027436865
000310 21 df 9c 3c d0 c6 67 3d fb f7 a3 3d f7 58 09 bd
       0.019149365 0.056586087 0.08006283 -0.03353211
000320 00 76 24 3d 0c fa bd bd 4c 6f 12 3d 5a c7 c9 bc
       0.040151596 -0.09276208 0.035750672 -0.024631191
000330 7a cc ad 3c b1 80 b1 bd 89 a0 7c bc bc b6 52 3d
       0.021215666 -0.08667124 -0.015419134 0.0514438
000340 2e dd f8 bc cb 1a 2a 3d 97 8b e6 bc df 9d 23 bd
       -0.030378904 0.041529458 -0.028142733 -0.03994548
000350 87 cf 18 bd f5 97 32 3c 8b 45 9d bc 8a 1b a8 3d
       -0.03730729 0.010900487 -0.0191982 0.08208378
000360 8d 16 51 3d f6 76 ba bd 9a 98 6c 3d d3 7a 07 bd
       0.051046897 -0.09104721 0.05776272 -0.03307612
000370 5a 22 a0 bd 29 dc ab 3d 59 09 cb bd e8 de 07 3d
       -0.07819052 0.083916016 -0.09913892 0.033171564
000380 0b 9e 31 3d 46 a2 48 bc 78 b3 b4 3c d7 86 c1 bd
       0.043363612 -0.01224572 0.022058234 -0.09449547
000390 d3 28 94 3d a0 e4 c7 bd 8c d1 06 3d 9a 36 0a 3d
       0.07234349 -0.09760404 0.032914683 0.03374348
0003a0 d3 be d7 bc c4 d9 d5 bd 26 83 86 bc 10 b8 25 bd
       -0.02633611 -0.10441926 -0.016419958 -0.04045874
0003b0 b1 69 ab 3b 3b 48 b3 bd 04 2a c2 bd f5 f6 c6 bd
       0.0052311053 -0.08754011 -0.0948067 -0.09715072
0003c0 fb 0a 27 3c fb dd 3b 3d fb b6 d9 bd 06 05 fa bd
       0.010195489 0.045865994 -0.10630604 -0.122079894
0003d0 5c 97 97 bb a0 19 a3 bd b3 4a 34 3c 4f e9 f7 bc
       -0.0046261977 -0.07963872 0.011004138 -0.030262617
0003e0 09 60 ec bd 9c e1 84 3d 1d 4b c8 3c 0f 6f bd 3c
       -0.11541755 0.06488344 0.02444988 0.023124246
0003f0 0d 5e 7d 3d b0 87 b0 bd a8 62 9f bd 0d 46 ce 3d
       0.061857272 -0.0861963 -0.07782489 0.10071955
