stockforecasting/300446_model.pkl (torch, 858496 bytes, 14 tensors)

weight_ih_l0 f4 [512, 4]
000000 16 67 a7 3c 64 0c 7f 3c 4a 20 2c 3d ea be c2 bd
       0.020434897 0.015566919 0.04202298 -0.0950907
000010 0e 7a 47 bc 1a 51 a9 3d 3b 74 f4 3b e1 d4 d8 3b
       -0.012175096 0.08267422 0.007460145 0.006617174
000020 91 2e a8 bd ba 3f a8 bd 96 2b 68 bd cc 9c 86 bd
       -0.08212007 -0.0821528 -0.05668219 -0.065728754
000030 c7 ae 2b bd 1f bd 94 3d b7 a6 98 bd 54 ba 94 bd
       -0.041914728 0.072626345 -0.07453673 -0.07262102
000040 ba 2c bb bd dc dc c5 bd 30 6b 91 3d e0 c9 66 3c
       -0.0913939 -0.09661266 0.071005225 0.014086217
000050 f4 22 bd bb 4f 43 9a 3d 03 43 5d bc e5 1d a4 bb
       -0.005771989 0.07532369 -0.013504746 -0.0050084465
000060 b7 37 86 bd c1 49 4f bd 8b b9 b1 3c ef 11 6c bd
       -0.065535955 -0.050607447 0.02169492 -0.05763429
000070 0c cf 94 bd 77 72 13 bd 34 b6 e7 3b b9 74 1d bd
       -0.072660536 -0.035997834 0.007071281 -0.038441394
000080 8f 40 84 bd 7c a4 96 3d 03 4c ee bc 30 ef 1b bd
       -0.06457626 0.07355592 -0.02908898 -0.038069904
000090 9e 65 83 bd 12 80 8c 3d 42 b3 14 3c 2c eb 2b 3d
       -0.06415866 0.06860365 0.0090759415 0.041972324
0000a0 4d e6 08 bc 11 85 0e 3d 34 95 4a bb 91 d6 96 3d
       -0.008355689 0.03479487 -0.0030911686 0.07365144
0000b0 36 66 33 bd c8 a6 85 bd 86 13 c0 bd be 62 41 bc
       -0.043798648 -0.065259516 -0.09378724 -0.011803327
0000c0 a5 a7 88 3d 40 86 97 3b 9c 6d c3 3d 39 82 0a bd
       0.06672601 0.004624158 0.09542391 -0.033815596
0000d0 13 63 20 3d 8e d6 17 3d 3e e1 16 3c be 63 aa 3d
       0.039156985 0.03706985 0.009208975 0.083198056
0000e0 81 87 87 3d 24 15 c6 ba 3e 57 03 3c 3b 89 27 3d
       0.06617642 -0.0015112502 0.008016406 0.040902358
0000f0 a0 f4 d7 3c fa ea ea bb d6 8e 3e 3d 9c 58 f6 bc
       0.026361763 -0.0071691247 0.046522938 -0.03007155
000100 c9 52 48 bc bc 56 75 3c 43 fd 8a 3d ae 2b 6c 3d
       -0.012226769 0.014974292 0.06786587 0.057658844
000110 db a6 d7 3a 89 5a 92 bc b8 2b bc bc af 15 d9 bc
       0.0016452925 -0.017865436 -0.022970065 -0.026499597
000120 69 91 06 3b c1 d6 49 3d c9 90 99 3d 0e b0 32 bc
       0.0020533449 0.04927707 0.07498319 -0.0109062325
000130 bd f7 c5 bd c9 f5 06 bd b0 9b 7e bc 22 26 b5 bd
       -0.09666393 -0.032949243 -0.0155400485 -0.08845164
000140 ed bf 80 3d 38 e4 b1 3c b8 be 05 bd 83 11 8b 3d
       0.06286607 0.021715268 -0.032652587 0.067904495
000150 40 a6 9a 3d f3 66 24 3d 69 c5 11 3c d6 80 19 bd
       0.07551241 0.040137243 0.008897164 -0.037476383
000160 dd d0 5e bd ef 0b 18 bd 98 79 90 bd 54 cf 2a bc
       -0.054398406 -0.037120756 -0.07054442 -0.010425407
000170 40 46 11 bd f6 35 90 3d fe 06 98 3c 44 c0 d2 3c
       -0.035467386 0.07041542 0.018558022 0.025726445
000180 90 ae e8 3b 27 c7 dc bb 25 ca a1 bd ff 98 36 bd
       0.0071008876 -0.006737608 -0.07899884 -0.044579502
000190 85 9c 88 ba be 41 31 bd 0a 1a 4f 3d 6f 71 be 3d
       -0.0010422623 -0.043275587 0.050561942 0.092989795
0001a0 1b 74 f1 3c d6 8e 19 bd 8b 81 c3 bc e7 a4 cb bc
       0.029474309 -0.037489735 -0.023865482 -0.024858905
0001b0 88 fb fd bc cb 90 a7 3d b0 15 28 bd 5d af dd 3c
       -0.031003729 0.08181914 -0.041036308 0.027061159
0001c0 3e a8 53 bd 6b ab 8c bc 50 ae 5b 3d 3f e4 90 3a
       -0.05167412 -0.017171582 0.053633034 0.0011054351
0001d0 c7 97 e8 39 39 db a4 3d db 19 a2 bc 8d 9a 8f bc
       0.0004436357 0.08049626 -0.01978772 -0.01752975
0001e0 3f a3 b5 bd 73 99 56 3d 3d 09 44 bd a9 79 2a 3d
       -0.08869027 0.052392434 -0.047860373 0.04161993
0001f0 8e 22 12 3d 51 d5 83 3c 8b 89 b8 3d 1d af 6c b9
       0.035677485 0.016092928 0.09010609 -0.00022571949
000200 cd 8c 50 bb 0d 94 04 3c 7d 7e b6 bd 22 b0 e0 bc
       -0.0031822205 0.008091939 -0.089108445 -0.027427737
000210 9a db 49 bb d6 a6 c4 3d 0a 85 48 bd a6 0b cb 3d
       -0.0030801059 0.09602134 -0.048955 0.09914331
000220 61 7a c2 bc 57 f6 3d bd 88 85 7d bd a3 46 bf 3d
       -0.023739995 -0.046377506 -0.061894923 0.09339645
000230 da 04 1f bc bb 83 c6 3d 2a 5c f9 3c dc 13 b4 3d
       -0.009705747 0.09693094 0.030439455 0.087928504
000240 62 11 33 3d 7d 44 7e 3c 82 d1 c3 3d 9c d7 1e bd
       0.04371775 0.015519259 0.09561445 -0.03877984
000250 45 27 de 3c fd d9 97 bd 3b 4b 44 3c da ba 8c 3c
       0.027118335 -0.07414625 0.011980827 0.017178942
000260 54 1c 93 bd 18 b4 05 3c 5e d2 f7 3c 66 ab ab bd
       -0.071831375 0.0081606135 0.030251678 -0.08382301
000270 88 15 2a 3d d2 c8 98 3d a0 e2 c7 3c 4f 4c cd 3d
       0.04152444 0.074601784 0.024400055 0.1002432
000280 14 27 8b 3d 00 32 1a 3b 9c 1a dc bc a5 12 65 3c
       0.06794563 0.0023528337 -0.026868157 0.013981496
000290 94 40 88 bd e1 5f c6 bd 23 11 43 bd 68 be fe 3c
       -0.06652942 -0.09686256 -0.047623765 0.031096652
0002a0 83 0a bf 3d 01 22 08 3d 43 1c 4a 3c 81 8c 1c 3d
       0.09328177 0.033235554 0.01233584 0.038219932
0002b0 90 a4 7a bc 9b bc 2a bd 1d ab 23 bd 5c 6c e5 3c
       -0.015298024 -0.041683774 -0.03995811 0.028005771
0002c0 3c cc 7b bd 1e d6 21 3d 21 59 99 bc 29 fd 95 3c
       -0.06147407 0.03951084 -0.018719258 0.018309193
0002d0 47 37 88 3d 1c 0c 63 bd 21 0c 9a 3d d7 5c cd 3d
       0.06651168 -0.05543147 0.07521845 0.100274734
0002e0 b7 41 5f 3d ba 33 c3 bc 56 72 1e 3d 39 6c 24 3d
       0.05450603 -0.023828376 0.038683258 0.04014227
0002f0 78 c4 55 bd 29 96 2d bd 45 c4 51 3c 3b fd 4c 3d
       -0.05218932 -0.042379532 0.012803142 0.050046187
000300 fc a7 75 3d 7b 71 a2 bd e8 67 7a 3d fa 69 9f 3d
       0.059974656 -0.07931801 0.06113425 0.07783885
000310 8b 0c 32 3d 7c ca 76 3d 80 01 47 bc 4a 92 87 3b
       0.043468993 0.060251698 -0.012146354 0.004137312
000320 12 83 2b 3c bd 02 1b 3c b0 bc 2a bb 52 82 6d bd
       0.010468261 0.009461102 -0.0026052408 -0.05798561
000330 14 5d f4 3c 02 c8 b9 3d d8 d9 7f bd 6f 09 86 bd
       0.02982954 0.090713516 -0.06246361 -0.06544768
000340 28 8b 85 bc b3 92 bd 3d fb ad bc bc 7a 61 12 bb
       -0.016301706 0.09256496 -0.02303218 -0.0022335933
000350 3b 67 71 bd b7 14 f6 bc 8f 1d 12 3c 73 09 87 3d
       -0.05893634 -0.030039174 0.00891818 0.06593599
000360 1d 50 67 bd 73 35 f4 3b 7d ba 9d bc 7f 59 0f bd
       -0.056472886 0.0074526607 -0.019253964 -0.03499746
000370 5c e0 67 3d 68 3c 90 bc 3e d5 be bd 60 6e df bd
       0.05661045 -0.017606929 -0.093180165 -0.10909724
000380 16 34 2f bd 3e 8e 24 bc d5 97 c0 3d 4a 96 ac 3d
       -0.042774282 -0.010043679 0.0940396 0.08427103
000390 d9 15 59 bd 66 23 8d bd 8c e9 be bd 58 c7 33 bd
       -0.05299935 -0.06891517 -0.09321889 -0.04389128
0003a0 3b 6e 24 bc 05 38 b2 3d cb a0 50 bd 07 29 9c bd
       -0.010036047 0.08702091 -0.050934594 -0.07625013
0003b0 55 39 ac 3d 2f a4 20 bd 9f ef 68 3d 80 aa 68 3d
       0.08409373 -0.039219078 0.056869145 0.056803226
0003c0 3f 20 fe bc c6 c3 2d 3d c5 35 c0 3c bd 45 10 3d
       -0.031021236 0.042423032 0.02346314 0.035222758
0003d0 b8 9e 97 3d 25 9e a3 bd c2 48 3a bd 07 b6 a7 3d
       0.0740332 -0.07989148 -0.045479544 0.08189016
0003e0 15 af 71 3d 34 42 aa 3d cc 34 64 3d 78 0d 47 3d
       0.05900486 0.083134085 0.055714414 0.04859683
0003f0 b4 b9 f3 3c ca 47 bd bb 78 41 70 3d 17 a0 1f bd
       0.029751636 -0.00577638 0.058656186 -0.038971033

weight_hh_l0 f4 [512, 128]
000000 5e 7c 46 3d 82 63 d5 bc e1 e0 8d bd 22 7c e6 ba
       0.04845845 -0.026048426 -0.06927658 -0.0017584602
000010 b3 85 89 3d 7d 8a 1d bd a3 c7 d3 3c dc 98 40 3d
       0.06714954 -0.03846215 0.02585203 0.047020778
000020 e3 41 5c bd ac 1c 00 bd c5 bb 54 3c 0d 72 9a bd
       -0.053773772 -0.031277344 0.012984221 -0.07541285
000030 2d c2 3d 3d 9c 78 4a bb 12 48 ee 3b 60 9c 39 bc
       0.04632776 -0.0030894643 0.007271775 -0.011328787
000040 82 f6 84 bd cd a0 14 3c 81 c3 97 3d 10 22 8e 3d
       -0.0649233 0.009071541 0.07410336 0.06940091
000050 65 ef c7 3d 0f 2b a6 3d 06 a0 46 3d 05 3a 93 3a
       0.09762458 0.081136815 0.048492454 0.0011232501
000060 f4 a3 cf bc cd 47 b1 3d 0f e8 64 bc 54 fa d5 3c
       -0.025346734 0.08656273 -0.013971343 0.026120342
000070 ed 1b c7 bd 71 60 cf bc eb 79 01 3d 79 f2 10 3b
       -0.09722123 -0.025314542 0.03161041 0.0022117181
000080 ac 67 68 bc 1e 4d 44 3c 09 e8 1d bd 1d 8c 69 bd
       -0.014184874 0.011981277 -0.038551364 -0.057018388
000090 21 1e 08 bd 4b 88 58 bd 22 93 b4 3c ef b7 68 bd
       -0.03323186 -0.052864354 0.022042815 -0.056816038
0000a0 e7 96 04 bd d3 67 b1 3c 41 c8 71 3d 32 5e 4a bd
       -0.032370474 0.021655953 0.059028868 -0.049406238
0000b0 bd d5 a0 3d 5a d2 16 3d 41 b1 83 3d bb ac 50 bd
       0.07853267 0.0368217 0.06430293 -0.05094598
0000c0 57 77 8e 3d 4c d8 5e 3d 9f b5 38 3d 99 84 6c 3d
       0.06956356 0.054405496 0.045095082 0.057743642
0000d0 80 38 78 bd d9 54 9f bc 3a dd 3d bd b4 70 82 bd
       -0.060600758 -0.019449638 -0.046353556 -0.06369153
0000e0 bc 1e 7b 3d 08 46 40 bd 6f 85 86 3d 37 16 84 3d
       0.061308607 -0.046941787 0.06568419 0.0644955
0000f0 7f d3 47 bc 99 3e 82 bd c1 e2 08 bd b2 1c 39 bd
       -0.012196421 -0.06359596 -0.033419374 -0.04519338
000100 d1 b0 9a bd ef 37 09 3d 44 63 50 bd 8f 95 a3 bd
       -0.07553256 0.033500608 -0.050875917 -0.079875104
000110 b2 fe 35 3d bd a3 a7 3a 53 1e 47 3c cc 70 60 3d
       0.04443235 0.0012789887 0.012153226 0.05479507
000120 10 f8 23 3d 10 23 c4 bd 31 b8 12 bd 5c 62 5e 3d
       0.040031493 -0.09577 -0.03582019 0.05429302
000130 b9 1c 15 3d ca 0f 9d 3c 83 0e cb 3c ce 40 1b 3d
       0.036404345 0.019172568 0.024787193 0.0379036
000140 c9 ed 9e 3c af 3b 9f bd 53 16 a7 3d 1c c7 01 bd
       0.019400494 -0.077750556 0.08158555 -0.031684026
000150 d4 b1 80 bd 56 26 97 bc bc 9f 59 bd 92 b2 0b bb
       -0.06283918 -0.018450897 -0.05313085 -0.0021316153
000160 f6 6f 04 3d 88 d8 67 bc a5 0a ca 3d 9b 78 95 bb
       0.032333337 -0.014150746 0.098653115 -0.0045614964
000170 ba 71 a2 3c 46 32 8f 3c a3 fd e1 bb c7 e7 ac bc
       0.01982962 0.017480027 -0.006896691 -0.021106614
000180 6b 0a ad bd 7e 32 40 bd 7a 80 b2 3d 3a 92 99 bd
       -0.08449253 -0.046923153 0.08715911 -0.07498594
000190 c8 bf 65 bd 79 1b b8 3d 75 21 a4 bd c2 0f 01 3d
       -0.0560911 0.08989615 -0.08014194 0.03150917
0001a0 b2 21 f4 bc 1b 42 c5 bd 25 50 87 3c d1 6e 8e 3d
       -0.029801223 -0.09631749 0.016517708 0.0695473
0001b0 2d 99 b1 3d 0c 6b 8e bd c0 01 96 3b de 53 d7 3c
       0.08671794 -0.06954011 0.0045778453 0.026285108
0001c0 4e 64 90 3d e7 ec bd bc f5 e2 cc 3c bc 0c d0 3a
       0.070503816 -0.023184253 0.025010565 0.0015872936
0001d0 2d 8d d9 bb 82 00 97 3d 76 83 16 bd 2b 04 be 3c
       -0.006639144 0.07373144 -0.036746465 0.023195347
0001e0 2b d6 83 bc 71 7d 1b bd 61 41 c6 3d 35 c8 ae bc
       -0.016093334 -0.037961427 0.09680439 -0.0213357
0001f0 43 6d 32 bd 47 56 99 3d 14 c0 36 bd a9 76 1f 3d
       -0.04356123 0.07487159 -0.044616774 0.038931523
000200 fa 5e 98 3d 07 62 97 3d 75 38 55 bd ea f5 9b 3b
       0.0743999 0.07391744 -0.052055795 0.00475954
000210 a1 e7 55 bd 66 5f 9f 3d 21 37 75 bd 96 87 75 3d
       -0.05222285 0.07781868 -0.05986703 0.059943758
000220 c8 53 68 bd 44 44 b2 3d 71 ad c0 39 7d 8e 92 bd
       -0.056720525 0.08704427 0.00036750318 -0.07156084
000230 41 b7 75 bd 49 cc 84 bc bb 68 ca 3d 8f 45 ba bb
       -0.059989218 -0.016210692 0.09883257 -0.0056845616
000240 e0 66 1a 3d 01 5f 27 bd 80 87 0c bd 58 51 1e bd
       0.037695765 -0.040862087 -0.03430891 -0.038651794
000250 ef c4 0f 3d b4 71 4f bd f7 d2 e0 3c d4 46 4a 3b
       0.03509992 -0.050645545 0.027444346 0.003086497
000260 74 46 2b 3d 60 c2 a3 bb 08 da 7c bc 9b 51 b3 3c
       0.041815236 -0.0049975365 -0.015432842 0.021889498
000270 18 40 72 3b ce 19 bd 3c 34 ae ad 3d 26 8a 5c bd
       0.0036964472 0.023083594 0.08480492 -0.053842686
000280 b0 08 09 bd 66 1b 78 bd a2 b9 5a 3c 52 f5 bd bd
       -0.03345555 -0.060573004 0.013349922 -0.09275307
000290 a4 45 be bc 27 b4 86 3d 45 99 b2 bd d0 70 97 bb
       -0.023226567 0.0657733 -0.0872064 -0.0046216026
0002a0 b9 63 0b 3d 7f e2 c2 bd 8a ae 0f bd 6a 3a bb 3d
       0.03403065 -0.09515857 -0.035078563 0.09142001
0002b0 58 23 53 3d b2 94 a6 3d 8d 97 4b 3d b1 3d 50 3d
       0.05154738 0.0813383 0.049705077 0.050840084
0002c0 04 c0 46 bd c5 f0 a4 bd 9f 4f 7e bd d1 22 01 bd
       -0.048522964 -0.08053736 -0.06208765 -0.031527344
0002d0 9f 13 95 3b 5f 39 78 3d f2 d7 5a bd 59 30 5d bc
       0.004549458 0.06060159 -0.053428598 -0.0135002965
0002e0 88 11 ae 3d 81 a9 27 3c c3 e0 5f 3d 3c 8e 69 3c
       0.084994376 0.010233284 0.05465771 0.014255103
0002f0 67 d0 3f 3d f0 d7 e4 bb 69 3a 3f 3d 59 58 85 bd
       0.046829607 -0.0069837496 0.046686564 -0.065109916
000300 0f f6 83 bc 2c 72 7b bd 54 bf 02 3c 83 d0 9d 3d
       -0.01610854 -0.06138818 0.0079801865 0.07705786
000310 5e 3f 18 bd 4b 0b 8c 3d a1 92 8d 3d 9d a8 84 3d
       -0.037169807 0.068380915 0.06912733 0.06477473
000320 5b fb b8 3d 32 4d 88 bd 67 97 0b 3d d7 14 12 bc
       0.09032317 -0.06655349 0.034079935 -0.008916101
000330 95 a9 84 3d ad 4e b6 bd 70 47 cf bc 6c 27 8a 3c
       0.06477658 -0.08901725 -0.025302619 0.016864501
000340 0a 54 6a 3b db 6f 33 3d 38 04 88 3d 44 ce c6 bd
       0.0035755658 0.043807846 0.0664143 -0.09707311
000350 aa 61 45 bc 81 6f 1a 3c 80 60 c9 3d 70 84 f6 3c
       -0.012047211 0.009425999 0.09832859 0.030092448
000360 bb ea b2 3c 5d 82 7c bd cb 87 20 3d 4f 0a 79 bd
       0.021840444 -0.06164776 0.039192002 -0.060800847
000370 e4 17 15 bc 2a df b0 bd b0 d2 ab 3d 4e 86 86 3d
       -0.009099934 -0.08636315 0.08389795 0.06568585
000380 aa 77 09 bd ef 5c 6e 3d 2d 7c a4 bd 73 11 80 3c
       -0.033561386 0.058194097 -0.08031497 0.01563332
000390 99 fe e5 bc 4d ae c8 ba fa 61 2c bc b2 3c 37 3b
       -0.028075503 -0.0015310735 -0.010521406 0.0027959761
0003a0 69 b5 12 3d 04 5e 5e 3d 04 ec 32 bd 60 44 04 bd
       0.035817537 0.05428888 -0.043682113 -0.03229177
0003b0 bb b5 d4 bd ca d1 0d bb 9a e3 03 bd eb 62 1f bc
       -0.10386225 -0.0021639937 -0.03219948 -0.009728174
0003c0 7a 31 51 bd 78 b7 c4 3c f3 c6 23 bd 8f e6 86 3d
       -0.051072575 0.024013266 -0.039984655 0.06586944
0003d0 ba 40 4a bd 50 8d 5a 3c ff 54 d1 3d 3e b3 c0 3c
       -0.049378134 0.013339356 0.1022129 0.02352297
0003e0 36 ae 59 bc 59 be 27 3d 1f 42 8b 3d a7 93 90 3c
       -0.013286164 0.040953014 0.06799721 0.017648531
0003f0 bd 89 6b bd da 5b 91 bd 10 88 88 3d bb 62 1b bc
       -0.057504404 -0.070975974 0.06666577 -0.009483988

bias_ih_l0 f4 [512]
000000 22 d8 a6 3c 54 b8 ac bd 58 65 9b 3d c9 f9 f5 bc
       0.020366732 -0.08433595 0.07587689 -0.030026333
000010 b1 38 b0 3d 8f 0a aa 3d 37 ff 84 3d ab e5 a6 3b
       0.08604563 0.08302795 0.06493991 0.0050932965
000020 91 ec 61 3d 05 29 bf 3b ef 8e c4 3d e0 b0 23 bb
       0.055157248 0.0058337473 0.09597575 -0.0024977252
000030 8f 4d 91 3d ef 91 bd 3d 7b ce 16 bd c1 a9 81 bc
       0.07094871 0.0925635 -0.03681801 -0.015828015
000040 c3 48 2d 3d 45 8a 3f 3d d3 a7 ad 3d 57 33 f0 bb
       0.04230572 0.046762723 0.084792756 -0.007330339
000050 d1 0b 69 bd 8e e9 87 3d f2 56 92 bd c7 2b cf 3d
       -0.056896035 0.06636344 -0.0714549 0.10115772
000060 7d a8 5d 3c 69 5d 8c bd 7a 1e d2 bb ba 4a 3b 3c
       0.01352894 -0.06853754 -0.0064123245 0.01143139
000070 13 ae b5 3c 91 f9 1a bd 6c 26 4e 3c f3 d6 ff 3b
       0.022177732 -0.03783566 0.012582403 0.0078076064
000080 d7 ab 06 3c 42 48 79 bd 3e 4e 2a 3d 42 c5 95 bd
       0.008219681 -0.060859926 0.041578524 -0.073130146
000090 0d ab 7e bd 6c 8b 34 3c bb e7 b6 3d 05 79 9c 3d
       -0.062174845 0.011019569 0.08930918 0.0764027
0000a0 df f5 a3 bd af b7 90 3d 57 bd 5d 3c 25 6b 2d bd
       -0.080058806 0.07066285 0.013533912 -0.04233851
0000b0 68 16 eb bc 50 52 0c 3c e2 ec 95 bd 26 c1 e5 3c
       -0.028697208 0.008564547 -0.073205724 0.028046202
0000c0 d3 08 5f bb b1 ef 18 3d 08 ea e4 bc 34 ee e0 3b
       -0.003403236 0.037337963 -0.027943626 0.0068643335
0000d0 bc a8 45 bd d8 95 15 bc ac d0 98 bd 80 1b 34 bd
       -0.04825662 -0.009129964 -0.07461676 -0.04397154
0000e0 1d 22 71 3d e6 ea 32 bc 0f 0a 07 3b 4b 6c 1b 3d
       0.058870424 -0.010920262 0.002060536 0.037945073
0000f0 f2 50 57 3d fc 4d a4 bd bf 4d 42 bd f3 4c 93 3d
       0.05256743 -0.08022687 -0.047437426 0.07192411
000100 90 cd 94 3a 49 4f 96 3d 81 4f 46 bd 72 08 82 3d
       0.0011352766 0.07339341 -0.048415665 0.06349267
000110 05 ec 95 bb da 65 0f 3d dc a7 2b bc aa f8 33 bc
       -0.004575255 0.035009243 -0.0104770325 -0.010984579
000120 4e 67 8e 3d 34 0f e1 bc ad 51 28 3d 91 ba 97 bc
       0.069532976 -0.02747307 0.041093517 -0.018521579
000130 61 47 01 3c a2 cf 9a bd 7f dc 84 bd 66 1b a1 bd
       0.007890553 -0.07559134 -0.06487369 -0.07866554
000140 48 49 41 bd 97 28 7a 3d 54 e6 82 3c bd 7e b9 3d
       -0.047189027 0.061073866 0.01597897 0.090573765
000150 b3 8c 80 bd 89 dd 00 3d f2 8e c6 3d d7 dd 9e bd
       -0.06276836 0.031461272 0.096952334 -0.07757156
000160 8f 69 1e bc 59 6f 01 3c f8 2d 21 3d 97 2c 86 bd
       -0.009668722 0.0079000825 0.03935048 -0.065514736
000170 3b 54 c6 3c e0 48 5b bd 4b bd 62 bd 88 ca 88 bd
       0.024210086 -0.053536296 -0.055356305 -0.06679255
000180 66 2a b4 bd 7e 20 6e 3d 26 d9 c2 3d b8 d6 bc bc
       -0.08797149 0.058136456 0.09514074 -0.023051605
000190 07 cc 8b 3d 73 22 73 3d db d1 da bc 62 b9 6e bd
       0.068260245 0.059359025 -0.026711395 -0.058282264
0001a0 8d 77 a8 bd 80 63 4d bc 74 e6 88 3d 98 e7 8d 3d
       -0.082259275 -0.01253593 0.066845804 0.069289386
0001b0 47 0e 77 bd d3 b2 01 3d 7f 4d 14 bc 32 36 9c bd
       -0.06031635 0.03166468 -0.00905168 -0.076275244
0001c0 10 45 8c bd ed e0 4d bd f0 9b 0e 3d 00 d1 44 bd
       -0.0684911 -0.050263334 0.034816682 -0.04805088
0001d0 ea 27 8b bd e8 2e 27 bd 81 b9 7f 3c 91 8c 56 3d
       -0.067947224 -0.040816218 0.015608192 0.05238015
0001e0 fe b9 69 bb 91 52 a9 3d 16 82 2e 3d 82 ff fb 3b
       -0.0035663838 0.082677014 0.04260453 0.007690371
0001f0 62 89 68 3c 8b a9 56 bd 27 85 98 bd b2 37 46 3d
       0.014192911 -0.052407783 -0.07447272 0.04839296
000200 24 b0 f4 bc f9 f9 ed bc cc e3 09 3d 34 0f 91 bd
       -0.029869147 -0.02904986 0.03366451 -0.07082978
000210 29 fa 91 bd 1b 65 27 3d f4 42 9c 3d 94 44 3d 3d
       -0.071277924 0.040867906 0.07629958 0.04620798
000220 5f a6 40 3d 36 42 98 bd c9 6e 37 3d 3b 4b 53 bd
       0.047033664 -0.07434504 0.044783387 -0.051585417
000230 53 70 95 3d b4 e9 c9 bc 9f 43 b2 3d 45 74 07 bd
       0.07296815 -0.024647571 0.08704304 -0.033069868
000240 25 6f 29 bd 14 53 8c 3c c9 c1 a2 bd af 60 3d bd
       -0.04136576 0.017129458 -0.07947118 -0.046234783
000250 49 79 0c bc e3 b7 9d bd cc ad b4 3d d6 b1 df 3b
       -0.0085738385 -0.07701089 0.088222116 0.0068266196
000260 78 e4 d1 bc d8 e0 a3 bd ed b8 a6 3d 39 9f ab bc
       -0.025621638 -0.0800187 0.081407405 -0.020949947
000270 cf 1b 6e bd f7 b9 e0 bc 33 cb fa 3b 53 89 e4 bc
       -0.05813199 -0.027432425 0.0076536178 -0.027897513
000280 91 36 76 bd 5c 4c 7d bd 1f c2 30 3d 75 89 a6 bc
       -0.060110632 -0.0618404 0.04315388 -0.020329216
000290 fa 5c da b9 f9 23 49 3d 30 2b b8 3d 2b 80 c4 bc
       -0.00041649473 0.04910657 0.08992612 -0.023986896
0002a0 ce b0 09 3d af c5 a3 3d f9 b6 0b 3d f2 11 6c bd
       0.03361588 0.079966895 0.034110043 -0.0576343
0002b0 0e 55 0f bd 77 fc aa 3c 24 92 a0 bd 3f 99 fb 3c
       -0.034993224 0.020872338 -0.07840374 0.030712722
0002c0 80 09 27 3b f0 db 25 3d 3f 35 83 3c af b3 c2 3d
       0.002548784 0.040492952 0.0160166 0.09506928
0002d0 c8 2e 69 3d 7c 01 06 3d be 16 34 bd 3b be 52 bc
       0.05692938 0.03271626 -0.043967 -0.012862737
0002e0 b3 dd ea bb 07 e4 74 3d 38 40 67 3d 74 a9 85 3d
       -0.007167542 0.059787776 0.05645773 0.06526461
0002f0 19 e3 85 3d f1 45 86 bd 36 c1 99 bc 4b b6 01 bd
       0.06537456 -0.06556309 -0.018768888 -0.03166799
000300 cb 21 97 3c f3 a5 5b bd 0a a2 9a 3d b2 db cb ba
       0.01844873 -0.05362506 0.07550438 -0.0015553145
000310 86 a2 2a 3d d3 f1 80 3c 3f 4a 8d bd 2d 24 84 3d
       0.0416589 0.01574031 -0.06898927 0.064522125
000320 00 c5 40 3d 04 a4 4c 3d a3 55 23 bc 5b 94 91 3d
       0.047062874 0.049961105 -0.009969148 0.07108375
000330 c2 fd 8b bd 1f f1 3c 3d 5f d6 f2 bc 7a c0 7e bd
       -0.0683551 0.04612839 -0.029643236 -0.06219528
000340 1e 2a 74 3b 44 28 87 bd fd fa c1 3c f5 a7 14 bd
       0.003725655 -0.06599477 0.02367925 -0.03629299
000350 c4 b7 83 bc a6 af 3c bd cd 4e 39 3d 74 bd 7b 3c
       -0.016078837 -0.04606595 0.045241166 0.015364993
000360 6a ee 3a 3c b6 7a 93 bc e9 23 a8 bd 68 12 ad 3c
       0.011409381 -0.01800285 -0.08209974 0.02112694
000370 c8 a3 99 3d 13 60 ae 3d 10 14 4a 3c 97 2f 80 bd
       0.07501942 0.085144185 0.012333885 -0.06259077
000380 1c b9 65 bc bf 4e 45 3d ef 13 5e 3c d2 34 27 bd
       -0.014021184 0.0481708 0.013554557 -0.040821858
000390 ba cf 76 bd 31 73 59 3d 6f 79 05 bc 04 11 91 3d
       -0.060256697 0.05308837 -0.008146628 0.070833236
0003a0 2b 0e 1d 3d 54 02 ba 3d 53 cc a8 bd 5b 3d 16 bd
       0.03834359 0.09082475 -0.08242097 -0.036679607
0003b0 0b e9 a7 3d 0c f7 3c 3d 77 28 9f 3d 31 53 c6 bb
       0.08198746 0.04613404 0.0777139 -0.0060523977
0003c0 0a 5b 58 3d 2a 7b 93 3d 69 8d 94 bd e4 83 ae bd
       0.052821197 0.07201226 -0.07253534 -0.0852125
0003d0 89 bb ae 3d 03 8a 5b 3d 49 8f 93 3d c8 76 04 3d
       0.08531863 0.053598415 0.07205064 0.03233984
0003e0 7f 53 40 bd e3 2e e3 bc 6a b3 6e 3d 9c f4 59 bd
       -0.046954628 -0.027732318 0.05827657 -0.053211793
0003f0 e3 23 6e 3d 0b 95 96 3d 67 cc dd 3c 78 d0 47 bc
       0.058139693 0.073526464 0.027075006 -0.012195699

bias_hh_l0 f4 [512]
000000 45 3d ad bd 16 b2 97 bc db 18 97 bd ab 7f c0 3d
       -0.08458952 -0.018517535 -0.07377788 0.09399351
000010 5c 28 21 bd c5 74 b8 3d 87 c6 f6 3c 2e 44 57 bd
       -0.03934513 0.09006647 0.030123962 -0.052555256
000020 6b c4 92 bd 6a dd ad bc 1e bb 3b 3c 85 9d 66 3d
       -0.0716637 -0.021223743 0.011458186 0.056302566
000030 f7 b6 98 bd 07 75 a3 3d 17 4a b7 3d 05 d1 b2 bd
       -0.07456773 0.079813056 0.089496784 -0.087312736
000040 61 2a 92 bd 5d ac 91 bd 63 9b 92 bd 33 f3 5a bc
       -0.071369894 -0.07112954 -0.07158544 -0.013363647
000050 f3 da 22 3d e0 5e 49 bd d8 31 61 bd 6c b4 85 3d
       0.039759587 -0.049162745 -0.054979175 0.06528553
000060 57 4f 65 3d 5c f9 2c bd a4 ed 2c bd cc 19 a4 3d
       0.055983867 -0.042229995 -0.04221882 0.08012733
000070 4b bc d7 3c b5 14 1f 3c 94 9f a1 bc f3 fd d6 bc
       0.026334902 0.009709527 -0.019729413 -0.02624414
000080 c3 c4 a2 bc c3 ae ce bb e6 15 53 bd 5e 9b 91 3c
       -0.019869214 -0.0063074543 -0.051534556 0.01777428
000090 86 b1 42 3d f1 17 90 3d f6 a4 7f 3d f1 67 69 bc
       0.04753258 0.070358165 0.06241318 -0.014245973
0000a0 4f 23 80 bd c9 0c 3e bd fb 4b 39 bb e9 b9 bd 3d
       -0.062567346 -0.04639891 -0.0028274048 0.09263975
0000b0 9f 09 f6 3c e8 03 06 bd 53 d1 be 3c b0 f9 3d 3b
       0.030033885 -0.03271857 0.023293173 0.0028987937
0000c0 a8 8c 47 bd d0 c1 70 3c 59 a3 0c 3d 80 b5 61 3c
       -0.048718125 0.014694646 0.034335468 0.013776183
0000d0 e1 8a 00 bd 8a ab 7a 3a 17 ab 97 bd b2 62 70 bc
       -0.031382445 0.00095623045 -0.0740568 -0.014671968
0000e0 a7 2a 94 3d 35 3c 40 3c f8 b9 ba 3d 70 95 90 3d
       0.07234698 0.0117331045 0.09117502 0.07059753
0000f0 a6 87 6b bc 19 b4 00 bc 10 3c 40 bc 41 72 35 3d
       -0.014375603 -0.007855439 -0.01173307 0.044298414
000100 df 95 1b bd bc a5 29 3d 19 35 9b 3d 5d 64 97 3d
       -0.037984725 0.041417822 0.07578487 0.0739219
000110 2d 53 87 3d cf a8 3f 3d ca a8 98 3d ba ed 2e bd
       0.066076614 0.046791848 0.07454069 -0.042707182
000120 aa da cb 3d 18 58 9a bc 24 74 a4 bd c7 c0 ba 3d
       0.09953816 -0.018840834 -0.080299646 0.091188006
000130 f4 7d 9f bd 4c 97 29 bd 02 20 67 3d ec e0 05 bd
       -0.077876955 -0.041404054 0.05642701 -0.032685205
000140 d3 8a 8c 3d 2a 11 4e bc a6 86 b2 3d 78 d6 6f bd
       0.06862416 -0.012577334 0.087170884 -0.058554143
000150 d2 29 95 bd 10 38 8a 3d 1a ca 45 bd 10 7d 84 3d
       -0.07283367 0.06748974 -0.048288442 0.06469166
000160 d5 c7 86 bd 9c 2f 9b 3d 16 18 5a bd 1e 82 11 3d
       -0.06581084 0.0757744 -0.053245626 0.03552448
000170 fd 23 1a 3d b3 4b 78 3d 5a 06 bd 3c 45 37 07 bd
       0.037631977 0.060619067 0.023074318 -0.033011694
000180 f8 36 1f 3d 51 20 b3 3d 87 4b 97 39 ff 54 38 bd
       0.03887078 0.08746398 0.00028857237 -0.045002934
000190 d4 c5 80 3b a2 f8 56 bd e0 63 9f 3d 2d f4 08 3d
       0.003929833 -0.05248321 0.077827215 0.03343599
0001a0 77 a7 65 3d 4a f9 d7 3c 24 2f a4 3d 15 e6 28 3d
       0.05606791 0.026363987 0.08016804 0.04123505
0001b0 5d c5 14 3d 53 30 8a ba 1f 33 16 bd f5 5a 5a 3c
       0.036321033 -0.0010542966 -0.036669847 0.01332735
0001c0 05 70 1e 3d ff b4 b0 3a 72 b2 92 bd 78 d2 a0 b9
       0.03868105 0.0013481675 -0.07162942 -0.0003067439
0001d0 af 25 02 bd 85 9d 49 bd 2c 96 34 3d b1 66 26 bd
       -0.03177422 -0.049222488 0.044088528 -0.040625278
0001e0 59 60 0d bd d6 09 86 3d 19 3a 80 3d 6c 43 9b 3d
       -0.034515712 0.06544845 0.06261081 0.07581219
0001f0 53 aa 88 3d 2b d8 91 3d b7 b0 6f bd dc ce ac 3c
       0.06673112 0.07121309 -0.058518138 0.021094732
000200 d8 72 08 3d 3c cf 75 3d 64 95 76 3a 7d fe 7c 3d
       0.03331265 0.060012087 0.0009406416 0.061766136
000210 fd 48 a3 bd 5e 71 c4 3d 93 63 2b bd 6e c4 04 3d
       -0.07972906 0.095919356 -0.04184301 0.032413892
000220 66 25 6f 3d b7 54 37 bd e7 42 0b bd 83 33 5f 3d
       0.058385275 -0.044758525 -0.03399935 0.054492485
000230 7d a8 94 3d 47 06 44 bd df da 1f 3d fc 79 52 3d
       0.07258699 -0.04785755 0.03902709 0.051385865
000240 a9 1a 89 bd e8 32 a5 bd f5 bd 09 3d e7 57 9b 3d
       -0.06694538 -0.0806635 0.033628423 0.075851254
000250 06 06 25 3c 2e 2e 7a bd 46 be 8d 3d 25 c9 08 3d
       0.010072237 -0.061079197 0.069210574 0.03339495
000260 ca 11 3c 3d 2b b0 90 3d 57 f5 a6 3d cc ab 5d bd
       0.045915402 0.070648514 0.081522636 -0.054118916
000270 29 44 a3 3d 73 7f a5 3d af 0a b8 bc 52 bd 73 bd
       0.07971985 0.0808095 -0.022466032 -0.05950672
000280 e9 e4 96 3a a4 80 b2 3c e6 87 82 bd a4 8e 47 bc
       0.0011512312 0.021789856 -0.06373577 -0.012180004
000290 ca 2d 11 3d 61 d0 1f 3d f6 51 d2 3c 7b aa 1b bd
       0.03544406 0.039017085 0.025673848 -0.03800438
0002a0 67 c8 70 3d 7d 7d 8e 3d bb bc 60 bd 11 c1 4c 3b
       0.05878487 0.06957529 -0.054867487 0.0031243006
0002b0 7c 72 1d bc c4 ad 64 bc e4 20 90 3d a3 6f 82 bd
       -0.009609815 -0.013957445 0.070375234 -0.06368949
0002c0 d0 f3 a7 3d 12 a8 76 bb 16 0f 0c bd f6 57 0d bd
       0.082008004 -0.0037636799 -0.034194075 -0.034507714
0002d0 89 19 d5 bb 8f 84 28 3d d9 22 d1 3a c0 67 87 bd
       -0.006503288 0.041142043 0.001595582 -0.066115856
0002e0 64 9a 39 bd 3d 16 a4 3d 2c 1e 0b bd 32 cb 41 3d
       -0.045313254 0.08012054 -0.03396432 0.047312923
0002f0 81 80 d4 bc 6f 78 5a 3b c3 96 17 bd 8b 69 29 bd
       -0.025940182 0.0033335944 -0.037009012 -0.04136042
000300 d0 7a 88 bd 25 f5 20 3d b1 37 10 bc 8a 68 a0 bd
       -0.066640496 0.039296288 -0.00880234 -0.07832439
000310 fe d3 1b bd 0a 57 72 3d 9b a5 81 3b 94 f7 92 bd
       -0.03804397 0.05916504 0.0039565093 -0.07176128
000320 58 56 aa bc 8a a5 21 3d 2a 01 48 3d 52 12 32 3d
       -0.020793125 0.03946451 0.048829235 0.043474503
000330 4f 26 8f 3d b9 ad 7b 3b 06 88 8c bc 0d 14 87 3d
       0.06989729 0.0038403107 -0.017154705 0.06595621
000340 6b 7d d2 ba 4b 42 4a 3b 2f 9f 96 bd 26 6c 9e 3d
       -0.0016059106 0.0030862268 -0.073545806 0.077354714
000350 4f 75 fd 3c 0e 7d c2 3d 75 99 87 3d 96 1a 77 bd
       0.030939726 0.094965085 0.066210665 -0.06032809
000360 c8 0f c2 bc cb 0d 97 3d 46 5b 88 bc 9e 7c 19 bd
       -0.023689166 0.07375678 -0.016645085 -0.03747236
000370 18 58 03 bd 90 9f 6c bd 1d 69 d2 3c 86 af 88 3d
       -0.032066435 -0.05776936 0.025684888 0.066741034
000380 43 86 80 3b 08 66 00 bd e9 67 c1 3c 12 dd 92 3d
       0.0039222552 -0.031347305 0.023609119 0.07171072
000390 e8 1c a3 3d 67 4d 6d 3d 5f f8 80 3c 8d a3 eb 3c
       0.07964498 0.057935145 0.015743433 0.02876451
0003a0 f6 53 5a bd 0f 2d 97 bd cf 11 ce 3c 56 12 ad 3d
       -0.053302728 -0.07381641 0.025154976 0.08450763
0003b0 5f f0 b1 3d a5 9e a3 bc 90 fe 9b 3b d5 20 61 bd
       0.08688425 -0.019973109 0.004760571 -0.05496295
0003c0 54 47 19 3d 23 07 23 bd ab 2d d9 3c a6 9e a2 3d
       0.03742154 -0.039801728 0.026511034 0.07940416
0003d0 e3 9d 6f 3c 61 24 0d 3d 04 e6 be bc ac bb 97 bd
       0.0146250455 0.03445852 -0.02330304 -0.074088424
0003e0 02 f3 de bc 48 04 34 3d 53 06 12 3d 0b e3 44 3c
       -0.027215485 0.043949395 0.035650562 0.012017022
0003f0 ef ed 4b bd 31 1f 18 3d f8 fd 16 bd af 95 2c bd
       -0.049787458 0.03713912 -0.036863297 -0.042134937

weight_ih_l1 f4 [512, 128]
000000 aa d7 71 3c 5e a4 7d 3c 70 14 88 bd 14 3d 01 3c
       0.014760891 0.015481083 -0.06644523 0.007888097
000010 83 c7 87 bd ef 7d 6e 3d 47 14 96 3d 33 ec 0b bc
       -0.06629851 0.05822557 0.07328086 -0.008540201
000020 93 53 33 bd 8d cb f3 b9 bb 3a a7 bd 2a 4c 35 bd
       -0.043780874 -0.0004650023 -0.08165499 -0.04426209
000030 f6 6b a2 3c 75 d0 8b 3d e7 7d 47 bd 79 e5 40 bd
       0.01982687 0.068268694 -0.048704054 -0.047093842
000040 29 05 cc bc 03 ee 44 3d dc 35 06 bd 9a be c4 bc
       -0.024904804 0.04807855 -0.032766208 -0.024016667
000050 bf 81 2f bb 52 b3 44 3c 45 48 39 3c 36 a1 1e 3d
       -0.0026780216 0.012005644 0.011308734 0.03872796
000060 76 89 a8 bd a9 46 dc bc ef 80 71 3d 58 3d 24 bd
       -0.082293436 -0.026889162 0.05896085 -0.040097564
000070 64 c5 a6 3d 1a b3 3a 3d 73 12 b0 3c da 8b 62 bc
       0.08143118 0.04558096 0.021493172 -0.0138272885
000080 b5 10 9c 3c 5c f8 92 bd 32 6f 8c bd 33 df a6 bd
       0.019050935 -0.07176277 -0.06857146 -0.081480406
000090 bc 8c 97 3d c3 46 31 3d c3 81 89 3a 42 00 0d 3d
       0.0739989 0.043280374 0.0010490943 0.034424074
0000a0 bc e7 8e 3d 0f 6f ae bd 46 fc 69 3d f8 76 28 3d
       0.069777936 -0.085172765 0.057125352 0.041129082
0000b0 ab f9 43 3d fe 7f 46 3c d6 bb 81 3d 56 7b b5 bb
       0.047845524 0.012115477 0.06334655 -0.0055383844
0000c0 04 99 36 3c c6 1f 30 bd 0e 4c 87 3d 5f 88 46 3d
       0.01114488 -0.04299905 0.06606303 0.048469897
0000d0 11 fa 1a bc ba cc a0 bc 26 92 80 3d 49 83 60 bd
       -0.009459035 -0.019628871 0.062778756 -0.054812703
0000e0 a3 ab bf 3c 04 8c a0 bd be ea fa bc 02 84 e8 bc
       0.023397272 -0.07839206 -0.030629512 -0.028383259
0000f0 f6 20 82 3d 23 38 80 3c 56 19 01 3d 97 69 50 3d
       0.06353943 0.015651768 0.031518303 0.05088195
000100 69 76 d5 3a dd 8b af 3c 79 57 b1 3d c7 73 e3 3c
       0.0016285899 0.021428997 0.08659262 0.027765168
000110 e2 e1 e2 3c 98 51 a8 3c 14 f1 d3 bc c5 44 64 bd
       0.0276956 0.02054672 -0.025871791 -0.055729646
000120 3d 58 9a bd bb 4b d7 3c f3 f0 a9 3d 98 c0 28 3d
       -0.07536361 0.026281228 0.082979105 0.041199297
000130 3d 02 7c 3d ca 63 bb bd 33 6c 13 bd 7b fc 83 3c
       0.061525572 -0.09149893 -0.03599186 0.016111603
000140 26 82 c2 bd 75 d6 7d 3d c8 13 54 bd 28 4e b7 bd
       -0.0949748 0.0619721 -0.051776677 -0.08950454
000150 a8 54 9b 3d 62 35 6a 3d c0 c0 95 bd 50 97 5b 3d
       0.07584506 0.057179816 -0.07312155 0.0536111
000160 2f 0f 0e bd 20 12 9e bd cc 08 95 3d 01 05 c4 3c
       -0.03468245 -0.07718301 0.072770685 0.023928167
000170 0b 43 50 3d bd ae 5f 3c 64 15 23 bd ea 45 6a 3d
       0.050845187 0.013652501 -0.03981532 0.05719558
000180 ec aa 9a 3d 5c 97 76 3d 5d c2 4c bd f7 0a 3c 3c
       0.07552132 0.06020294 -0.049990047 0.011477224
000190 dc 6e 5c 3d 65 72 21 bc 46 f4 04 bd 57 c6 ce bd
       0.05381666 -0.009853934 -0.03245952 -0.10096424
0001a0 14 a5 2c 3d b3 92 5a 3c a7 2a 20 3d 50 3d a0 bd
       0.04214962 0.01334064 0.039103176 -0.078241944
0001b0 42 db aa bc 1c 7c a3 bd a3 a0 a6 bc 42 56 0c 3c
       -0.020856503 -0.07982656 -0.02034027 0.008565487
0001c0 f0 d9 b2 3d 26 ed be 3d f1 74 a7 3d 4c c0 b4 3d
       0.087329745 0.09322576 0.08176602 0.0882574
0001d0 8d 31 6c 3c c2 7a 3d ba fd 73 99 bd e3 c0 9f bd
       0.014416111 -0.000722807 -0.07492826 -0.07800462
0001e0 79 84 6c bd 94 9f 8f bc 39 4d 62 3d b2 f5 0d bd
       -0.057743523 -0.017532147 0.055249427 -0.03465814
0001f0 b7 b1 a3 3b 90 49 62 3c 49 ff 0c bd fd 9e 6a 3c
       0.0049955505 0.013811484 -0.034423146 0.014320132
000200 dd 71 94 bd 27 9b 28 bd ff e1 26 3c e3 a3 74 3c
       -0.0724828 -0.04116359 0.010185718 0.014931652
000210 bc 4e 9d 3d 9a 94 8b bd 0d ed 6a 3d 5f 84 28 3d
       0.07681033 -0.06815453 0.057354975 0.041141864
000220 de 79 90 bd d5 6c bc bc 69 b5 8c 3d 59 2a 91 bd
       -0.07054494 -0.023001114 0.06870539 -0.07088155
000230 04 0b c5 3b 91 48 8a 3c 61 7a 8b bd 1b 86 27 bd
       0.006013276 0.016880305 -0.06810451 -0.040899377
000240 72 a5 9f 3c 69 1e 99 3d 91 3f 87 bd b7 49 18 3d
       0.01948807 0.074765034 -0.06603921 0.037179675
000250 16 6c 1a bb 4d e1 13 3c 28 e4 c2 bd 4e f1 f0 ba
       -0.002356296 0.009025884 -0.095161736 -0.0018382461
000260 79 2f ed bc 08 cf 67 3c 3d 5e 2c 3c da 61 91 3c
       -0.0289533 0.014148481 0.010520515 0.017746855
000270 55 82 3d 3c cb 09 a5 bc b5 f3 0d bd 8f 54 d0 bb
       0.011566718 -0.020146271 -0.034656245 -0.0063577364
000280 05 a7 a0 3d 51 a0 13 3d 6f dc 7b 3d 45 ea c7 bd
       0.078443564 0.03604156 0.06148952 -0.0976148
000290 2c f6 52 3d 22 50 f7 bc 44 56 20 3d 93 db c4 3d
       0.0515043 -0.030189577 0.03914477 0.09612193
0002a0 d1 32 1e 3d cd 68 18 bd 97 b4 24 bd 2c dd b2 3c
       0.03862268 -0.03720932 -0.040211286 0.021833979
0002b0 89 72 7f 3d 10 74 87 3d 1d 8d 5d 3d 94 b5 95 3d
       0.06236509 0.06613934 0.054089654 0.07310024
0002c0 07 85 70 bd 01 85 15 bd 91 97 02 bd 9d 65 76 3d
       -0.058720615 -0.036503796 -0.031882826 0.0601555
0002d0 5e 54 e5 3c a0 d8 5a bd fa e1 8a 3d 9e 7e 9f 3c
       0.027994331 -0.053429246 0.06781383 0.019469555
0002e0 6c 1b eb bc 7b 94 e9 bc ae 8c 84 bd 88 dd 32 bd
       -0.0286996 -0.028513184 -0.06472145 -0.0436683
0002f0 ed c9 7f 3d 07 7f 5e bd 27 0d 78 bd ab e8 af bd
       0.06244843 -0.05432036 -0.060559418 -0.085893
000300 c5 12 88 bd c4 91 28 bd 02 8a 95 bd f6 62 47 3d
       -0.06644205 -0.041154638 -0.073017135 0.04867836
000310 94 88 a3 bd 05 79 6c 3d f4 9f 2c 3d 5f 9f 96 bd
       -0.079850346 0.0577326 0.04214473 -0.073546164
000320 1a ed d9 bc 8c de 57 39 58 f6 4a 3d 7b 41 34 bc
       -0.026602317 0.00020586903 0.049551338 -0.01100194
000330 79 d2 3c 3d 4d a4 b2 bd 89 15 99 3d 53 44 68 3d
       0.04609916 -0.08722744 0.07474811 0.056705784
000340 3b 7b 42 3d 0b 50 9e 3c 90 c0 c3 3c 9f 32 b7 bd
       0.047480803 0.019325277 0.023895532 -0.08945202
000350 07 9c b3 bd 69 c5 ed 3c a5 3c 31 3d 3e 47 37 bd
       -0.08769994 0.029024797 0.043270726 -0.044745676
000360 9c 53 a3 3d 80 e2 01 bd 5e 58 ce 3c 24 13 f5 3c
       0.079749316 -0.031710148 0.025188621 0.029916354
000370 76 2d 0e 3d cc 74 b2 3b cf f3 b7 3d 79 86 b6 bc
       0.034711324 0.005446052 0.0898205 -0.022280918
000380 38 e4 d3 3c 47 e5 9d 3d 39 ab aa bc d6 28 63 3d
       0.02586566 0.07709747 -0.020833598 0.055458866
000390 ac 52 45 3d 50 34 49 bd d8 13 59 3d a3 7c 6b 3d
       0.048174545 -0.049122155 0.05299744 0.05749191
0003a0 d3 27 57 3d e7 34 bd 3d 92 f7 37 bd ad 70 df bc
       0.052528214 0.09238606 -0.044913836 -0.027275408
0003b0 96 d7 86 3d 46 7b f6 3c 0f 51 b9 3d de ee cc 3c
       0.065840885 0.030088078 0.09048664 0.025016245
0003c0 5b 42 91 bc 85 0f b3 3d 1a 5e 3a 3d 65 42 9b 3d
       -0.017731836 0.087431945 0.0454999 0.07581023
0003d0 65 e9 8c 3d de f7 08 bd 48 ef a3 bd 85 e0 a0 3d
       0.06880454 -0.03343951 -0.08004624 0.07855324
0003e0 1d 12 4f bd bc 0f 80 bc d9 36 a5 bc 9d e3 17 bd
       -0.050554384 -0.015632503 -0.020167755 -0.037082303
0003f0 94 58 dc 3c 0c c3 87 3d c0 22 8f 3c 37 3c 52 bd
       0.026897706 0.06628999 0.017472625 -0.051326957

weight_hh_l1 f4 [512, 128]
000000 4c 55 90 3c 9b 8a d3 3c a0 3d 90 bd e8 62 2b bd
       0.017618798 0.025822928 -0.07043004 -0.04184237
000010 95 47 21 bd 47 2e 2b 3d f7 8f 5b bd df 50 8f 3d
       -0.039374907 0.04179218 -0.053604092 0.06997847
000020 ca d3 e9 3b fe f8 9b bc 8f 0d d9 3a 72 86 dc bc
       0.007135843 -0.019039627 0.0016559827 -0.026919577
000030 09 8c d4 bc 90 90 6d 3c 82 1f 86 3d b8 c8 62 bd
       -0.02594568 0.014499798 0.065489784 -0.0553672
000040 e6 09 92 3d 9c bb 1f bc 41 d3 64 3c 0c de 5b bd
       0.07130794 -0.009749319 0.0139663825 -0.053678557
000050 a5 71 ae ba e1 0b 84 bc 5c be e7 3c d4 08 44 3d
       -0.0013309015 -0.016118946 0.028289013 0.04785998
000060 36 02 e8 3c 52 51 27 3d 53 11 a7 3c f5 b7 c9 bc
       0.028321367 0.040849037 0.020394003 -0.02462385
000070 a1 89 26 3d ad ae 9f bd b1 59 62 3d 6a 35 40 3d
       0.040658597 -0.07796989 0.055261318 0.04692594
000080 10 19 a1 bd 1e 0c 86 ba d5 6b 73 bb aa 6e 50 3d
       -0.078661084 -0.0010227 -0.003714313 0.050886787
000090 c4 b8 9e 3c 15 52 8a bd 03 a9 9a 3c 2e 6c b1 3d
       0.019375212 -0.06753937 0.01887942 0.08663212
0000a0 fd d2 47 bc cc b2 b1 3d 9f e6 a1 bd 72 53 08 3d
       -0.0121963 0.08676681 -0.079053156 0.033282705
0000b0 4b 49 27 bd 06 02 c6 3c f1 8e 20 3d be a0 b1 bc
       -0.040841382 0.024170887 0.03919882 -0.021683093
0000c0 3a 46 13 3a 54 d6 94 bc b8 a9 8c bd b7 3d c7 bc
       0.00056180696 -0.018168606 -0.06868309 -0.02432142
0000d0 70 75 8a bc 12 4a 31 bc 8f f4 ae bc f7 a2 8e bd
       -0.016901702 -0.010820882 -0.021356849 -0.06964677
0000e0 e7 59 cc 3c e7 b5 1d 3c 4e d5 6b 3c 2a 25 29 3c
       0.024945213 0.009625888 0.0143941175 0.010323802
0000f0 73 75 45 3d eb 78 d3 3c 89 56 cd 3c 30 b9 2d 3d
       0.04820771 0.025814494 0.025065677 0.042412937
000100 9e 82 8a bd 92 7c 4c bd 7d 0d 94 bd 6d 75 fb 3c
       -0.067631945 -0.049923487 -0.07229135 0.030695641
000110 55 01 81 bd 1c da d3 bc 74 72 89 bd bb 31 39 3c
       -0.06299082 -0.025860839 -0.06711283 0.011303361
000120 8d f6 b0 3d 56 d9 92 bd cb e5 d9 3c 70 88 2d bd
       0.08640776 -0.0717036 0.026598832 -0.042366445
000130 53 35 8b bd 2b 3a 52 bd 99 1a 6b bd 9e 57 ae bd
       -0.0679728 -0.051325005 -0.057398412 -0.085128054
000140 7f 27 73 3d 78 33 56 3d 1d 4e 38 3b 18 2e 5b 3b
       0.05936384 0.05229518 0.002812273 0.0033444222
000150 87 e0 6f 3d 81 11 d4 3c ef 08 b1 3d a5 18 12 3b
       0.058563735 0.025887253 0.08644282 0.0022292521
000160 02 e7 bf bc d9 8e 03 bd 46 2a d3 bc 62 2b bd 3c
       -0.023425583 -0.032118652 -0.025776993 0.023091976
000170 da 61 46 3d 34 69 2c bd 39 e3 01 3d f8 fd 19 3c
       0.048433162 -0.042092517 0.031710837 0.00939893
000180 43 b0 7b bd c1 fd dd bb 2d 5e e6 bc ee a2 54 3c
       -0.061447393 -0.0067746346 -0.028121078 0.012978299
000190 35 8e 7c bd 15 55 72 3a 51 86 82 3d 4b 7e b4 bd
       -0.061659057 0.00092442456 0.06373275 -0.08813151
0001a0 85 25 4c 3d 60 8c 9e 3c ce cd a3 3d 12 5b 85 3d
       0.04984047 0.019354045 0.079982385 0.06511511
0001b0 69 9a b4 bc c5 3e 99 bd ed 3e 63 3d 97 2d 2e bc
       -0.022046285 -0.074826755 0.055479933 -0.010630987
0001c0 c2 09 ae 39 3c 8b a1 3d 03 b2 d9 3c 1f 1c ec 3c
       0.00033195136 0.07887885 0.02657414 0.028822003
0001d0 a5 1a 22 3d 1b 3d aa bb da 1e 84 bd e6 02 30 bd
       0.03957619 -0.0051952726 -0.06451197 -0.042971514
0001e0 32 07 75 3d 4d fa 23 bd 81 b0 cb 3c c1 d7 d3 3c
       0.059821315 -0.040033627 0.024864437 0.025859715
0001f0 b0 66 7a 3d 6d c4 ac 3c 97 24 48 bd 14 93 66 3d
       0.061133087 0.021089757 -0.04886302 0.05629261
000200 ce e0 86 3d 1d 7e 63 bc 4f fc 31 3d 4d c5 e1 3c
       0.06585847 -0.013885048 0.04345351 0.0275599
000210 ab 7c 86 3d cc c5 94 3c 56 48 07 bc 26 ed bb 3d
       0.06566747 0.018160723 -0.008256992 0.09176092
000220 a2 7c 2b 3b 7e 4b 16 36 14 17 ab 3c e2 38 31 3c
       0.0026166816 2.2395684e-06 0.020885028 0.010816785
000230 57 4e b4 3d d6 9c b8 bb 83 8a 53 3c d1 7c d3 3c
       0.08804005 -0.0056339307 0.012911442 0.025816353
000240 8a e8 54 3c 1d 6d 44 3c d5 00 a6 3a 22 92 86 bd
       0.012994895 0.011988905 0.0012665043 -0.06570841
000250 83 11 21 3d 5c 93 d2 3b 6d 46 a5 3d 1b c6 d8 3c
       0.03932334 0.006426258 0.08070073 0.026461652
000260 ac 1f 95 3d 4e 50 a2 bd 11 0d 8a 3c 45 78 76 bd
       0.072814316 -0.07925473 0.016851934 -0.06017329
000270 c3 f3 06 bc 74 53 d6 3c 57 0a 87 bd 13 3c c3 3b
       -0.008236828 0.02616284 -0.06593769 0.005958089
000280 98 09 53 bd 25 cb 90 3c f5 60 99 3d c3 2d a7 3d
       -0.05152282 0.017674992 0.07489196 0.08163025
000290 8d b6 5c bd 95 45 4b bd f0 25 0a 3d 4e 68 a8 bd
       -0.05388503 -0.049626905 0.033727586 -0.082230195
0002a0 01 d7 b4 bd 84 1c b0 bc ad ca 47 bd 34 07 44 bd
       -0.08830071 -0.021497972 -0.04877727 -0.047858432
0002b0 35 6d d0 3b 7a 41 bd 3c 5c 29 83 3c 81 ec 2d bd
       0.0063606747 0.02310251 0.016010933 -0.042461876
0002c0 51 60 84 3d 07 45 81 3d 36 59 eb bb 5f a2 85 bd
       0.064636834 0.06311994 -0.0071822656 -0.065251105
0002d0 ab db 36 bb e6 66 cc 3c 73 38 d0 3c dd e2 eb 3c
       -0.0027901928 0.02495141 0.025417542 0.0287947
0002e0 92 57 8e 3d 92 43 a5 bd e3 67 51 bd 8e ad a4 bc
       0.069502965 -0.08069529 -0.051124465 -0.020102289
0002f0 54 ce 02 bd d5 d4 f2 3c ef 8c 9b bc 7d 53 89 bd
       -0.03193505 0.029642502 -0.0189881 -0.06705377
000300 44 7e 3c 3d 31 43 a2 bd 23 a0 40 3d 46 ca a0 3d
       0.046018854 -0.07922972 0.04702772 0.078510806
000310 57 be 55 3d 71 aa c5 3c ef 2b 15 bd 7d 2e 7e bd
       0.052183475 0.024129124 -0.03641885 -0.062056053
000320 55 cc 16 bd 9f 1f 95 3d 7e c3 91 3d 86 10 89 3d
       -0.03681596 0.07281422 0.07117365 0.06692605
000330 4a e0 e2 3b 5a 57 90 bc 90 e9 0f bd fa 12 a0 3d
       0.00692371 -0.017619777 -0.035134852 0.078161195
000340 36 a5 63 bc 52 a8 b6 bd 0d f7 b7 3d b7 ca 1d 3d
       -0.01389437 -0.08918823 0.08982668 0.038523402
000350 07 28 59 3d 47 3c 09 bd d8 26 de 3c f6 f0 e0 bc
       0.05301669 -0.03350475 0.027118132 -0.02745865
000360 39 3b a7 bc 07 d8 1f 3d 70 d9 9e 3d bb b0 16 bc
       -0.020413982 0.03902438 0.07756317 -0.009197409
000370 cc f4 ad bd f9 2f 6c bc eb e2 86 bc 91 46 5d 3d
       -0.08493957 -0.014415734 -0.016465625 0.054022375
000380 79 50 d1 3c a9 78 f1 3b b9 1e 83 bc ce 83 13 bd
       0.025551068 0.00736912 -0.01600586 -0.03601437
000390 12 ea 29 3d d6 45 3e 3c f7 79 28 bd 97 46 b1 bc
       0.041482992 0.01161333 -0.04113194 -0.021640105
0003a0 d8 db 0d 3d 02 eb 18 3d 37 ee 70 3d f1 3e f3 3b
       0.034633487 0.037333496 0.05882093 0.0074232747
0003b0 fc 57 1f 3d 37 0d 58 bd e3 fb be 3c 13 0e 9f bc
       0.038902268 -0.052746978 0.023313468 -0.01941589
0003c0 ab ba 55 bd 69 80 df bc 58 04 a1 3d 0a 3c aa bc
       -0.052179974 -0.02728291 0.07862157 -0.020780582
0003d0 9a 46 e7 3c b4 39 9f bc 4b af c1 bd 22 56 42 bd
       0.028231908 -0.019436695 -0.094572626 -0.047445424
0003e0 57 76 a3 3c 2b 78 2d 3a 33 fc 16 3d ea c0 dc 3c
       0.01995389 0.00066173327 0.03686161 0.026947457
0003f0 d8 c8 65 3d b8 2c 33 3c f5 4b b3 3d d3 bf 9e bd
       0.056099743 0.010935955 0.08754722 -0.07751431

bias_ih_l1 f4 [512]
000000 99 3a 64 bc 1f 8f 8b bc 14 6e 57 bd 99 e2 4c 3d
       -0.013929986 -0.017036019 -0.052595213 0.050020788
000010 e4 f1 30 3d e7 36 f5 3c 31 a9 19 bd 4c b3 85 3a
       0.043199435 0.029933406 -0.03751487 0.0010200529
000020 3f 06 81 3d bc bb bd 3c e2 80 40 bc 89 a3 9c 3d
       0.063000195 0.023160808 -0.011749478 0.07648379
000030 05 f7 79 3d 15 b5 0e bd bd c4 84 3d a8 6e 8d 3b
       0.06102659 -0.034840662 0.06482837 0.00431617
000040 84 a7 68 bd 88 b1 6a bd e4 db 4e 3d ea 5d 81 3d
       -0.05680038 -0.057298213 0.050502673 0.06316741
000050 77 c2 11 3d 29 a7 97 3c 58 ee d5 bc 2d 8e 70 bd
       0.035585847 0.018512325 -0.026114628 -0.05872934
000060 7a 94 bf 3d 9e 7e 2c bd e3 b7 0b 3d 5d 3d 25 bd
       0.093544915 -0.04211294 0.034110915 -0.040341724
000070 7f 0d 81 3c 93 14 7d 3c 78 6f c8 3c 5d f8 bb 3d
       0.015753506 0.0154468 0.024467215 0.09178231
000080 70 3e a5 3d 2f de 7d bd 49 c5 27 3d 1c 3d a9 3d
       0.0806855 -0.06197947 0.04095963 0.08263609
000090 f0 8c 08 3d fb 03 83 bc 17 95 7f 3c 36 a6 66 3c
       0.033337533 -0.015993109 0.015599511 0.014077714
0000a0 4b 47 e5 bb 3a 00 06 bd b0 ff 6e bd 02 40 8c 3c
       -0.006997024 -0.03271506 -0.05834931 0.017120365
0000b0 24 f0 9f bd be 0b 36 bd ab 1d df bc 73 27 aa 3d
       -0.07809475 -0.044444792 -0.027235826 0.083083056
0000c0 0f c8 48 bd b1 f4 9f 3d 59 35 13 bd 99 18 6d bd
       -0.049018916 0.07810343 -0.03593955 -0.057884786
0000d0 0a 45 83 bc 4c 73 9e bc bf 22 ad 3d 17 80 91 bc
       -0.016024131 -0.019342087 0.08453893 -0.017761273
0000e0 fc 1c 21 3d 55 f3 2d 3c 40 79 4a 3d f1 5c 01 3d
       0.039334282 0.010617097 0.04943204 0.031582776
0000f0 02 ee 3d bd f7 7f dc 3c 56 8a ad 3d 64 00 91 3c
       -0.04636956 0.026916487 0.08473651 0.017700382
000100 f1 fa 97 3c 80 8d 9a bb 24 38 6c bd d9 9e e5 3c
       0.018552275 -0.004716575 -0.057670727 0.028029846
000110 05 ea e5 3b 9a 93 a7 3c 3a e3 10 3b 26 fc 05 3b
       0.0070164227 0.020456124 0.0022108094 0.0020444482
000120 6f ed ab 3c 56 35 88 bd 4e 72 00 bc 3c 19 98 bc
       0.02098724 -0.06650798 -0.007839752 -0.01856672
000130 29 22 82 bc e7 38 61 3d e5 21 5d bd d9 7a f8 3c
       -0.01588543 0.054985907 -0.053987402 0.030332016
000140 ed eb c5 3d ba 6d 2c bd c2 d5 cf 3a c3 0c 1c 3c
       0.0966414 -0.04209683 0.0015856551 0.009524527
000150 ea 95 17 3d 3b 5b b5 3d 85 87 58 bd b5 ab 5f bc
       0.037008204 0.088552915 -0.052863616 -0.013651778
000160 91 27 58 3d 4a fd 7e bd 0e f9 a1 3b b5 92 28 3c
       0.05277211 -0.062253274 0.0049430197 0.010288884
000170 ea 3b e8 bc cb 7a 09 bd 5f d7 46 3d 21 00 98 3d
       -0.028348882 -0.03356437 0.048545238 0.074218996
000180 82 09 19 3c 86 fc 2f bd 1d af 80 bc 54 ba 5a 3d
       0.009340646 -0.042965434 -0.0157085 0.053400353
000190 b3 38 5a bd 84 c9 9c bc 4d 90 68 bd 9f ae 2a bd
       -0.05327673 -0.019139059 -0.05677824 -0.041670438
0001a0 a1 2a c4 ba 46 6b bd 3d 52 66 ee 3c bc ef 78 bd
       -0.0014966318 0.092489764 0.029101525 -0.060775504
0001b0 87 d2 0e bb 6d 0a bc 3d 0e ad 51 bd 69 0a 77 bd
       -0.0021792965 0.09181676 -0.05119043 -0.060312662
0001c0 11 da d9 ba 43 84 de 3c d3 a4 99 bd 8b 44 26 bd
       -0.0016620775 0.027162677 -0.07502141 -0.04059271
0001d0 5e 66 ae 3d 69 ec 87 bd 68 f5 ba b8 b0 a2 93 bc
       0.08515619 -0.066368885 -8.9148816e-05 -0.018021911
0001e0 ea d3 20 3d 29 fa 20 bd cb 61 91 3d 28 7e af 3a
       0.039264597 -0.03930107 0.07098731 0.0013389038
0001f0 f0 21 42 3d 06 9a 6e 3c 46 f5 ab 3d 75 de c5 bc
       0.047395647 0.014563089 0.083963916 -0.024153927
000200 84 5d a5 3d 02 87 c3 3d c7 8d 0c 3d be 7d 91 3d
       0.08074477 0.09547235 0.034314897 0.071040615
000210 57 2e 99 bd 11 57 85 3c 8d 4d f8 3c 40 73 8c bd
       -0.07479542 0.016276868 0.030310417 -0.0685792
000220 25 a4 9d 3a a9 93 98 3d 6f 86 41 bc fd a6 02 bd
       0.0012027068 0.07450039 -0.011811837 -0.031897534
000230 3e 90 24 bd ac 56 0c bd 60 34 ac bd 5b d5 27 3c
       -0.040176623 -0.034262344 -0.08408427 0.010243739
000240 e0 a3 65 bd 4a 1c a4 3d b7 84 70 3d b1 fd 22 bd
       -0.056064487 0.08013208 0.058720317 -0.03979272
000250 73 9d d5 bb 60 dd c2 3d fa 5a 8e 3d e9 00 26 3d
       -0.0065190136 0.0951488 0.06950946 0.04052821
000260 42 33 a0 bd f5 a0 1c 3d d3 92 97 3d f0 99 61 bd
       -0.07822277 0.038239438 0.07401051 -0.055078447
000270 8d 4d 6a bd d3 e0 17 bd ce 15 6c bd 5a 13 a5 bc
       -0.057202864 -0.037079643 -0.057637982 -0.02015083
000280 8f b5 24 bb 98 1d 68 bd df d6 31 bc 1e 61 49 bd
       -0.0025132631 -0.056668848 -0.010854452 -0.049164884
000290 66 6a 84 3b 49 3a a5 bd ed 90 f8 3c 1e e0 bc bc
       0.004041004 -0.08067758 0.030342543 -0.023056086
0002a0 a9 5b 8e 3d 95 8d f7 3c e7 73 a4 bc 9a 90 8e 3d
       0.069510765 0.030218879 -0.020074798 0.06961174
0002b0 36 85 5b 3d 2a 3a ab 3d 81 04 ad bd 73 d4 b6 3d
       0.053593837 0.08360703 -0.08448125 0.0892724
0002c0 b4 15 fd 3c b2 74 f9 bc 65 59 96 bc 21 15 7f 3d
       0.030894138 -0.030451152 -0.018353174 0.06227601
0002d0 12 5e a1 3d 28 e8 2f bd cf 37 94 3d 48 70 8b 3d
       0.078792706 -0.04294601 0.07237207 0.06808525
0002e0 28 15 87 3d 54 6d 41 bd 86 06 ef 3c 23 39 df bc
       0.06595832 -0.047223404 0.029177915 -0.027248925
0002f0 d2 8a 9b 3d cb 5b 4e bd cf c0 3c 3d f6 e4 ad 3c
       0.07594837 -0.05038051 0.046082314 0.021227341
000300 d8 b5 95 3d 1d e2 b2 bc 84 30 96 3d 61 42 8b bd
       0.073100746 -0.021836335 0.07333472 -0.0679977
000310 97 6e c8 3c 35 2e b6 bc 68 88 4f bd 08 d9 2b bd
       0.024466796 -0.02223883 -0.050667197 -0.041955024
000320 d0 cc 8d 3d b9 6e 71 bb 2c 34 36 bd f5 bc d2 3b
       0.069238305 -0.0036839677 -0.04448335 0.006431217
000330 6b a3 3d bd e4 d4 3e 3d 8c fb 7d 3d e7 8a 02 bd
       -0.046298426 0.046589747 0.062007472 -0.03187075
000340 16 64 5a ba 5a 45 1a bd 5d 6e 14 3d 0b 5b 90 3d
       -0.0008330954 -0.037663795 0.036238063 0.07048615
000350 c9 f2 80 3d ea ce 82 bc 1d 8f 31 3d 7c 74 8b 3d
       0.062963076 -0.015967805 0.043349374 0.06809327
000360 d8 10 d6 bc b9 26 99 bd 7a 73 db 3c 60 54 81 bd
       -0.026131079 -0.07478089 0.026788462 -0.063149214
000370 b9 58 b0 3c 81 1e 10 bc 34 ff a3 3d 69 0b 3b 3d
       0.021526681 -0.008796335 0.080076605 0.04566518
000380 8e 22 3c bd b6 60 9b bd db 28 1d bd 16 71 c7 3c
       -0.04593139 -0.075868055 -0.03836904 0.024345916
000390 a2 28 3a bd dd f4 90 3d 29 ea de bc eb 11 44 3c
       -0.045448907 0.07077954 -0.027211266 0.011967163
0003a0 ab 47 05 bd 6c 99 56 3b 0c c4 06 bd ad 94 a5 bd
       -0.03253905 0.0032745255 -0.03290181 -0.08084998
0003b0 ae 2b c8 bc cc af 3c 3d 89 9f 2a 3d 8c 23 94 3d
       -0.02443489 0.04606609 0.04165605 0.072333425
0003c0 80 d6 54 3d f9 b6 99 3c 25 48 14 bd 00 d8 21 3d
       0.051962376 0.018764006 -0.036201615 0.039512634
0003d0 4c ae 70 3d 54 16 4b 3d 3d fe 9b 3d 92 ab 84 3d
       0.058759972 0.04958184 0.076168515 0.06478037
0003e0 3c 5a 89 3d e6 ad ca 3c 25 a4 11 3d cb 73 9a bc
       0.06706664 0.024741124 0.03555693 -0.018854043
0003f0 a9 49 c9 3c 6a c7 ec 3a c7 1d 80 bb cf 57 69 bd
       0.024571257 0.0018064801 -0.0039097997 -0.056968506
