stockforecasting/300446_model.pkl (torch, 858688 bytes, 14 tensors)

weight_ih_l0 f4 [512, 4]
00000000: 85f9 35bd c789 b43d a918 96bd dcc8 c4bb
00000010: 95fc b93d 28b5 6e3d 9d44 9fbc 628d 913d
00000020: 5219 aabc b9c2 993d ecdb 8fbc fd9f 6dbb
00000030: 4a6a 9b3d 85a6 2ebb 0dee 533d 6cc9 39bd
00000040: a99a 69bd 9b52 7c3d 2605 733c 08b1 883d
00000050: ca2e bf3d cd06 38bd 7f7a ca3d c7d0 173b
00000060: 8c9a 61bc b5fc 89bc 8556 c73b 7738 1dbd
00000070: be8f 8c3b 90fd 87bd afc8 09bc 877b 1bbd
00000080: b2e8 62bb 4909 96bd 8864 5abd 851f 5f3c
00000090: 0fd0 983d 1f73 20bd d87e 043d 4a64 3fbd
000000a0: 8594 82bd 8ce9 90bd 9ca3 91b8 0fad a1bc
000000b0: 4b70 61bd 7e72 163d 1800 113d 962a 2c3d
000000c0: e63b 9ebd 3ed6 8ebc f3a4 18bd 23ea 813d
000000d0: 49ad 803d e0ba 203d 7ea9 8abd dc45 873d
000000e0: 9bf0 03bd 3ec4 72bd d510 bbbd 6e4f b5bd
000000f0: e752 6abc 6e1f 993d 20a9 373c ebce 18bb
00000100: 7719 e63c 946a 223d 7e3b 97bc c5eb 3b3d
00000110: e9ce 60bd 80e9 9cbd 2dfb 1d3d 30e8 343c
00000120: 5417 6cbd a022 a63d 881f 6f3b b0fb a83d
00000130: 44b2 873d ec51 f43c 5663 c13c 3903 473d
00000140: 9184 a2bc 5c24 85bd 1b67 0fbd b730 43bb
00000150: 44de af3b 833b f2bb 88c0 863d 74a5 c53a
00000160: 8289 de3d 42c9 ed3c b4aa 12ba d756 a03c
00000170: b319 b5bd c942 66bd f952 4c3d dd32 27bd
00000180: 7c4f 29bd d121 f8bb 6edd 81bd 83ab 32bd
00000190: f7c1 f4bc f183 68bd fa29 9ebd 84a6 0b3c
000001a0: a003 6e3d 4d4b a3bd c23a 0b3c 8597 3d3b
000001b0: 0bf6 653d a6bc fabc 0d55 7c3d e36a 54bd
000001c0: 94ff f13c 2daa 5abb bed5 fc3c f383 ff3b
000001d0: ebe3 343d 60cc a03d 0cc2 5e3c bfe9 14bd
000001e0: 1339 973d 75eb 38bd 799c 9bbd 3fa6 b2bc
000001f0: 695a a3bc 688a aebc db1c 09bd 4656 a53c
00000200: 596b 55bd 666a bb3c b909 183d fb7f 27b8
00000210: 72fe 81bd 153c ffbc 544b cf3c dfd3 33bd
00000220: 21b6 05bd 8416 19bd 00c8 2bbd dd96 07bd
00000230: 15f6 74bd 9efd 8bbc 6020 bd3d 01e1 3fbd
00000240: b262 8a3c f5dd 39bd d264 c83c 4c20 78bd
00000250: 23b8 573d 8d69 7bbd 7548 d53b 66a3 40bc
00000260: c671 62bd 5377 a13c a2ed ca3d a29c 1a3c
00000270: 3f37 413d 711a 133b c94a 7bbd 4019 61bd
00000280: dd9c b73d 45f0 903c 219a 2ebd 27e7 ba3d
00000290: 39f8 51bc 522d 3a3d 87c2 91bd 6573 d13c
000002a0: 111e c5bb b3d1 873d 1f30 1abb 2585 cebc
000002b0: 1113 d4bc 1bdc 94bd eb58 823d 5318 23bd
000002c0: fe85 92bd 76d1 383d 18b1 103d a722 e9bc
000002d0: db25 aabc 0f5f 313d 0c5b 0e3d 6394 dbb9
000002e0: 8610 a73d 56dc 12bc 6773 80bd f39e b93d
000002f0: e07a 5e3c 7b35 30bd 553c 9a3d 0cef 4f3d
00000300: 7d38 4ebc 6d5b f23c 4c0b 5a3c 6bdd 4c3d
00000310: f9c8 413d aaad b1bc b4fd bbbc f7e4 64bd
00000320: 5331 f93c 7d85 003d 8f55 8fbd 1eaf 10bb
00000330: 3041 903d 09c9 413d 4988 9e3d b80e 6d3d
00000340: d92a 8d3d b58c dd3c dcd9 8cbd 5238 60bd
00000350: 7715 c73d e0a4 0e39 e65c f73c b1c5 b73d
00000360: c9ea c63d 5422 b13d cfae c83d 30c0 96bc
00000370: 401c 283d e7d7 9f3d 8bfc 293d 700c e0bc
00000380: 689b 98bd 8f6c f2bc eb6f 91bd 83a6 88bd
00000390: d4f9 c13d 9c65 10bd f902 b63d bd74 cebc
000003a0: efd4 0abd c82c 353d a992 f33b 92be 9a3d
000003b0: ff96 413d 7c23 b8bb af56 bdbb be42 da3c
000003c0: 0609 383d 4418 eabc b727 afbc b0ed 0d3d
000003d0: 71d6 c8bb 7d0b 07bd 54ad 1bbd dd4f 8bbd
000003e0: 9a97 91bd 7356 053d 7661 73bd f8b0 1fbd
000003f0: 7e76 6fbd 3539 b13d fc94 1bbd c518 893a
-0.044427413 0.088153414 -0.07328922 -0.0060053896 0.09081379 0.058278233 -0.019441897 0.07107045
-0.020764027 0.075078435 -0.017560922 -0.003625869 0.075886324 -0.0026649546 0.051740695 -0.045358106
-0.05703226 0.061602216 0.01483277 0.06674391 0.09335096 -0.04492836 0.098866455 0.0023165212
-0.013769757 -0.016844133 0.006083312 -0.038383927 0.0042895963 -0.0664016 -0.008409663 -0.0379596
-0.003462356 -0.0732599 -0.05331853 0.013618355 0.07461559 -0.039172288 0.03234753 -0.046726502
-0.06375984 -0.070757955 -6.9446134e-05 -0.019735841 -0.05503873 0.036730282 0.03540048 0.0420328
-0.077262685 -0.017436143 -0.037266683 0.06343486 0.062830515 0.039240718 -0.06770609 0.066051215
-0.03221188 -0.059269182 -0.0913407 -0.08853041 -0.014301992 0.07476698 0.011209756 -0.0023316692
0.028088314 0.039652422 -0.018460985 0.045879144 -0.054884825 -0.07661724 0.038569618 0.011041686
-0.057639435 0.08112073 0.00364873 0.082511306 0.06625798 0.02982422 0.023606937 0.048587058
-0.019838603 -0.065010756 -0.03501044 -0.0029783675 0.0053670723 -0.0073923483 0.06579691 0.0015079216
0.10866071 0.029026631 -0.0005594895 0.019572658 -0.08842792 -0.056216035 0.049883816 -0.04081999
-0.041335568 -0.0075723906 -0.063410625 -0.043620598 -0.029877646 -0.056766454 -0.0772285 0.008523587
0.058108926 -0.07973347 0.008497896 0.0028929424 0.056142848 -0.030607533 0.06160455 -0.051859748
0.029540814 -0.0033365593 0.030863639 0.007797712 0.044162672 0.078514814 0.013596069 -0.03635573
0.07383933 -0.045146424 -0.07598204 -0.021807788 -0.019940572 -0.021306232 -0.033474784 0.02018274
-0.052104328 0.022877883 0.037118647 -3.9935094e-05 -0.0634736 -0.031156579 0.025304474 -0.043903228
-0.032644395 -0.03737499 -0.04193878 -0.03310286 -0.059804995 -0.017088708 0.09234691 -0.04684544
0.016892765 -0.04537769 0.024462137 -0.060577676 0.05266584 -0.061379958 0.0065088817 -0.011757707
-0.055284284 0.019710219 0.09908606 0.009436758 0.047171827 0.002244618 -0.061350618 -0.05495572
0.08965466 0.017692694 -0.042627458 0.0912612 -0.012815529 0.045453377 -0.07117181 0.02556772
-0.006015547 0.06631794 -0.0023527218 -0.025209973 -0.025887998 -0.07268544 0.06364616 -0.03981812
-0.07154463 0.045121633 0.03532514 -0.028458906 -0.020770004 0.043303546 0.034754798 -0.00041881492
0.081574485 -0.008963665 -0.06272011 0.0906352 0.0135791 -0.043019753 0.07531039 0.050765082
-0.01258671 0.02958461 0.013308357 0.050015848 0.047310803 -0.021689255 -0.022948124 -0.05588242
0.030419027 0.031377304 -0.06998741 -0.0022077034 0.070436835 0.047310863 0.07740838 0.057875365
0.06892938 0.027044633 -0.06877491 -0.05474121 0.09720891 0.00013603596 0.030195665 0.089732535
0.097127505 0.08649126 0.09798967 -0.018402189 0.041042566 0.07804852 0.04150061 -0.02734968
-0.074515164 -0.02959278 -0.07101425 -0.066723846 0.09471479 -0.035253152 0.08887286 -0.02520215
-0.033894476 0.04423216 0.0074332547 0.0755588 0.04726314 -0.0056194644 -0.0057781558 0.026643153
0.04493048 -0.028576024 -0.021381242 0.034650505 -0.006129079 -0.03296994 -0.038007095 -0.06802342
-0.07108994 0.032553148 -0.059419118 -0.03898713 -0.058462612 0.086534895 -0.03798388 0.0010459652

weight_hh_l0 f4 [512, 128]
00000000: c8f2 39bd 9f1b 7d3d cff1 25bd f5fd 1bbc
00000010: d174 62bd 7b6e 34bd 7f6f c1bd d4ea 713c
00000020: 8263 873c bbab a5bd a517 15bd 5d40 7c3c
00000030: 466e 42bd 5443 63bd 0999 84bd 87c2 b2bd
00000040: aea6 a93d f962 7cbc 01fb f33b 4732 d13c
00000050: 9e13 e23c 00aa cc3c 0ec9 f43c 3624 ad3d
00000060: 0a60 89bd f2b7 7c3d ce29 9e3c 3bf0 0ebd
00000070: 3ab3 8cbd 045a 7e3d a33d 00bb 63ff a23d
00000080: 891c abbd 6d90 0b3d a857 aabd 0cc1 793c
00000090: a1ba 8139 56dc b73d ffa8 74bb edcf 1e3d
000000a0: 7f03 8e3d 8815 6d3d a893 8cbd c279 04bd
000000b0: f74b c23b b490 5f3d c5c0 503b 7e87 e43c
000000c0: f05f 993d 6c60 82bd b3f4 cb3c 5d07 82bc
000000d0: 9c62 9f3d 0d3e 72bd 03e5 16bd 926d a7bd
000000e0: 68db 9cbc 2e46 563c fb6e 1a3c d44e c2bd
000000f0: 5f31 39bd c140 b03d 0243 13bd ba19 afbb
00000100: 978f c73d a430 22bd f8b6 a83c ccce aa3c
00000110: d281 42bd f4cb 55bc 7fe9 1fbc 68aa 813c
00000120: 2857 653d 8045 4abd 99a8 763d 09c1 213d
00000130: 440c a0bd bbfb c43b ea42 b3bd fb83 b4bd
00000140: 1e6c a73c 33fd 1a3d c26e 933d 3d7b 6c3d
00000150: 14bd 0dbd d5aa c43c 0638 933d bc23 2dbc
00000160: 5e52 903d 87d5 1c3d 0bae 9cbd ec10 9b3d
00000170: a823 803d 0e9c afbd 449f 983c ea52 873d
00000180: 759e 4f3d c19c 3ebd aed2 4abd 69d4 0a3d
00000190: 23d4 a03d bda5 32bd faff 94bd 5960 debc
000001a0: 7fd5 d03c d688 cc39 e19f 3bbd 28dd 27bc
000001b0: 5458 7bbc 6ff8 a9bd 4537 69bd 0cf0 153d
000001c0: f51b 4abd ea21 6abd de6a 0f3c 0371 e9bc
000001d0: 40a1 4f3b e5e8 13bc 2fdc 6dbd fffc e4bc
000001e0: af92 d43b e96c d73b f940 74bb d9f7 913d
000001f0: 68cd 4dbd 5070 20bd d5ae afbd 5995 82bd
00000200: b95d 8ebd 1a8b a3bd 73a0 51bd d673 b03c
00000210: f0ce 083d 3fdf c0bc 44e7 453c 9be7 4bbd
00000220: 8a7d 8bbd 93fa 3cbd ad10 cfbc 8876 74bd
00000230: 28cc 8bbb 5710 a4bd c40a aabd 4ade 403d
00000240: 7e20 203d 133d f03c 6eac acbc 3fa6 033d
00000250: 8d00 86bc 75d0 933c cd10 df3a ddf0 903d
00000260: 0120 593d e64d 1bbd 126e 99bd c339 cfbc
00000270: 953f 503d 0bff f0bc d450 1e3c d009 5f3d
00000280: 9426 8fbd a5c4 803c 118b 653d 8f90 b43d
00000290: 0fd2 243d a357 9d3c 1d37 173d d2c7 b03d
000002a0: cc60 4e3d 197a 67bd e202 82bd 44b3 80bc
000002b0: d03c eebc 6510 d4bb 6920 173d 6af5 9ebd
000002c0: 874f 953d f842 8fbc d23d 84bc d2eb 24bd
000002d0: a4ae a83c 07b7 ae3d c192 eabc fb82 cdbb
000002e0: 362e 99bc 54d2 06bc eb9a 74bd b31e 373d
000002f0: 9862 583d 5af3 f33b 26d5 363d b08a 95bd
00000300: ba5a b03d 521e 8cbd 5207 46bd 5b38 48bd
00000310: 35ff 7b3d dd33 52bd 74d0 6d3d 761b ee3c
00000320: 179b 17bc f72c 5bbd 42ff 6d3d 7933 51bd
00000330: a488 1cbd 7f85 17bd 284b 233c 707e 333d
00000340: 87cb 04bd ef61 573d c622 8cbd eedb e03c
00000350: e49d 35bb f918 4fbd 2718 a53d 2609 383c
00000360: 9c4b be3d dc4e 233b 4f68 67bc 8494 763d
00000370: de3b b23d 8600 30bd 71f4 46bd 95ac a53d
00000380: 9db9 5dbd e315 893c 7384 63bd aafc d7bc
00000390: b71f d7bc 076c c0bd 8933 843d 2b96 a63d
000003a0: 1947 dd3c 1b04 303d 4a55 acbd 84cb abbc
000003b0: 0ea6 5cbd 34f2 9ebd c6cb 543d 4ba7 0f3d
000003c0: ae63 b0bd 3fe5 babc c1a9 14bd f479 643c
000003d0: f070 b23c fe5b 963b d66a f03c 5194 383d
000003e0: 6e44 d83b 4606 ac3c 3622 dc3c d549 33bd
000003f0: f29e 9bbd 0b77 a4bd d1a4 56bd d4b7 9d3d
-0.04539755 0.06179392 -0.04051381 -0.009520997 -0.055287186 -0.044050675 -0.09445094 0.01476546
0.016526941 -0.080893956 -0.036399502 0.015396205 -0.047468446 -0.05548413 -0.06474502 -0.087285094
0.08283745 -0.015404456 0.0074456935 0.02553667 0.027597245 0.024983406 0.029881027 0.08454172
-0.06707771 0.06169886 0.019307043 -0.03489707 -0.06870122 0.062097564 -0.0019567988 0.079588674
-0.08355052 0.034073282 -0.083175 0.01524378 0.00024743847 0.089775726 -0.0037332175 0.038772512
0.069342606 0.057881862 -0.06864101 -0.03234268 0.005929466 0.05458136 0.003185318 0.027896639
0.07489002 -0.06366047 0.024896955 -0.015872652 0.0778248 -0.059141207 -0.036839496 -0.08175196
-0.01914759 0.013078256 0.009425874 -0.094876915 -0.0452131 0.08606101 -0.035952576 -0.005343643
0.097441845 -0.03959717 0.020595059 0.020850562 -0.047487088 -0.0130491145 -0.00976026 0.015828326
0.05599132 -0.049382687 0.06021938 0.039490733 -0.078148395 0.006011454 -0.08752997 -0.08814236
0.020437296 0.037839126 0.0719886 0.057734717 -0.034604147 0.02400724 0.0718842 -0.010567602
0.0704696 0.038289573 -0.076503836 0.07571587 0.06256801 -0.08574687 0.018630631 0.066076115
0.050688226 -0.04653621 -0.049517326 0.033893976 0.07852962 -0.04361509 -0.07275386 -0.027145552
0.025492428 0.00039011863 -0.04580677 -0.010245599 -0.015340883 -0.08299338 -0.056937475 0.03660588
-0.04934307 -0.05716125 0.0087535065 -0.028496271 0.0031681806 -0.009027694 -0.05807131 -0.02795267
0.0064872126 0.0065742624 -0.0037270172 0.07127351 -0.05024472 -0.03916961 -0.085782684 -0.06376142
-0.0695147 -0.07985516 -0.051178407 0.02153961 0.033400476 -0.023543952 0.012079064 -0.049781423
-0.06811054 -0.046137404 -0.025276506 -0.059683353 -0.0042662807 -0.08010929 -0.08302835 0.04708699
0.039093487 0.029325997 -0.021078315 0.032140967 -0.016357685 0.018043736 0.0017018557 0.07077191
0.053009037 -0.037916087 -0.07491697 -0.025296098 0.050841887 -0.029418489 0.009662826 0.054452717
-0.0698978 0.015718767 0.056040827 0.08816635 0.04023939 0.019206828 0.036917794 0.08631863
0.05038528 -0.056512926 -0.06348206 -0.01571048 -0.029081732 -0.006471681 0.036896143 -0.07761653
0.07290559 -0.017487988 -0.01614276 -0.04026396 0.020591088 0.085310034 -0.02863443 -0.0062717176
-0.018698793 -0.008228857 -0.059718054 0.04470701 0.0528284 0.0074447813 0.044636868 -0.07301843
0.08611055 -0.06841721 -0.048346825 -0.04888187 0.06152268 -0.051318992 0.058060125 0.029065829
-0.009253285 -0.05350968 0.05810476 -0.05107448 -0.03821625 -0.036992546 0.009966649 0.043821752
-0.03242066 0.05258363 -0.0684257 0.02744862 -0.0027712518 -0.050560925 0.08061247 0.01123265
0.09291765 0.002491883 -0.01412399 0.06020023 0.08702825 -0.04296925 -0.04857296 0.08089558
-0.054132093 0.01673407 -0.055546235 -0.026365597 -0.02626024 -0.093956046 0.06455142 0.08134111
0.027011441 0.042972665 -0.08414705 -0.020971067 -0.0538693 -0.0776104 0.051952146 0.035071652
-0.086127624 -0.022814391 -0.036294702 0.0139450915 0.021782368 0.004588603 0.029347818 0.04506332
0.0065999543 0.020999085 0.026871782 -0.043771584 -0.07598676 -0.08030518 -0.052403275 0.07701078

bias_ih_l0 f4 [512]
00000000: 4d81 a73b 55cf 903d 6ec6 90bd 8cbc 8abd
00000010: 1d47 26bd 8853 92bd d367 b7bc 7fac a63d
00000020: 904d e53c 3509 153c 3804 5b3c 4d2d 7b3d
00000030: c5ad 6dbb 3f67 963d 6119 583d e9a2 443d
00000040: d771 4f3c 2ff3 953d 6eed c03d f7e0 10bd
00000050: c5eb 83bd 56af 233d c338 2fbd a7a3 b03d
00000060: 48e7 9b3d 94ce a43d 1ca9 8ebd 0434 823d
00000070: c452 07bc b903 b7bc 924c b43d 73bc 59bd
00000080: 5ae1 373d c313 8f3c a34f a13d 8db1 653d
00000090: da2c d0bc adcb 66ba 35e7 99bd 2f68 383d
000000a0: 5e01 01bc 1b66 b53d 7b8b a63c 7e79 e6bc
000000b0: c43b 903d d463 f33c 8a08 1dbb 616a 3fbd
000000c0: eae7 a33d 1cc6 aa3d 38ee d73c dd76 7ebd
000000d0: ef16 46bd 3a35 eb3b d78c 99bd e884 663d
000000e0: 4cb4 26bd 687f 03bd 16ea 99bd 5315 89bd
000000f0: 0ff3 e2bc 08be 0b3c 3d09 f13c d055 9f3d
00000100: 38f3 26bd 66ff 41bd a9e8 95bd c7ba 8b3d
00000110: 10e6 8e3d d436 f9bb e272 98bd e83e 0f3c
00000120: ff3e b63d c10b cbbc bc19 953d 3331 57bb
00000130: 6137 58bd 2659 cfbc a0ed 773d 0dc1 31bd
00000140: 34a3 f43b f561 a1bc 7c12 e73c c4b3 7b3c
00000150: 4e73 4f3d 7676 6dbd f83d 2cbd 44c5 853d
00000160: 8db6 4dbd 63ea 353d c63c 17bc 28db 09bb
00000170: 4b61 5abd 8330 5bbb 9e33 063d 0fbb c2bc
00000180: 7ddb b2bc 3265 4fbd 6e20 8b3d 15e1 08bd
00000190: 0d09 f13c c455 2cbd d209 6dbd d9dd ae3d
000001a0: 674c 7c3d 2121 9a3c 6fe6 4a3d efca 62bd
000001b0: c948 793b 7f04 7e3d 5e3d 9fbd 396a b93d
000001c0: 625a d23c 462c 9bbd a43c eabc 93d6 0ebd
000001d0: 7e85 95bd 23d4 bf3d fa0a 16bd 4467 803c
000001e0: d007 c7b9 7567 c9b9 062f e3bc df4c 373c
000001f0: 52b2 883d 1375 2d3d 03f2 303d 97c8 4e3d
00000200: 4a57 24bd 7f1f 043d 2ba2 153d 3159 39bd
00000210: 3f8d 3fbd 5357 7abc e4bc 5abc ee5b aa3d
00000220: 7d23 59bd 1f57 b3bc 8772 293d 6fce e8bc
00000230: 23c7 bd3d 7828 29ba ce86 573d 1c37 d63c
00000240: bf83 75bd bcfd 803d 0601 f1bc 0e17 2c3d
00000250: 044c 833d 14a7 a3bd a062 8abd c943 593d
00000260: 4a55 a6bd 30ac 7cbd b8fc 833d 7f1d 723d
00000270: fdb1 543b 7e8d 753d ae14 a13c eb90 a9bd
00000280: e35e 8e3d da3e 7ebc 8440 cfbc 3875 113c
00000290: c1f4 a83c bcc7 38bd af0e d3bc 4c72 36bd
000002a0: d770 b83c 7d33 03bd 55b8 78bd 83b5 a23d
000002b0: 11dd dcbc 124a 94bd 0fcb 863d 87a4 a73d
000002c0: 14c7 dc3c 2479 993d 2f20 a9bc b1e1 c0bc
000002d0: 5c5f d23c 006c e13c e9bb 433c ac9c fa3c
000002e0: d7e2 d6bc bf74 32bd 668a 87bd 4457 213d
000002f0: ec2a 243d d8be df3c 79b7 2e3d bee6 613c
00000300: f7b3 81bd db8d bd3d 6de6 1ebd 00df 6abc
00000310: f161 963c e318 553d a664 223d ef0c 65bd
00000320: eb20 a73c 7f94 ba3d de35 3c3b 4038 623d
00000330: c02b 0cbd 45f9 32bb ce2d 1fbd d35d 94bb
00000340: c67a 903b 4247 b6bc f22e 263d 0a42 afbd
00000350: bf20 19bd 5122 94bd a618 643d 97f2 0abd
00000360: d928 95bd 508c 963d 6a71 a33d 64b4 1f3c
00000370: 8adb 22bd d664 b4bd 41c6 9d3d 3f05 9f3c
00000380: bcc7 903d dcbd aebd 05a6 7dbd 1f0c 85bd
00000390: 03a3 2bbd 8532 0d3d 882a 46bd 21f1 aa3d
000003a0: 1514 353c 4bec a23d 53c4 bb3b 9214 88bd
000003b0: 5c5a 67bd dcb0 4e3d b335 e03c c153 f3bc
000003c0: 4b1c 34bd fa03 75bd 4839 c5bc daa5 8b3c
000003d0: ec13 9bbd cd27 0e3d 4916 afbc 9a73 6b3d
000003e0: d288 8dbd c728 b13d 286d a23d 46d9 79bd
000003f0: 6ad1 b33d f71b a5bd 35ad 74bd 791d 0b3d
0.0051118494 0.070707954 -0.070690975 -0.06774244 -0.040595163 -0.071448386 -0.022388374 0.0813837
0.027991086 0.009096433 0.013367705 0.0613225 -0.0036266905 0.073439114 0.05275858 0.048006926
0.012661419 0.07321774 0.09420286 -0.035370793 -0.06441454 0.039962135 -0.04277874 0.08624964
0.07612473 0.08047214 -0.06965849 0.063575774 -0.008259479 -0.022340642 0.08803667 -0.053158235
0.044892646 0.017465478 0.078765176 0.05607753 -0.025412012 -0.0008804154 -0.07514802 0.045021232
-0.007873861 0.08857366 0.020330181 -0.028134104 0.070426494 0.029710688 -0.0023961389 -0.04673231
0.080032185 0.083385676 0.026358709 -0.062125076 -0.048361715 0.007177976 -0.07497566 0.056279093
-0.04069929 -0.032103926 -0.075153515 -0.066935204 -0.02770379 0.008529194 0.02942335 0.07780039
-0.040759295 -0.047362708 -0.07319767 0.06822734 0.06977475 -0.007605413 -0.07443787 0.008743025
0.08898734 -0.024785878 0.07280299 -0.0032835722 -0.05278719 -0.025311064 0.06052935 -0.043397
0.0074657444 -0.01970003 0.028207056 0.015362684 0.050647072 -0.0579743 -0.042051286 0.06531766
-0.050222922 0.04441298 -0.009230798 -0.0021035168 -0.053315442 -0.0033445663 0.03276407 -0.023770837
-0.021833176 -0.050633617 0.06793295 -0.03341778 0.029423261 -0.04207398 -0.057870694 0.08538408
0.0615963 0.018814625 0.049536165 -0.055369314 0.0038037768 0.062016007 -0.07775377 0.090534635
0.025677864 -0.07576804 -0.028593369 -0.034872603 -0.07300852 0.09366634 -0.03663156 0.01567424
-0.0003796206 -0.0003841479 -0.027732383 0.011187761 0.06674637 0.04234798 0.04319955 0.050484266
-0.040122308 0.0322566 0.03653161 -0.045251075 -0.046765562 -0.015279609 -0.013350699 0.083183154
-0.05301236 -0.021892129 0.041368987 -0.028418748 0.09266498 -0.00064528687 0.052618794 0.026149325
-0.059940096 0.06298396 -0.029419433 0.042014174 0.06410983 -0.07990852 -0.067570925 0.05304316
-0.08121736 -0.06168765 0.06444687 0.05911016 0.0032454722 0.05994939 0.019663181 -0.08279594
0.06951692 -0.015517915 -0.025299318 0.008878045 0.02062452 -0.045112357 -0.025763838 -0.044542596
0.022514744 -0.032031525 -0.060722668 0.07944777 -0.026960881 -0.0724069 0.06581699 0.08185678
0.026950397 0.07493809 -0.02064523 -0.023545118 0.025680237 0.027517319 0.011946657 0.030592285
-0.026231213 -0.04356837 -0.06618194 0.039389864 0.040079996 0.027312681 0.042655442 0.013787923
-0.06333154 0.092555724 -0.03879397 -0.014335394 0.018357249 0.052025687 0.039646767 -0.055920538
0.020401439 0.09110355 0.002871863 0.055229425 -0.03422141 -0.002730922 -0.038862042 -0.0045277863
0.004409167 -0.022250775 0.040572114 -0.08557518 -0.037384745 -0.07233108 0.05568757 -0.033922758
-0.07283182 0.07350981 0.079806164 0.009747598 -0.03976015 -0.088082954 0.077038296 0.019411681
0.07069346 -0.085323066 -0.061925907 -0.064964525 -0.041903507 0.034472007 -0.048380405 0.08346773
0.011052151 0.079552256 0.005730191 -0.066445485 -0.056482658 0.050461635 0.027369356 -0.029703023
-0.043972295 -0.059818245 -0.024075165 0.017046858 -0.07572159 0.034705926 -0.021372931 0.057483293
-0.06910862 0.08650356 0.07930976 -0.060998224 0.08780177 -0.080619745 -0.059735496 0.033963654

bias_hh_l0 f4 [512]
00000000: 7f92 a73a 6059 aa3c 0c0f 943d e707 2fbc
00000010: bad6 b1bc 3168 9f3d 0050 caba 9199 733d
00000020: 7b14 01bd b0ce c1bc 16c0 683b 8a43 303c
00000030: d9c7 ca3d dc67 79bd 38df 96bd 553f 59bd
00000040: bb1e 92bd 1a4a 283d aa3f c83d 2a50 9abd
00000050: 8246 313d 72a0 65bd 4fc7 18bd 535b 54bc
00000060: e6c1 b03d acb7 a6bc ba57 623c 3b76 913d
00000070: 1d19 86bd 4859 06bd d13c 1d3d 3e2e d1bc
00000080: 6b40 d43c cc8b 2dbd d194 95bc 294a 91bd
00000090: b9fd 6bbc de35 b53d 0523 4bbd d6ff 303d
000000a0: 0005 753d 3b23 a93d c1fb 5cbd 0a58 ac3d
000000b0: 8883 623c a502 1ebd 4e75 5fbd 6539 edbc
000000c0: 46f2 b9bb c0dc 93bd 9238 7d3d 402d 823d
000000d0: df5c 04bd 23db 363c 0ebd e73c b130 b43c
000000e0: 44de 943d 22f4 8abd 5815 e8bc 9295 3ebd
000000f0: cfe2 033d 6895 d5bc fbc5 8c3d d12e 14bd
00000100: ea4c 563d 80ab 07bc 23c9 2dbd 7279 803d
00000110: 5aa1 78bc ea41 a53d 08ae 70bd 7bdb 7dbc
00000120: c590 a03d 4d61 063d 76d1 9a3d 11e6 bcbc
00000130: 5cc1 5e3d b251 a53d 25a6 c03c d32e 9abc
00000140: 1de8 3d3d e6ad 8b3d 2f68 273d e79c 803b
00000150: 7e88 c13d 83f7 98bd 0cbb 0c3d af7c 37bc
00000160: a6cd e53c b44f 833d 3722 9fbd 8b35 9cbd
00000170: ee06 743d f4fd 8fbc e0d3 7abd 60ab 0abd
00000180: 6e91 9cbd dc01 0e3b 4e3a b9ba 794f 88bd
00000190: 239e b3bc e78a ba3d 8a96 d63a 6faf ffbb
000001a0: 092f 8fbc 652a 21bd eb6c 55bc 97f3 4bbb
000001b0: 7879 213d 4bf3 733d c370 acbd 6f9e 733d
000001c0: bbd6 613c 12c2 a8bd c286 dc3c 2d15 9ebd
000001d0: 81e4 96bd 5f73 1fbd f876 39bd 3a1d 67bd
000001e0: ae29 893d e181 8d3d afd4 d1bb f6ee e2bc
000001f0: 7614 9abd 4e85 15bd c1dc 593d b7dd 8bbd
00000200: 21cf 67bd e166 98bd 9d5e 11bc 25e1 423d
00000210: 1b44 04bd 68f6 603d 81e8 963d 6951 f5bc
00000220: afc2 d0bc 9eaa 8b3c bdf9 d83c cc2d 17bd
00000230: 17c3 af3d d7d2 ae3d 2c0c 073c 2412 7abd
00000240: a50e 973d e12d 87bd e618 22bd de60 8c3d
00000250: 9d57 373d 01ea 3b3c 041c 99bd f19c 9ebc
00000260: 30f1 743d edd6 b23d 618b b13d 3d7c 72bd
00000270: fa8d 97bd e58b 38bd dc03 0d3c e0f7 83bd
00000280: 999f a03d 7c94 f8bb d01b 953c 65c1 7f3d
00000290: a35c 7e3d cf72 e03b cb35 24bd 27bd c23d
000002a0: 267f 983d 71aa 9cbd 098a af3c a1e0 7b3d
000002b0: 5c1b 26bc 79c8 69bd dd04 9d3d 6fce d53c
000002c0: ac3f 853c 95df 31bc 0752 e33c b35a a03d
000002d0: 5efa debc 6b51 553c ea3f 993d 85a8 8a3d
000002e0: 939f 5ebd c1b4 e53c 7a0a f4bb e261 273d
000002f0: 33fa 97bc c890 0f3d b95c 53bd f50a a63d
00000300: 0b87 87bd cade f7bb caa7 1a3d 1d6b ad3d
00000310: 68f0 98bd c472 a53c 94cb 89bd e96e 0f3c
00000320: 631b a3bd f99f 3ebd cbba 4bbd 406b 673d
00000330: b859 013d 433c 93bc 4a80 613c bf88 9dbd
00000340: 3447 f43c 33d6 2d3c 258f 3dbc 2755 e23c
00000350: ede5 973d 9404 a63d c700 27bd 749b 88bd
00000360: 796c 85bd de93 7d3d 30ce bb3c 7661 fd3c
00000370: 2275 afbd a28a 3cbd 8580 41bb 60a4 2dbc
00000380: 3cae b03d ca15 713d 4b3f 963d 4069 533d
00000390: 2218 b13d 5738 bbbb 08cb cebc 6201 713d
000003a0: 5c06 9cbd 15c2 ad3d 6e4e 07bd e84e 8bbd
000003b0: a64e 3c3c 426e 1bbc e633 10bc 58ab 98bd
000003c0: 6cde 44bc fe27 55bb adc2 943d 684e 333c
000003d0: 3f2c a5bc b2f7 483d 9612 b23d a900 923d
000003e0: 65b2 d1bc cded 843d bd86 f6bc ec0f 40bd
000003f0: 5d84 803c acd4 fa3c 5560 c4bc c8e6 6dbd
0.0012784748 0.02079457 0.072294325 -0.010683036 -0.021708835 0.07783545 -0.0015435219 0.059472624
-0.031513672 -0.023658127 0.0035514883 0.01075829 0.09901399 -0.060890064 -0.07366794 -0.053038914
-0.071347676 0.041086294 0.09777768 -0.07534821 0.043280132 -0.056061216 -0.03729945 -0.0129612265
0.08630733 -0.020351253 0.013814861 0.07102629 -0.06547759 -0.03279999 0.038388077 -0.025534745
0.025909623 -0.04236965 -0.018259438 -0.07094223 -0.014403754 0.08848165 -0.049593944 0.043212734
0.05981922 0.08258673 -0.05395103 0.084152296 0.013825305 -0.03857674 -0.05455523 -0.028958032
-0.005674633 -0.07219839 0.061821528 0.06356287 -0.03231513 0.011160645 0.02828839 0.021995874
0.07268956 -0.06784846 -0.02833049 -0.04652936 0.032198723 -0.026072219 0.06873699 -0.03617746
0.052319445 -0.008280635 -0.042428147 0.06273164 -0.015175188 0.08069213 -0.05875972 -0.015494223
0.078401126 0.032807637 0.07559483 -0.023058923 0.05438362 0.08072223 0.023516724 -0.018821156
0.04636394 0.06820278 0.04087084 0.003924954 0.09449862 -0.07469084 0.03435807 -0.0111991605
0.028052162 0.064116865 -0.07770198 -0.076274 0.05957692 -0.017577149 -0.061237216 -0.033854842
-0.07644926 0.0021668589 -0.0014131756 -0.06655783 -0.021925991 0.09108525 0.0016371768 -0.0078028957
-0.017478483 -0.03934707 -0.013026456 -0.0031120533 0.039422482 0.059558194 -0.08419945 0.059477266
0.013784106 -0.08240141 0.026919726 -0.07718883 -0.073678024 -0.038928386 -0.045279473 -0.056424357
0.06697403 0.06909538 -0.0064035277 -0.027701836 -0.07523434 -0.036504082 0.053189043 -0.06829398
-0.056594018 -0.074414976 -0.008872655 0.047577996 -0.032291513 0.05492249 0.07368565 -0.029946046
-0.025483457 0.01704913 0.026486272 -0.03690891 0.08582132 0.08536308 0.008242648 -0.061052456
0.0737584 -0.066005476 -0.039574526 0.068544134 0.04476129 0.011469365 -0.07476047 -0.019361945
0.059800327 0.087324 0.086691625 -0.059200514 -0.07400127 -0.04505529 0.008606877 -0.06443763
0.07842941 -0.00758606 0.018201739 0.062440295 0.062100064 0.0068496238 -0.040090363 0.09508734
0.07446127 -0.076496966 0.021428125 0.06149352 -0.010138359 -0.05707595 0.07666943 0.026099412
0.016265713 -0.010856529 0.027749075 0.078297995 -0.027218994 0.0130199 0.07482894 0.06770424
-0.0543514 0.028040292 -0.007447538 0.040864833 -0.018551921 0.035050184 -0.0516021 0.08107559
-0.06617554 -0.0075644003 0.037757672 0.08467696 -0.07467729 0.020196326 -0.067282826 0.00875447
-0.07964208 -0.04653928 -0.049738687 0.056498766 0.031579703 -0.017973071 0.013763497 -0.07692098
0.029819109 0.010610151 -0.011569773 0.027628494 0.07416902 0.08106342 -0.040772226 -0.06670275
-0.0651483 0.061908595 0.022925466 0.030930262 -0.08567263 -0.046030648 -0.0029526067 -0.010598272
0.086269826 0.05885867 0.07336291 0.051614046 0.08647181 -0.0057135033 -0.025243297 0.05883921
-0.076184005 0.08484284 -0.03303378 -0.068021595 0.011493361 -0.009486737 -0.008801436 -0.07454556
-0.01201592 -0.0032525058 0.07263694 0.0109439865 -0.0201627 0.049064346 0.08694951 0.07129032
-0.02559776 0.064906694 -0.030093545 -0.046890184 0.015688116 0.030618988 -0.023971716 -0.05808142

weight_ih_l1 f4 [512, 128]
00000000: b48a 81bd 5f10 633d 38d9 8dbd ab77 d43c
00000010: d6a6 293d 2e6d 2e3d 4dc2 4cbd 4ffe e1bc
00000020: 2a3e 14bd 6a68 f7bc dd98 a53d ad58 55bd
00000030: 541b b13c c281 a3bd 9b72 373b 35fd 7a3d
00000040: 4689 5e3d 0e06 383b 4f35 a03d a9bf 38bd
00000050: 0864 bd3d 386b 333d 7789 8fbc 3b5b 59bd
00000060: 197f 53bd a61e 8a3d 4f60 1cbd 67b0 333d
00000070: a9a4 ebbc fae4 3b3c 06a0 093d 5439 f73c
00000080: 38ed 27bc 1282 a93b aca4 383d 4899 493d
00000090: 59f3 e9bc 0208 0b3d 8262 adbd 03f3 a63d
000000a0: bba3 9dbd d739 4e3d 71b5 1dbd 21e7 bc3d
000000b0: ee36 a2bd 514e 02bd 93fa 113d f4bd 4abd
000000c0: 49ec f2bc 2843 9cbd aed2 1bbd aff2 813d
000000d0: 724c 06bd c6a2 563d 9648 873d 2dfa eb3c
000000e0: 969f 59bd e3d5 6f3c 5000 dd3c a1a6 273d
000000f0: 38bc a03d 8fe4 abbd a934 0bbd 14b2 fdbc
00000100: d228 b13d 64ce 1fba 0561 37bd 338e d7bb
00000110: d04e bd3b 0946 183d 93b0 a4bd f7eb a4bd
00000120: cf79 46bd 1dfa 03bd 28fa ef3a 98c8 4d3d
00000130: 635c a8bd 351c 38bd a04b 2a3d 98b3 24bd
00000140: 122e 683d fa17 ffbc ca1c 9b3c 3f39 dc3c
00000150: b35a 4a3d 9a29 69bd 06f7 8cbd 12ef 553a
00000160: 7e3e 21bc ed62 033d 3df9 3abd 41a0 71bc
00000170: 4eef 3d3d 58f4 b7bd 19ea aabc 8cc2 15bd
00000180: 057d 45bc 37f5 c4bb 6012 353b 07f0 913d
00000190: 3391 6d3d 6011 9a3d b431 06bd 1a8f 8b3d
000001a0: e4d8 84bd c2c9 36bc 5d69 6a3c 2a3b 5bbc
000001b0: 07a2 823a bca0 9d3d d34d 5fbc f461 8e3d
000001c0: 742c 37bd e437 5cbd 95d8 833d 2947 6bbc
000001d0: c684 87bd 0746 1c3d 1bfe a6bc 765b 833d
000001e0: 0082 56bd 6802 733c 7ca4 35bd 5431 2dbd
000001f0: c7a1 5e3d ccde b03d cb5e 913c bd88 ccbd
00000200: 81a6 a3bd 7a4b 8fbd d3d6 b63d f500 ae3d
00000210: ed13 563d bbe2 9bbd d4e6 81bc 2c3d 8ebc
00000220: c277 68bc c1ad 993c ea81 913d b3e0 40bd
00000230: 2913 3dbc 4916 953d a319 1cbd af62 823b
00000240: 6d18 963c e77b 9c3c a5a4 8f3d c0da 073d
00000250: f1ac 9a3c 7683 39bc dcd3 87bb 9052 143d
00000260: f1a2 88bd 987a 85bd 3ebe a23d 0c55 dc3c
00000270: 92ad 84bd 192f e53c 6263 6f3d 3259 79bd
00000280: f4fa c6bd 3ffd 353d 9eea 653d 23eb a6bc
00000290: 8785 0239 20c2 81bc 95ad 813c be72 d73c
000002a0: f274 29bc 7604 a23d 1c51 903d a90e 48bd
000002b0: 8585 873c 9e49 343d de27 d03a 8343 3c3d
000002c0: 1176 79bd bcf8 afbd 0261 9bbd 89f4 d4bc
000002d0: 5044 53bd e6c0 5c3d ab64 b63d f6a8 b3bd
000002e0: 6627 593b 85db 49bd 869a 643d 887a 553c
000002f0: 1e73 7eba 7266 ac3d ee71 3b3d 4483 7e3d
00000300: 0ed2 053d 6313 afbc d610 81bb 5a7c dfbb
00000310: 7e43 00bd 6307 95bd fac2 abbc 62e2 b0bd
00000320: 98eb 973c 7eab 2a3d 45a3 58bc 21e2 403c
00000330: 91e4 333d 1738 203d f5a8 b13d 8593 913d
00000340: 3710 5cbc 14e3 7fbc fa60 6abd 8512 423d
00000350: 8a93 aabd 0697 8dbd ac56 943d d091 b7bd
00000360: 35db 7d3c b3f4 453d 1c39 3fbc 0c0b 94bd
00000370: 374d 85bc 1dbb 18bd c173 b8bd fb3b a53d
00000380: 7906 7cbc 4ef9 583d 585e 98bc ed64 8b3d
00000390: 719b 973c 1c83 863d 8b93 ac3d cf21 b03b
000003a0: 6378 abbd 9f7f 81bd 73fe 273d 3d74 ce3c
000003b0: 0e97 a8bd 9ae6 4bbc a99a 153b cbc7 9fbd
000003c0: f223 4c3d d962 c73b a74f a6bd dd21 0a3d
000003d0: b320 36bc 8cb7 953d b1fa 5c3b ef36 0abd
000003e0: 5753 52bd dc68 a83d c91d 4f3d ee37 b8bd
000003f0: e385 0bbd f729 3b3d 8265 62b9 9d5c 643d
-0.06325284 0.055435535 -0.06926197 0.025935968 0.041418873 0.04258459 -0.049989987 -0.027587084
-0.036192097 -0.030201156 0.08085797 -0.05208652 0.021619476 -0.07983734 0.0027991894 0.061276633
0.054330133 0.002807978 0.07822668 -0.045104656 0.09247595 0.043803424 -0.017521603 -0.05306552
-0.05163488 0.06744127 -0.038177785 0.043869402 -0.02876504 0.0114681665 0.033599876 0.030178703
-0.010249428 0.0051729763 0.04507892 0.049218446 -0.02855842 0.033943184 -0.084660545 0.081518196
-0.07697245 0.05034813 -0.038503114 0.09223772 -0.07920633 -0.03181297 0.035639357 -0.04949756
-0.029653685 -0.076299965 -0.038042717 0.06345116 -0.032787748 0.052401327 0.066056415 0.028805817
-0.05313071 0.014638397 0.026977688 0.040930394 0.078484 -0.083932035 -0.033985768 -0.030968703
0.08650364 -0.0006096123 -0.04477026 -0.0065782308 0.0057772174 0.037176166 -0.08041491 -0.08052819
-0.04845601 -0.03222095 0.0018308805 0.05024013 -0.08220746 -0.044948775 0.041576028 -0.040210336
0.05668456 -0.031139363 0.018934626 0.026882766 0.049402904 -0.05692444 -0.068830535 0.00081609294
-0.009841559 0.032076765 -0.04564785 -0.01474768 0.046370797 -0.08982152 -0.02086358 -0.036562487
-0.012053733 -0.006010677 0.002762936 0.0712586 0.0579998 0.07522845 -0.032762244 0.06814404
-0.06486681 -0.011156501 0.014307347 -0.013380805 0.0009966501 0.07696673 -0.013629395 0.06952277
-0.04472013 -0.05376424 0.06437794 -0.014360228 -0.066171214 0.03815272 -0.020384839 0.06413929
-0.05237007 0.014832117 -0.044346318 -0.04228337 0.0543535 0.08636245 0.017745396 -0.09987018
-0.079907425 -0.06996818 0.08927693 0.08496276 0.052265096 -0.07611605 -0.015857138 -0.017363153
-0.014188709 0.01875961 0.07104857 -0.04708929 -0.011540213 0.07279641 -0.038110387 0.003979049
0.018322194 0.01910205 0.07013825 0.0331676 0.018881293 -0.011322847 -0.0041451287 0.03621155
-0.066717036 -0.065175235 0.07946442 0.026896022 -0.064784184 0.02797656 0.05844439 -0.06087608
-0.09715834 0.044430967 0.05613195 -0.020375794 0.00012447509 -0.015839636 0.01582984 0.02629983
-0.010342823 0.07911007 0.070467204 -0.048842106 0.01654316 0.04401552 0.0015881022 0.04596282
-0.060903613 -0.08592364 -0.07586862 -0.02599551 -0.05157882 0.0538949 0.0890592 -0.08772461
0.0033135056 -0.049281616 0.055811428 0.013029702 -0.0009706485 0.084179774 0.04576295 0.062136903
0.032671027 -0.021371549 -0.0039387746 -0.006820244 -0.031314366 -0.072767995 -0.020966996 -0.08636929
0.018544957 0.041667454 -0.01322252 0.011772663 0.04391915 0.03911599 0.08674804 0.07108215
-0.0134316 -0.0156181045 -0.05722139 0.047380943 -0.08328922 -0.06913571 0.07243094 -0.089633584
0.015494158 0.048329066 -0.011671331 -0.072286695 -0.01627217 -0.03728782 -0.09006453 0.08068081
-0.015382403 0.05297213 -0.018599674 0.068063594 0.018506737 0.06567976 0.08426579 0.005375124
-0.08372571 -0.0632317 0.041014146 0.025201911 -0.082319364 -0.012445116 0.002282778 -0.07801779
0.049838968 0.0060847816 -0.08120661 0.0337237 -0.011116195 0.073103994 0.003371876 -0.033743795
-0.05134901 0.08223125 0.050565515 -0.08995043 -0.03406323 0.045694318 -0.00021590854 0.055752385

weight_hh_l1 f4 [512, 128]
00000000: 7981 46bd 1b6d 8f3d 7ef4 74bd b769 6d3c
00000010: 3066 bbbc eb2c 823d 9530 a6bd 6dfc 1f3d
00000020: 393c 9a3d cae2 243d b27e 6a3d 4d47 dfbb
00000030: f9e8 453d 7110 2b3c 2bdb 803d f651 8e3d
00000040: 0c25 963d 2ff3 70bd 1dee 6f3c bd7a cfbd
00000050: 4ec3 94bd e2ba a0ba 4302 72bd 6170 a8bc
00000060: fb0f 53bc cede 05bb c9e1 683a 43b6 fb3c
00000070: e318 993d c5d7 fdbc 0278 6eb9 a0f0 85bd
00000080: 205f c4bc 8a2c ac3d 8166 9bbd c080 51bd
00000090: 0847 21bd 29f1 743d 2e45 733d ed44 493d
000000a0: f96f 023d 9f7d b33d 7e33 de3c abef 91ba
000000b0: b5b6 813d c023 bcbd 6ead 283d a9d4 30bd
000000c0: dd9d 5a3d e1e5 a4bd 0fa2 b53c 3cee ca3d
000000d0: 319b dfbc f41e 85bd 8215 96bd 9061 5e3d
000000e0: 4af2 483c 0553 c0bc ce16 703c b0bf bfbc
000000f0: 19d3 98bd a774 8ebd 1bb4 373d 3ebb 96bd
00000100: 996a 963d fbd3 61bd 6659 5c3c a7d2 4c3c
00000110: e53e f0bb bf0f b63d 2292 7abd d51e 57bd
00000120: 1353 2dbc 7f61 8bbd eff1 b9bb 8870 20bc
00000130: e8d1 bcbd c662 a3bd 11a1 933c 8e2e 1fbb
00000140: f5ed 113d 3798 4dbd c071 ddbc 8a0b 0bbd
00000150: 21e8 b2bd 30b9 e8bc 21da 59bd bc97 b4bd
00000160: 52af 9dbd 6eff 823d cb75 ebbc ea30 a8bd
00000170: d1db 613d 49fb f33b a432 f7bc dac1 4abd
00000180: 66d1 a3bd d071 aabd 14e3 96bd a73d 99bd
00000190: 640c 23bd 29ed 52bd d94b f03c 51c7 dabb
000001a0: 5c28 0b3d 6264 18bd 9c95 b93c 4d8e 6c3d
000001b0: b10d 8dbd 80fe 8d3d afed 2dbd e4b4 723d
000001c0: 4687 333d a9d5 863a b22e 843c d0a1 c0bc
000001d0: 6508 cb3c e784 2ebd 9da9 843b 717d f8bc
000001e0: 12c3 6bbd 8a23 803d 2105 3e3b 07c2 cc3c
000001f0: 0b9b c53c 59eb c2bc 054b 00bd 14a9 49bd
00000200: f6eb 0e3d d696 9abd de34 2cbd 939e 4a3d
00000210: b2dd 99bd a758 ee3c d34e b1bd 4077 7abd
00000220: 0ddc 0cbd a6b1 bbbd 3388 bd3c d2ba a4bd
00000230: 5269 a33d d721 78bd 0980 84bd 049b 54bd
00000240: 28af b1bd aa66 903c c76d 8ebd 39b5 93bd
00000250: 96da 733c d890 233d 1f6a c9bc c223 aa3d
00000260: 1cb0 adbd 3d71 a8bc 7a29 ee3b 7067 7cbd
00000270: b41d a3bd 8975 8dbd 3fbf 1f3c 70e8 3abd
00000280: 3b91 42bd c5d7 723d 2d40 77bd 21aa 3d3d
00000290: 7939 a5bc 6e07 843d c611 6f3d 05ea ae3c
000002a0: 25e3 1dbd 7286 d5bc e0ee 79bd 43ba 54bc
000002b0: de3d a13d 06d2 5ebd 2bf7 b83d 12f8 863d
000002c0: 3dd0 64bd 6852 883c 72ec 3d3d 935e 463d
000002d0: 2fcc 0bbc db69 a6bc 502e afbd 1285 a6bd
000002e0: 465f a73d 48bf 44bd ed03 8fbc 6040 9c3d
000002f0: 2210 a53d fba3 5cbd 0735 95bc 3086 c9bc
00000300: 5eb9 e43c 5845 183d 0ecb 50bd d36a d0bd
00000310: 4505 5fbd fba6 4dbd 8622 e1ba 6beb 9c3d
00000320: d1d5 843d 1920 8ebd d215 153d 0a4e 473d
00000330: 2d76 b03d 549b 733d 3ebc 703c 0540 f13c
00000340: b15c 3e3d 6ef1 a5bd f15e 473d 8dc7 a3bd
00000350: 9ccf 96bc ec13 92bd 053d 9ebd 4ea7 873d
00000360: c239 c13b adb2 113c ffad b7bd 2eb7 11bd
00000370: 8bbf d73c ac14 223d 9420 133d 8418 69bd
00000380: 3c35 02bd 6741 d0bb 3393 2f3d 4592 6f3c
00000390: d831 8c3d ab54 053c 2b20 4a3c 7955 9f3a
000003a0: 1bd1 9abd 3638 613d ee59 733d 8df2 07bd
000003b0: b135 47bc e541 e6ba 1e0f b13c e892 913d
000003c0: 11a1 2fbc 5eca 923d 24b7 7d3d 0336 45bc
000003d0: f1b0 67bd 1dc1 043d d3dd 58bd 8a2e 15bd
000003e0: 4ae3 a83d 5add 86bd d87b c63c a6ff 57bd
000003f0: 0de0 973d 2db5 ab3d 0087 823d 2c7d 0b3d
-0.04846332 0.07003232 -0.05980348 0.014490536 -0.022875875 0.06356224 -0.08114735 0.03905909
0.07531018 0.040255345 0.057249732 -0.0068139196 0.048317883 0.010440932 0.06291803 0.069492266
0.07331285 -0.058825668 0.014644173 -0.10130832 -0.07263814 -0.0012262727 -0.05908419 -0.020561399
-0.012882228 -0.0020426991 0.0008883742 0.030726558 0.0747545 -0.030986676 -0.00022742155 -0.06540036
-0.02397114 0.08406933 -0.075879104 -0.051148176 -0.03937438 0.0598003 0.059392147 0.049138
0.031845067 0.08764195 0.027124163 -0.0011134049 0.06333677 -0.09186506 0.04118102 -0.04317156
0.053373206 -0.080516584 0.022172002 0.09908721 -0.02729568 -0.065000445 -0.07328321 0.05429226
0.012264797 -0.023477087 0.014653875 -0.023406833 -0.07462139 -0.069558434 0.044849496 -0.07359932
0.07344551 -0.0551338 0.013449049 0.012501395 -0.0073317164 0.08889722 -0.06117452 -0.052519638
-0.0105788885 -0.06805705 -0.0056745927 -0.009792455 -0.09219724 -0.07977824 0.018021138 -0.0024289223
0.035627324 -0.05019399 -0.02703178 -0.03394655 -0.08735681 -0.028408617 -0.05318654 -0.088180035
-0.07699455 0.063963756 -0.028742692 -0.082124546 0.055141274 0.007445727 -0.030175515 -0.049501278
-0.07998924 -0.08322489 -0.073675305 -0.074824624 -0.03980674 -0.051495705 0.029333042 -0.0066765924
0.033974037 -0.037205108 0.022654347 0.057752896 -0.06887377 0.06933308 -0.042463 0.059254542
0.04383018 0.0010287064 0.016135547 -0.023514658 0.024784276 -0.042607214 0.00404854 -0.030333253
-0.05755908 0.062567785 0.0028994756 0.024994863 0.024121782 -0.023793863 -0.031321544 -0.04923351
0.034893 -0.07548301 -0.042042606 0.049467634 -0.07512988 0.029095007 -0.08657613 -0.061148882
-0.034389544 -0.09164743 0.023136234 -0.08043446 0.07979073 -0.060579147 -0.06469733 -0.051905647
-0.086759865 0.017627079 -0.06954532 -0.072123 0.014883658 0.039933056 -0.024586735 0.083076015
-0.08480856 -0.020561809 0.007268128 -0.061622083 -0.0796465 -0.06907184 0.0097501865 -0.045631826
-0.047501784 0.059287805 -0.060363937 0.046304826 -0.020169007 0.064467296 0.05836656 0.021351824
-0.0385467 -0.026065085 -0.061018825 -0.012983861 0.07873128 -0.054399513 0.090315185 0.065902844
-0.055862654 0.016640857 0.04636807 0.048430037 -0.008532568 -0.020314148 -0.08553755 -0.0813085
0.08172469 -0.048033983 -0.017457927 0.07629466 0.08059718 -0.05386732 -0.018213762 -0.024600118
0.027920421 0.037175506 -0.050974898 -0.10176625 -0.054448385 -0.050208073 -0.0017176426 0.0766209
0.06486095 -0.06939716 0.036397763 0.04865841 0.0861629 0.059474304 0.014693318 0.029449472
0.046475116 -0.0810269 0.048674528 -0.07997046 -0.018409543 -0.07132706 -0.07726482 0.06623708
0.005896778 0.008892697 -0.08968734 -0.035575084 0.026336452 0.039570495 0.03591974 -0.056908146
-0.03178905 -0.006355453 0.04286499 0.014622276 0.068454444 0.008137862 0.012336771 0.001215621
-0.07559415 0.054985248 0.059411936 -0.0331903 -0.012158797 -0.0017567246 0.021613654 0.07108098
-0.010719554 0.07167505 0.061942235 -0.012036803 -0.05656523 0.03241073 -0.052945923 -0.036421336
0.08246477 -0.06585188 0.024228975 -0.05273404 0.07415781 0.08384166 0.063734055 0.03405492

bias_ih_l1 f4 [512]
00000000: c041 db3c 8fc4 9c3b 0522 12bd fd96 91bd
00000010: 4a35 fabb 6dcf 713d c3a3 0b3d e9ee d73b
00000020: d8b4 26bc 0d97 403d f16a 96bd 8933 8f3d
00000030: 56b3 22bc 52ec 04bd 485e 6fbd 4c17 0a3d
00000040: a909 56bc 69ce c7bc 0694 ad3d 9f78 3f3c
00000050: a7ab 1fbd c914 63bd 97ef 07bc c68d e5bc
00000060: 0f48 aa3d 6b26 19ba 8579 1a3d f005 4ebd
00000070: 7860 1e3d d815 45bd 143c f43b 1966 803d
00000080: 4aee 283d 94bd d9bc 7a33 bebc 70b7 6a3d
00000090: 0cf2 4a3d bc37 7cbc 9a80 293d 4a91 923d
000000a0: 89d3 bbbd 6222 1f3d 4350 01bd 0a09 9e3d
000000b0: 61c9 943d 0e37 03bd b257 68bd 6a49 053d
000000c0: 8904 513d 770d b83d e75d 5eb9 a807 273d
000000d0: cc18 e83c 0ecf 993d 315e b73c c858 7fbd
000000e0: 92be 523c c1ac 78bd f63a 8abd 7c3d f73c
000000f0: a2a8 a03d 9b12 e53b 5e13 6f3d 8f20 6a3d
00000100: 0fff 033c c7dd 7f3c 9720 c73d 65b9 8a3d
00000110: 1768 eabb 3a63 7cbd 8b15 c6bb de50 aabc
00000120: 2473 75bd 73d8 70bc 023c fb3b ef72 c23c
00000130: bcb4 c03d c1e3 5dbd c3ea 0b3d 3294 ca3d
00000140: e410 963d f2cc c0bc cc78 1abd 450d 45bc
00000150: 5a71 a73d 7263 41bd 6a0a 723d e2bc 95bc
00000160: 321f 4bbc 5c1d 0f3d 66c9 23bd c39b 2fbd
00000170: 40cf f33c 21b3 793d a6d0 bf3b 5e2d 8c3d
00000180: 0e65 9b3d 9155 5bbd 1a61 a73d 2e26 7e3b
00000190: 9d91 d23c 69df 89bd 6219 57bd 56e2 3dbd
000001a0: afed 863d 3329 a03a 9c62 2b3c da35 933d
000001b0: d4f7 6cbd a14d 1c3d 0e62 b13d f383 34bd
000001c0: 242a 08bd 99dc 75bd b85f 083d 7a2b 99bd
000001d0: ce74 0f3c 018d cb3d e845 e7bc f2be 0e3d
000001e0: a75b 1d3d b24c 8d3c 3697 373d ebc6 e63c
000001f0: ba6a 21bc 9510 0c3d 4877 473d 4df4 a83d
00000200: de19 8f3d 246e 843d b77b 743d 1322 71bd
00000210: bc19 9cbd 1937 7c3d 942d 6d3d 7dcc f9bc
00000220: 9671 a33d 2e4e 513c 997f ebbc 4a22 c4bc
00000230: 29ab 073d a8cd 71bc ed42 22bc 8e07 a63d
00000240: 422b 14bc b4cb 933d 065c 703d 9526 76bd
00000250: 84cd 593c a309 44bd 71f5 89bc a05c 64bd
00000260: db2b 3cbd 41a6 b63d cd3a 913d a15f 8c3c
00000270: e01f 2abc a5de 933d 4264 023d 4d6f 883b
00000280: 020c 53bd 9774 943d 6824 c33d 8270 403d
00000290: 275f 983c bb70 a9bd 7dd1 55bd 3f8f 3cbd
000002a0: 8b19 fabc f96e 963b 5f03 6fbd 86f0 573c
000002b0: 4806 543d f432 f3bc 9500 003d 0e56 30bc
000002c0: 4f62 67bd 857b 623c 3af8 0fbd f1d4 0bbd
000002d0: 0f8f 44bd 2b68 b4bc cdd2 a8bc 05d3 04bd
000002e0: 4546 613d f1a3 923d bbd6 5d3d 966c 66bd
000002f0: f45a 43bc b069 933d b7b1 3cbd 5121 ac3c
00000300: 738f 723d d7bc af3d f4cb 14bc 277e 15bd
00000310: 3054 8f3d 168f aa3c f0ec 933d d6d0 23bd
00000320: 7d57 cdbc 534e 28bc 1aeb 393d fdce a4bd
00000330: ba21 ab3d 4aa3 67bd 3a86 4a3d 0c67 8e3d
00000340: 990f 5cbb d435 873d 9128 51bd 5b15 fbbc
00000350: 0f37 27bc 9f29 84bc 0c4c 093d 1803 5cbd
00000360: e7fc b93c 50db 27bd 15bf d6bc 3c77 9abd
00000370: 8e06 a6bd f6c3 b23c 598f 8e3d 554c b83d
00000380: bd96 133d aa2a b23d 663e 4e3c 25b0 5bbd
00000390: 5eeb 4bbd 087d b33d bcf8 30bd ce5f f8bc
000003a0: 8f0d b6bc 56ca 88bd 6f44 44bd 188f 3e3c
000003b0: 0b23 10bd 71da eabb 6518 903c 2f91 533d
000003c0: 0635 e23c da91 863d 6fc6 893d 680e e73b
000003d0: ac87 52bc 7760 57bc 325e 883b 1edb 11bc
000003e0: 544f 533d fe37 d1bc b99b 4c3d f90b 9ebd
000003f0: beca d5bc 119e e6bc 5b0f 90bd 1a85 b43c
0.02676475 0.004784174 -0.035676975 -0.07108877 -0.007635747 0.059035707 0.034091722 0.0065897596
-0.010174952 0.047019053 -0.07344616 0.069922514 -0.009930452 -0.032451935 -0.058439523 0.033713624
-0.013063827 -0.024390416 0.08475499 0.011686473 -0.03898206 -0.055439744 -0.008296869 -0.028021704
0.08314525 -0.00058422115 0.037713546 -0.05029863 0.03866622 -0.048116535 0.007453451 0.062694736
0.041242875 -0.026579656 -0.023217905 0.057303846 0.04954724 -0.0153941475 0.04138241 0.07156618
-0.091712065 0.03885115 -0.031570684 0.07716568 0.072649725 -0.032034926 -0.056724258 0.032540716
0.051029716 0.08986943 -0.00021206551 0.040778786 0.028332137 0.07510196 0.022383781 -0.062340528
0.012862818 -0.060711626 -0.06749527 0.030180685 0.07844664 0.0069907433 0.05836808 0.057159957
0.008056416 0.015616841 0.09723013 0.067736425 -0.0071535218 -0.061618067 -0.0060450486 -0.020790514
-0.05992426 -0.014700043 0.0076670656 0.023736445 0.09409472 -0.05417228 0.034159433 0.09891547
0.073274404 -0.023535226 -0.037712857 -0.0120270895 0.08175917 -0.04721398 0.059091963 -0.018278543
-0.012397574 0.03494011 -0.03998699 -0.042873155 0.02976191 0.060961846 0.0058537303 0.068445906
0.07587634 -0.0535484 0.081728175 0.003878008 0.0257042 -0.06732065 -0.05251444 -0.04635843
0.06588303 0.001221931 0.010460522 0.07188006 -0.057853535 0.03815997 0.086612806 -0.04407115
-0.033243313 -0.06002483 0.03329441 -0.074789956 0.008755876 0.09939004 -0.028231576 0.03485007
0.038417485 0.017248485 0.04482194 0.028171023 -0.009852106 0.0341955 0.04869774 0.08249722
0.06987356 0.0646632 0.059688296 -0.058870386 -0.07622096 0.061575983 0.057904795 -0.030493015
0.07980649 0.012774987 -0.028747367 -0.023942132 0.033122215 -0.014758505 -0.009903652 0.0810691
-0.009043517 0.07216588 0.05868151 -0.06009539 0.013293628 -0.047860753 -0.016840668 -0.055752397
-0.04594026 0.08918429 0.070912935 0.017135443 -0.010383576 0.072202004 0.031833895 0.0041636587
-0.051525123 0.072488 0.09528428 0.046982296 0.01860006 -0.08273455 -0.052201737 -0.046035048
-0.030529758 0.0045908657 -0.058352824 0.013179904 0.051763803 -0.029687382 0.031250555 -0.010762705
-0.05649024 0.013823395 -0.035148837 -0.034138624 -0.047987994 -0.022022327 -0.02060833 -0.032427806
0.054998655 0.071601756 0.05415986 -0.0562559 -0.01192354 0.07197893 -0.04606792 0.02101198
0.059218835 0.0858094 -0.009081829 -0.03649726 0.06998479 0.020820182 0.072229266 -0.039994083
-0.025066132 -0.01027258 0.045390226 -0.080472924 0.08356042 -0.05655221 0.049444415 0.069532484
-0.0033578633 0.06602064 -0.051064078 -0.030649832 -0.010205998 -0.016133128 0.03351979 -0.053713888
0.022703601 -0.040980637 -0.026214162 -0.075422734 -0.08106719 0.021821957 0.06960935 0.08998934
0.036032427 0.08699544 0.012588119 -0.05363478 -0.04978501 0.08764082 -0.04320596 -0.03031912
-0.022223262 -0.066792175 -0.047916826 0.011630796 -0.03518967 -0.0071671535 0.017589757 0.05165213
0.027613174 0.06570788 0.06727301 0.007051278 -0.0128497295 -0.013145558 0.0041616196 -0.008902339
0.051589325 -0.025539394 0.049953196 -0.07717127 -0.026097652 -0.028151544 -0.07034179 0.022036124
