stockforecasting/300446_model.pkl (torch, 858496 bytes, 14 tensors)

weight_ih_l0 f4 [512, 4]
000000 61 da 66 bd 1b f0 59 3d 49 09 00 b8 31 3d 8d bd
       -0.056360606 0.053207498 -3.0526226e-05 -0.06896437
000010 32 57 6d bd 80 76 2e 3c 10 2f da 3c 25 60 af bc
       -0.057944484 0.01064837 0.02663377 -0.02140815
000020 5c c7 21 3d bd 72 b3 bb d2 e6 5d bd 67 67 66 bd
       0.039496765 -0.0054763244 -0.054175206 -0.056250956
000030 1c 64 22 3d 04 b9 9b 3d dd 9e 17 3d 5d 5b 5b bd
       0.039646253 0.07603648 0.03701674 -0.053553928
000040 dc d7 ac 3c 59 09 0c 3d be a6 a7 3d 04 f4 46 3d
       0.021099024 0.034188602 0.081861004 0.048572555
000050 ef c1 0f 3d 74 57 4a 3d 03 aa ae 3d a7 51 81 bd
       0.03509706 0.049399808 0.08528521 -0.06314402
000060 cc d2 59 3d fc 98 1e bc b5 c9 36 bd 36 40 8e bd
       0.053179547 -0.009680029 -0.044625957 -0.06945841
000070 08 5b 62 3d 7c de ab 3c 79 89 e0 3c 70 00 92 bd
       0.055262595 0.020980112 0.027409302 -0.0712899
000080 27 8c 07 3d 90 28 c9 3c 51 a9 ca 3c b5 be e3 3c
       0.033092644 0.024555475 0.02473894 0.027800897
000090 07 8e 50 3d cf a0 b5 3d 69 51 50 3d aa ca 85 3c
       0.050916698 0.088685624 0.05085889 0.01633199
0000a0 21 e8 e3 ba 32 3d 79 3d 04 5d 05 3b 90 74 6e 3d
       -0.0017387905 0.060849376 0.002034963 0.05821663
0000b0 78 6d 95 bc c1 c6 93 bc 6e e6 35 bd ce 45 53 3d
       -0.018240675 -0.01803911 -0.044409208 0.051580243
0000c0 4d 86 58 bc 3a 19 ad 3d b4 94 36 bd 8f 32 5c bd
       -0.013215614 0.08452077 -0.044575408 -0.053759154
0000d0 2a e4 6d bd e8 0f 63 3d 15 b7 87 3b ab 8a 98 bb
       -0.058078922 0.05543509 0.004141698 -0.0046552024
0000e0 e3 95 ae bd 71 e0 b5 bd 55 83 5d 3d 35 79 76 bd
       -0.085246824 -0.088806994 0.054080326 -0.060174186
0000f0 fe c2 1a 3d 48 af 96 3d 9a 6f 37 3d 8a 39 82 3d
       0.037783615 0.07357651 0.044784166 0.06358631
000100 a6 74 c4 bd cb f7 90 bd 57 4f 98 bd 1e 78 49 3d
       -0.095925614 -0.07078513 -0.07437008 0.04918682
000110 bb bc 1c bd b9 73 f8 3c 91 a7 cb 3b fc b8 ff bc
       -0.038265925 0.030328618 0.006215044 -0.031216137
000120 ac f7 56 3c c8 fc 49 bd 0b 31 3f bd 7c 03 50 bc
       0.013120573 -0.049313337 -0.04667763 -0.012696143
000130 b3 62 2a bd 4c 64 36 3d 9d 92 80 3d ef 02 74 bb
       -0.041598033 0.044529244 0.06277964 -0.0037233194
000140 65 01 2f bb 35 bf 3f bd 2d 11 99 bb 89 9e 27 3d
       -0.0026703712 -0.04681321 -0.004671237 0.040922675
000150 b5 24 d6 bc 47 74 98 bd ca ba d3 3c c5 2c e1 b9
       -0.02614055 -0.07444053 0.025845904 -0.000429487
000160 0e 53 67 3d 11 af 8d 3d c3 4c 88 bc 09 ea 2f 3d
       0.05647569 0.06918157 -0.016638165 0.042947803
000170 83 c3 69 bc 04 07 86 3d f7 d8 a0 3d 0c ba 11 bd
       -0.014267805 0.06544307 0.07853883 -0.03557782
000180 c3 f9 2f bc 01 bc 29 3d 7f ba 8e bd bc 37 6a bd
       -0.0107407 0.04143906 -0.06969165 -0.05718206
000190 96 58 65 bc 79 ce 8e 3c d0 21 40 3d f8 17 a4 bc
       -0.013998171 0.017432438 0.046907246 -0.02003096
0001a0 96 00 90 3d dd ba 01 3d b6 81 85 3d 33 5b 82 bc
       0.07031362 0.031672347 0.06518881 -0.015912628
0001b0 85 c5 b7 3d 19 ed 18 bc 9f bb 39 3d 32 08 df bc
       0.08973221 -0.009333872 0.045344945 -0.027225588
0001c0 79 3d 8b bc 4c 5e af bb 3c d4 bf bc f3 b4 a2 3d
       -0.016997086 -0.0053518172 -0.02341663 0.079446696
0001d0 fb 42 8b 3d 50 ef 51 bd a7 7f 7b bd 24 2c 96 3c
       0.06799885 -0.051253617 -0.061401036 0.018331595
0001e0 42 14 87 3c 0f bb 09 bd 26 33 9a 3d 07 f0 d2 3b
       0.016489152 -0.03362566 0.07529287 0.006437305
0001f0 97 ed 79 3d 41 4f 72 bd ac 11 4c 3d 8b 8f 82 bd
       0.0610176 -0.059157614 0.04982154 -0.06375035
000200 70 73 a5 3d 37 5f 33 bd 78 c1 45 3d e0 e9 eb 3c
       0.080786586 -0.043791976 0.04828021 0.028798044
000210 cf e8 a0 3d 6e 4b e0 3c 9b 62 91 bb 1d 0e 05 3d
       0.07856905 0.027379718 -0.0044368035 0.032484163
000220 78 76 2e bd 80 30 c2 3b df b5 41 3c e9 4d ce 3d
       -0.04259345 0.005926192 0.011823147 0.10073454
000230 bc f8 8f 3d 5e 8e 19 bd cb 50 49 bd 44 f5 4e 3d
       0.07029864 -0.037489288 -0.049149316 0.050526872
000240 51 11 9e 3d ca c5 1c bd 2e a0 f2 ba 0a 6e b6 3d
       0.077181466 -0.038274564 -0.0018510872 0.08907707
000250 47 f0 fa 3b 3e a3 6f 3d e4 69 a1 3d 3a c5 83 bd
       0.007658038 0.05850529 0.07881525 -0.06434102
000260 42 6f b2 bd 66 ad 85 bb 5a f1 1f 3d 34 ff a1 3d
       -0.08712627 -0.0040795086 0.03904853 0.07910004
000270 49 8b f5 3c 31 c3 05 bd 70 0b f2 bc 87 4f ca bc
       0.029973643 -0.032656852 -0.02954647 -0.024696125
000280 8c fe 47 bc 57 28 64 3d be a9 37 bd e5 00 81 3d
       -0.012206685 0.055702534 -0.044839613 0.06298999
000290 e0 b2 2a bd 1f 91 26 bc dd 67 4b 3d e9 c9 a7 3d
       -0.041674495 -0.0101664355 0.0496596 0.08192808
0002a0 2d 49 c5 3d 3f 92 8e 3d 17 c4 8f bd d7 68 60 3d
       0.09633098 0.06961488 -0.07019823 0.054787483
0002b0 da b5 90 3a 5f 0a 19 bd fb b8 a3 3d de a9 7a 3b
       0.0011040524 -0.037363406 0.079942666 0.0038248221
0002c0 aa 6d 56 bc 83 67 be 3d db 03 40 bd 7e 91 85 bc
       -0.013087669 0.09297087 -0.046878677 -0.016304728
0002d0 c9 62 10 bb 5e 1a 7d 3b d3 ab 82 bd 05 c4 a5 3b
       -0.0022031537 0.0038620452 -0.06380429 0.0050587677
0002e0 56 1b 12 bc eb 5e c9 3d c1 77 24 bd dd 7b 96 3b
       -0.00891765 0.09832557 -0.04015327 0.0045924024
0002f0 e9 91 a2 bc e4 32 18 3d c1 83 d8 3d 75 84 c7 bc
       -0.019844966 0.037157908 0.10572005 -0.024355153
000300 2f bd e1 b8 7e 92 92 bd c8 dd ec 3c b5 49 37 bd
       -0.00010764074 -0.071568474 0.028914347 -0.044748027
000310 c5 e4 af bc 6b 2c 81 bb 28 27 90 3c ea a0 1c bd
       -0.02147139 -0.0039420626 0.017596796 -0.038239397
000320 d9 29 69 bd b5 c3 10 3c c6 9a a4 3d 36 9c 58 bd
       -0.056924675 0.008835723 0.08037333 -0.05288335
000330 2e 19 80 bd 17 d9 1a 3d c8 e8 3c bd e0 5e 06 bd
       -0.06254803 0.03780469 -0.046120435 -0.032805324
000340 2e 47 45 bd 5f 64 ba bc 1e 14 a1 3b 3a 5c c7 3d
       -0.048163585 -0.022752939 0.0049157282 0.09734388
000350 7a 85 bc bb cd 96 6b 3d c4 fa ed 3c 92 19 b9 3c
       -0.0057532163 0.05751686 0.029050238 0.0225952
000360 6b 90 eb bc b6 23 a3 bd 08 0b 50 3d 54 16 7c bd
       -0.028755387 -0.07965796 0.05079177 -0.06154473
000370 f5 d6 67 3d 4b 8d 0d bc 0b 3b 1f bb c8 44 09 bd
       0.056601483 -0.008639644 -0.0024296667 -0.03351286
000380 3a ad 79 39 5c a9 12 3d a5 2d 12 3d c2 2f 17 3d
       0.00023811022 0.035806045 0.03568806 0.03691078
000390 76 d6 e2 3c cb b7 06 bd df 17 bb bc 25 67 b5 bb
       0.027690154 -0.032890122 -0.022838531 -0.0055359774
0003a0 c3 ec 66 3d 95 81 7f bd a8 62 19 bd 32 10 f3 bc
       0.056378137 -0.06237944 -0.0374476 -0.029670808
0003b0 7c de 11 3d 81 2a 50 bd 6d 50 6c bd 5b 02 a3 3d
       0.03561257 -0.050821785 -0.057693888 0.07959434
0003c0 90 2b 7e bd b9 cd 6d bd 51 40 a8 bc 5c 1e 3e 3d
       -0.062053263 -0.05805752 -0.020538481 0.04641567
0003d0 2e 22 8f 3b e0 bf bb 3c 02 d7 a0 bd 93 30 c4 bc
       0.004368088 0.022918642 -0.078535095 -0.023948943
0003e0 26 4b 99 3d d0 cf e4 3c 4c 77 a9 3d 6a 9b 4e bc
       0.074850366 0.027931124 0.08274707 -0.012610296
0003f0 3f 2d 04 bd 41 dd b3 3c da a2 9f bd 26 66 e3 bb
       -0.032269713 0.021956088 -0.07794733 -0.0069396673

weight_hh_l0 f4 [512, 128]
000000 49 02 78 bd f0 73 09 bd 2a 98 89 bc 1a 52 de 3b
       -0.060549054 -0.033557832 -0.01679619 0.0067846896
000010 95 dc aa 3d 9b 76 8f 3d 84 b8 3e 3d 6b ef 1a bd
       0.08342854 0.07005044 0.046562687 -0.037825983
000020 89 df 4f 3d 18 88 57 bd 02 ab df 3c 17 62 b0 3d
       0.05075029 -0.052620023 0.027303223 0.08612459
000030 0c 73 95 bc c6 3c a3 bc cc 50 98 3d 8e dc b5 bd
       -0.018243335 -0.01992644 0.07437286 -0.08879958
000040 3d dc be 3c f5 38 7a bc 7b da 8d bc b5 dc a0 bb
       0.023298377 -0.015272369 -0.017316094 -0.004909123
000050 d7 b0 62 bd 8e 02 94 3d 1e ab d0 bc a1 15 c1 bc
       -0.05534443 0.0722705 -0.02547222 -0.023569884
000060 2b 77 4f 3d d3 9f 91 3d 97 73 bd 3d 86 53 4a 3c
       0.050650757 0.07110562 0.09250563 0.012349015
000070 1a a8 1b 3d 4b 80 bb bc 70 95 a4 3c f7 78 80 3d
       0.03800211 -0.022888323 0.020090789 0.06273072
000080 62 d1 a8 3d f5 b6 59 ba d2 b0 56 3d a1 17 41 bb
       0.082430616 -0.0008305156 0.052414723 -0.0029463547
000090 7f 51 48 3d e9 cc a2 3d 64 c2 45 bc 74 27 61 3d
       0.048905846 0.0794924 -0.012070272 0.054969266
0000a0 e9 5a 48 3d 02 f1 67 3d 85 08 36 bd 6d 46 8e 3d
       0.048914824 0.056626327 -0.04444172 0.069470264
0000b0 33 74 18 3d 3e c2 ca bb 8c 41 45 3d 9b 19 c5 bd
       0.03722019 -0.0061877063 0.048158213 -0.096240245
0000c0 d0 8d 5a 3d db 68 93 39 a1 7d 60 3d c4 d4 f5 bb
       0.0533579 0.00028116148 0.05480731 -0.0075021703
0000d0 a6 15 a2 3c 1c 98 ec 3c 86 e8 97 bc 07 dd 88 bd
       0.019785713 0.028881125 -0.018543493 -0.066827826
0000e0 61 bb 14 3b c6 7a eb 3b ed 9f be 3b 24 45 66 3d
       0.0022694694 0.0071862666 0.0058174045 0.05621828
0000f0 cd ad d4 bc a4 69 3f 3c 75 08 96 3d bf 2c ab bc
       -0.02596178 0.0116829015 0.07325832 -0.02089536
000100 b9 c5 ff bc 5a 3d c4 bd af cf d2 bc c8 42 c9 3d
       -0.031222211 -0.095820144 -0.025733797 0.09827191
000110 94 ca 0d 3b f1 5f a9 bd 99 be 82 bd 7c ec 9b 3d
       0.0021635639 -0.082702525 -0.0638401 0.07613465
000120 e1 fd 3b 3a 25 a3 b7 3d 6c 4f e8 bb 17 e3 2d bd
       0.0007171315 0.08966664 -0.007089546 -0.042452898
000130 33 ff 84 3d ca 58 05 3d 44 2b 8d bd f2 72 3b bd
       0.06493988 0.03255538 -0.06893018 -0.045763917
000140 c0 f3 f3 3c f0 02 9e 3d 74 db 3f 3d e3 1b a5 bd
       0.029779315 0.07715404 0.046840146 -0.080619596
000150 c8 62 26 3d 89 6a cd 3d 15 2b 0b bc a7 a3 6e 3d
       0.04062155 0.100300856 -0.008494158 0.05826154
000160 ea f8 77 3c 0f e1 3a bc aa f4 22 3d c6 f6 01 3d
       0.015135029 -0.011406197 0.03978411 0.031729482
000170 40 23 3e bd 7d 5c 17 bd 74 92 96 bd 24 77 31 bc
       -0.046420336 -0.036953438 -0.073521525 -0.010831628
000180 76 7d 39 3d 8e 80 67 bd e3 80 d3 bc c0 2d 00 3b
       0.045285664 -0.056519084 -0.025818294 0.001955852
000190 cf 33 19 bc 8e d5 8a bc d0 4a c7 3c ed 11 5f 3d
       -0.009350731 -0.016947534 0.024327666 0.054460455
0001a0 d7 00 b0 3c 9d f8 c7 bd 4f 25 5f bd 46 73 7b 3d
       0.021484775 -0.09764216 -0.05447894 0.06138923
0001b0 fe 74 41 3c 1c 34 78 3d b8 72 b0 bd b9 17 e5 3c
       0.011807678 0.06059657 -0.08615631 0.027965413
0001c0 fa ff 90 3d b3 10 5a bd fe 89 80 bd 5e c0 91 3d
       0.07080074 -0.053238582 -0.0627632 0.07116769
0001d0 f4 ca 91 bc 44 6b ab 3c ec 76 8e bc 53 b0 5a bc
       -0.01779697 0.020925172 -0.01739069 -0.013347703
0001e0 80 29 67 bc bb e9 60 3d 84 d4 c0 3d 72 c2 f5 bc
       -0.014109015 0.054910403 0.09415534 -0.029999945
0001f0 d3 c5 33 bd c4 7b ca 3d 49 01 c6 bd 20 c1 3e bd
       -0.04388983 0.09886888 -0.09668214 -0.046570897
000200 f3 c8 71 bb e2 c1 04 3d 5e 30 81 3d 37 9a ba 3d
       -0.0036893457 0.032411464 0.063080534 0.091114454
000210 cf 2c 72 bd 40 2f 1e bb 50 05 63 bd ce f0 5c bd
       -0.059124764 -0.002413705 -0.05542499 -0.053940587
000220 96 f6 d7 3b 21 3c 70 bd 44 4a 8b 3d ae 25 3e bd
       0.0065906746 -0.058651093 0.068012744 -0.046422653
000230 a4 52 43 bd 57 fc e9 b8 9f fe f2 bb 89 04 1a 3d
       -0.047686234 -0.00011157308 -0.007415607 0.03760198
000240 6c 99 9e 3d 57 23 62 bd a1 6b dd 3c 78 5f aa bd
       0.07744107 -0.055209484 0.02702886 -0.083189905
000250 2b cd 98 bd 79 45 aa bd 11 e3 30 bc e5 a0 37 3d
       -0.07461008 -0.08314032 -0.010796324 0.044831175
000260 3e 68 0a bd cb eb 98 3c d3 3e 5e 3d fc 46 ab bd
       -0.03379082 0.018667122 0.054259133 -0.083631486
000270 db 0f 11 bd 23 85 87 bd 90 34 b9 3b 9f 21 b8 bc
       -0.03541551 -0.06617191 0.005652018 -0.02247697
000280 3f 4b 45 bd 65 e1 82 bc 34 88 34 bd 70 bf 69 bd
       -0.048167463 -0.015976617 -0.044075206 -0.057067335
000290 00 d5 32 3d 91 17 29 3d 33 ee 9e 3d ce eb 5f 3d
       0.043660164 0.04128224 0.07760277 0.05466824
0002a0 4d a7 47 3d fb cd bd bd 49 96 63 bc a3 c7 9d bd
       0.048743535 -0.09267803 -0.013890811 -0.07704093
0002b0 19 2c 04 bd 46 8e 21 bd 37 1f 27 bd 0f 81 ee 3c
       -0.032268617 -0.039442323 -0.040801253 0.029114274
0002c0 03 06 f9 bc 23 d2 ff 3c 66 c6 84 3d bd be 80 3d
       -0.030398374 0.03122813 0.06483154 0.062863804
0002d0 64 ac 5c 3d 8e d4 39 3d a6 a9 6d 3d 58 84 ca bc
       0.053875342 0.045368724 0.058023117 -0.02472131
0002e0 dc be be 3d 6b 2a f6 3c d7 c3 3a bd 67 2e 8c 3c
       0.09313747 0.030049523 -0.045596924 0.01711197
0002f0 af 00 a1 bd f2 dd 62 3d f3 df 6d bd eb 32 38 3c
       -0.078614585 0.055387445 -0.058074903 0.011242609
000300 33 1f 94 bd 14 17 f3 3c 6b 4b e9 3b 76 b2 a1 3d
       -0.07232513 0.02967409 0.007119586 0.07895367
000310 d6 54 a2 bc d6 2b 73 3b 9e 1d 07 3c 6a a3 08 3d
       -0.019815844 0.0037104986 0.008246807 0.03335897
000320 19 be 55 bb 1b 9c 79 bc 79 ff 7f bc b2 a6 a8 bd
       -0.0032614528 -0.015234972 -0.015624874 -0.082349196
000330 d7 d3 72 bc 1e 40 47 bd 61 b0 1c bd 09 53 90 bd
       -0.014821014 -0.04864513 -0.038254146 -0.07047088
000340 8d 48 27 bd ea 19 2c 3d c2 87 a6 3d 71 49 1c bc
       -0.040840674 0.0420169 0.081313625 -0.009538994
000350 1e aa a9 bd 46 45 a5 ba d6 e5 9a 3d 59 bd 48 3d
       -0.082844004 -0.0012609146 0.07563369 0.0490087
000360 35 d4 39 3d 6a a6 a5 3d bc 2e b3 bd 71 d4 90 3c
       0.045368392 0.080883816 -0.08749148 0.017679425
000370 04 7d 30 bd eb 9a e9 bc fd 40 40 3d a3 4c 26 bd
       -0.043087974 -0.028516253 0.046936978 -0.04060043
000380 21 3d ff 3c 2d 3f a8 bc 5b 88 96 bd 50 14 80 3d
       0.031157078 -0.020537937 -0.073502265 0.06253874
000390 a8 51 a9 3d 57 f7 99 bd 2c 36 e2 3c d2 b5 83 3c
       0.08267528 -0.075178795 0.027613722 0.01607791
0003a0 ea 49 fe bc 8b 6e 70 bd 43 d8 c5 bb e7 20 54 bc
       -0.031041104 -0.058699172 -0.0060377433 -0.012947298
0003b0 52 62 ed 3c 8b ad 12 bd a8 2c 86 bd d2 d4 14 3a
       0.028977547 -0.035810035 -0.06551486 0.00056774647
0003c0 79 9f 42 bd 07 aa 91 bd 38 11 48 3d 5c 98 25 3d
       -0.047515366 -0.07112508 0.048844546 0.040428504
0003d0 64 b9 45 3c 86 fa 54 bd f0 31 49 3d 8b 9b aa 3d
       0.012068126 -0.05199673 0.04911989 0.08330449
0003e0 a6 5d 81 bd fe 25 a8 3c 88 74 d2 3b 83 a3 c2 bc
       -0.0631669 0.020525929 0.006422583 -0.02375961
0003f0 61 75 ab 3b ed ab 0f 3d eb 52 36 3d 53 0a 04 bd
       0.0052324985 0.03507607 0.04451267 -0.03223641

bias_ih_l0 f4 [512]
000000 35 f6 d7 bc a6 02 8d 3c 54 dc 72 3c 96 79 99 bd
       -0.026362518 0.017213177 0.014823038 -0.07493894
000010 5f ed b0 3d db dd 9c 3d c8 fa 48 bc 75 46 91 3d
       0.08639025 0.07659503 -0.012266822 0.07093517
000020 dc 29 9d 3d 20 c9 a5 3d 2c 9b a7 3d 13 66 db 3c
       0.07674 0.08095002 0.081838936 0.026782071
000030 c1 7c 37 3d 90 07 04 3d 39 82 81 3c 4b 09 97 3d
       0.04479671 0.032233775 0.015809165 0.07374819
000040 cc 87 1a 3d 77 51 9d 3c 57 b4 86 3d 83 0f c4 3d
       0.037727162 0.019203885 0.06577366 0.09573271
000050 f2 eb 56 bd fa 06 80 bd df 17 90 3d 52 f0 47 3d
       -0.05247111 -0.06251331 0.07035803 0.04881317
000060 ac 02 83 3b 1c 53 1f 3c 68 3d b2 3d 78 61 aa 3d
       0.0039981212 0.009724405 0.087031186 0.08319372
000070 9b cf 97 3d dc b4 8c 3d 62 3b 91 bc 4f 8a 86 bd
       0.074126445 0.06870434 -0.017728511 -0.06569349
000080 e1 49 cb bc ea 05 a5 bc 03 de 93 3d 7f b5 93 3d
       -0.024815502 -0.020144422 0.0722008 0.07212352
000090 63 75 9c bd a5 92 35 3d 7f a1 25 39 3e c1 06 bc
       -0.07639577 0.044329304 0.00015795788 -0.008224783
0000a0 4b cb 3c bd 22 d2 55 3d f6 95 c8 3c a2 92 15 bd
       -0.046092313 0.05220235 0.02448557 -0.036516793
0000b0 ac 6d 62 bd a1 3a 39 3d 4a a7 a3 bd 15 07 48 3d
       -0.055280373 0.04522193 -0.07990892 0.04883488
0000c0 30 a8 2e bd 9d c0 8d 3d 7f 21 84 bd b2 09 02 3c
       -0.042640865 0.06921504 -0.064517014 0.007936882
0000d0 09 ac 59 3d 81 0f 2d 3d 44 47 0c bd 5f 72 59 bc
       0.05314258 0.042251114 -0.03424765 -0.013271897
0000e0 ae 0d 34 3c 69 be 42 3d 4d f6 a8 3d 67 40 b5 bc
       0.01098959 0.04754487 0.08250103 -0.022125436
0000f0 02 28 13 3d f3 2a 87 bd 94 b2 ab 3c 23 51 bd 3d
       0.035926826 -0.06599989 0.020959176 0.09243991
000100 1d 69 ba ba ac d9 2b 3d 6c fc 36 3d c2 99 68 bd
       -0.0014222 0.041955635 0.044674322 -0.05678726
000110 ae 3b 94 bc 77 0c 91 bd ce 5c 50 3c b3 b1 ba 3d
       -0.018094864 -0.070824556 0.012717439 0.09115925
000120 92 f1 8e 3d ec ff 81 3d 38 cf 6c 3d 0d 3a 3e bd
       0.0697967 0.06347641 0.057814807 -0.04644208
000130 db 81 5d bd f6 83 a0 3c 93 8b 48 3d 78 95 66 3d
       -0.054078918 0.019594174 0.048961233 0.05629489
000140 c1 6e 3d bd 14 b8 99 3d 81 01 a6 bc 6f d3 fb 3c
       -0.0462482 0.07505813 -0.020264389 0.030740468
000150 8c 91 1a bd 21 3e 19 3d 81 73 08 bd e6 fa 02 3d
       -0.03773646 0.037412766 -0.033313278 0.031977557
000160 a6 5b 25 bd 16 21 6f 3d 4e 60 a0 bd 1f 8e 0d bd
       -0.040370606 0.058381163 -0.07830869 -0.034559365
000170 cd 44 be 3d f0 56 1a 3c 50 5f 04 3d 75 c6 86 3d
       0.092904665 0.009420142 0.03231746 0.065808214
000180 6c c9 14 3c 8e e5 b8 3d 56 20 a8 bc 7a 47 96 bd
       0.009081226 0.09028159 -0.020523231 -0.07337852
000190 60 24 06 3d de 0c 21 3d 14 ec 8f 3c 15 58 40 bd
       0.032749534 0.03931891 0.017568626 -0.046959
0001a0 7b 62 ad bc 36 d9 86 bd 74 09 7d 3d 3a 5c 24 3d
       -0.021165123 -0.065843984 0.061776593 0.040127017
0001b0 d5 8b ac 3c e1 00 32 3d 26 92 77 3d b8 fb 62 3d
       0.02106277 0.04345787 0.060442112 0.05541584
0001c0 f1 d5 dd 3a 0d 3f 93 3d d1 1a 0d 3d 4d 5e 95 3d
       0.0016924721 0.0718976 0.034449402 0.07293377
0001d0 b1 c1 a1 bd 7b 5f 82 bc 25 c5 c1 3c 88 81 93 3d
       -0.07898272 -0.01591467 0.023653576 0.072024405
0001e0 f7 99 5a 3c f9 77 0d bd 67 be b7 3d 4c 80 a9 3d
       0.013342372 -0.034538243 0.08971863 0.08276424
0001f0 af 30 cc bc 21 8b 0d 3d ae 03 ac bd b8 d1 b4 3d
       -0.024925558 0.03455651 -0.08399139 0.08829063
000200 7a d5 e8 bb c9 7f 4e 3c bb d2 37 bd f2 29 85 bd
       -0.0071055265 0.012603709 -0.044878703 -0.06502141
000210 15 03 3b bd 5b 11 8a 3c d1 b7 f3 bc 7e 81 ae 3d
       -0.045657236 0.016853979 -0.029750736 0.085207924
000220 d4 fe e1 bb da 87 93 bd da d3 91 3c 7e ed 89 bd
       -0.006896833 -0.07203646 0.017801214 -0.06734751
000230 49 0e 91 3d be 14 02 bd 92 86 8b bd 3a a8 51 bd
       0.07082803 -0.031758063 -0.068127766 -0.051185824
000240 cd f1 2c bc 8c e1 81 3d 3d 25 57 3b 06 f2 09 bc
       -0.010555697 0.06341848 0.0032828592 -0.008419519
000250 a1 ed 77 3d 24 a2 76 bd cf 79 60 3c 31 b6 91 bd
       0.060529355 -0.060213223 0.013700916 -0.071148284
000260 20 55 84 bd 1f f9 bb 3d 63 90 1f 3c b7 d2 3d 3d
       -0.06461549 0.091783755 0.009739014 0.04634353
000270 f2 0a 4f 3d e6 f5 7e 3d 3d b7 9c 3d d1 ab 55 3d
       0.050547548 0.062246226 0.076521374 0.05216581
000280 13 89 b0 3c 91 45 9d 3c 4c 78 aa 3d 9f 85 9c 3d
       0.021549737 0.01919821 0.08323726 0.07642674
000290 10 e6 2d 39 80 88 90 3d be ca 5d 3d 54 b8 5f bd
       0.0001658427 0.07057285 0.05414843 -0.05461915
0002a0 b8 7b b2 3d db 04 7f bd fa ae 5d 3d 88 bb 53 bc
       0.08715004 -0.06226049 0.05412195 -0.012923129
0002b0 da 40 c2 3d ff 17 95 bd 2d 04 48 bd 23 41 8c 3d
       0.09485026 -0.072799675 -0.048832107 0.06848361
0002c0 03 12 d7 3c 18 36 a0 bd 9c d2 a7 3d 33 16 a9 3d
       0.026253706 -0.078228176 0.081944674 0.08256187
0002d0 40 3a 21 bd d9 d4 b6 bc 37 e9 b2 3c fd f8 eb 3c
       -0.039362192 -0.02231829 0.021839721 0.02880525
0002e0 98 81 9b bc 09 08 c3 3d 3b 16 1b 3d 2a 54 30 3d
       -0.018982694 0.09523017 0.037862998 0.043049015
0002f0 c2 3d 89 3c e2 b3 fb bc 1e 6a 8a bd b1 23 cd bc
       0.016753081 -0.030725423 -0.067585215 -0.025041433
000300 90 cc 04 bc 14 3f 63 3d fa 54 65 3d b9 1b 83 3d
       -0.008105412 0.055480078 0.055989243 0.06401772
000310 3d 33 8a 3c bd bc fe 3a 11 cf bc 3d 71 d6 ae 3d
       0.016870135 0.001943491 0.09219182 0.08536995
000320 0b 6d b5 bc 93 d1 c4 3d ce a5 5e 3c 97 16 6a bd
       -0.022146722 0.096102856 0.013589336 -0.05715045
000330 9e 44 89 3c 6d d6 3f bc ac cf 87 bd 10 16 a4 3d
       0.016756352 -0.011708838 -0.06631407 0.080120206
000340 11 fc 50 bd e3 f3 68 bb cd 5f 06 bd 1d a3 d7 3b
       -0.05102164 -0.0035545758 -0.032806206 0.006580724
000350 06 da 92 3b 1b 27 15 bd 52 3a af bc 4b f4 5c bb
       0.004481557 -0.036414247 -0.021390114 -0.0033714946
000360 78 ff af bd 7f 2c 40 3d 5c 6d 4a 3d d7 d3 4d bd
       -0.08593649 0.046917435 0.0494207 -0.050250854
000370 c2 94 43 bd 70 13 3c 3c 46 5a 15 bd e8 f1 02 3d
       -0.04774929 0.011479244 -0.036463045 0.03196898
000380 ad d1 0f 3d 86 f1 15 3d 8f da 34 3d 3e e4 7c bd
       0.03511207 0.036607288 0.044153746 -0.061741106
000390 6b 6a 47 bd ee 61 5b bd 64 0a 20 3c f8 38 fe 3c
       -0.048685472 -0.05356019 0.009768102 0.031033024
0003a0 32 3a 4c bd 93 f0 b2 3d 8c 3d ca bc 1d 5c 2f bd
       -0.049860187 0.08737292 -0.024687551 -0.042812455
0003b0 97 99 1b bd 10 27 95 3d 0c cb 28 3d a6 6a 85 bc
       -0.03798827 0.07282841 0.041209266 -0.016286206
0003c0 e0 0e 62 3d a1 db db bc 35 a3 8b 3c 6c 61 a5 bd
       0.055189967 -0.026838126 0.017045597 -0.080752224
0003d0 18 c5 8e bc 2b 28 6a 3c 8e 8f eb b9 9a 27 79 bb
       -0.017427966 0.014291803 -0.0004492965 -0.003801799
0003e0 1d d6 ce 3c 9f 1e 8f bd 65 f1 8b bd 0d a7 1e bd
       0.025248582 -0.069882624 -0.06833152 -0.03873353
0003f0 6d fb ee bb 66 d2 a8 3d b6 63 92 3d 47 24 a8 3d
       -0.007293156 0.08243255 0.071479246 0.08210044

bias_hh_l0 f4 [512]
000000 6b 57 8f 3d c3 f6 97 3d fb af 02 3d 28 f4 89 3d
       0.069990955 0.07420113 0.03190611 0.06736022
000010 ed 31 bf 3d c3 6c 6d bc 8d 55 a9 ba 0a 36 bf bb
       0.093356945 -0.014491263 -0.0012919173 -0.0058352994
000020 a5 f8 a1 bd 1d d4 9c bd a4 8b 67 bd b0 11 dd ba
       -0.07908753 -0.07657645 -0.056529656 -0.0016866233
000030 45 b4 04 3d 5e dc f4 3b ba 25 8e 3d b6 0a 05 3d
       0.03239848 0.007472559 0.069407895 0.032480918
000040 c8 06 3d 3c 0d 2f 49 bd 5f bf 8f 3d 34 fc 4d bd
       0.011537261 -0.049117137 0.07018923 -0.050289348
000050 9f 83 6d 3c 7c 36 84 3c bd 87 f1 3c fc d5 e3 bc
       0.014496713 0.016139261 0.02948367 -0.027811997
000060 84 9e 63 3d ea 59 04 bd 2d c6 57 bc 6d ef eb bc
       0.055571094 -0.03231231 -0.013169807 -0.02880069
000070 a1 86 ed bc 03 1b 86 3c 34 f1 94 3c d0 31 c9 bc
       -0.02899486 0.016370302 0.01818142 -0.024559885
000080 79 4b 18 3d 3f fa 86 bd 20 a2 cf bc 3d 46 59 3d
       0.03718135 -0.065906994 -0.025345862 0.0530455
000090 78 34 20 3d 5e fb c3 3c da e2 96 bc e1 35 e4 3c
       0.039112538 0.023923572 -0.018418718 0.027857723
0000a0 36 29 69 3d ce 3d bc 3c c2 a4 c1 3d a5 e8 10 bd
       0.056924067 0.02297869 0.09455253 -0.035378117
0000b0 d1 45 a0 3d 6f d7 92 3c b3 1f 34 3d 2b 92 21 3c
       0.078258164 0.017924992 0.043975543 0.009861509
0000c0 88 9a c8 3d 50 0a 03 bd 29 fe 84 bd c9 ef 8f bd
       0.097950995 -0.031992257 -0.0649379 -0.07028157
0000d0 84 18 9e bd c5 4a 1c 3b 05 d3 ae 3d e3 33 13 bd
       -0.0771952 0.0023848277 0.085363425 -0.035938155
0000e0 89 17 a5 bc 5f 2d bd bb 6f ee 74 bc 85 19 81 3b
       -0.020152824 -0.005773231 -0.014949425 0.0039398097
0000f0 dc 2a 7d bd fc 95 80 bc fd 06 60 bd 99 d1 c0 3d
       -0.061808452 -0.015696518 -0.054694165 0.094149776
000100 11 0d 24 bc a6 73 9f bc 8a 4b 8b 3d 51 ff 65 3d
       -0.010012881 -0.019464325 0.06801517 0.05615169
000110 c6 56 c0 3d 2a fa 1e bd 00 bb 1f 3d e2 94 63 3d
       0.09391551 -0.038812794 0.038996696 0.055561908
000120 ec 6d 2f 3d 0f bf 33 3d f3 3a 4f bd 22 13 aa bc
       0.04282944 0.04388338 -0.050593328 -0.020761076
000130 ce 6b 23 bd f3 32 92 bd 5b 6c b8 3d 5d 2d 88 bd
       -0.039897732 -0.07138624 0.09005042 -0.06649277
000140 74 4c bb 3d 1b e2 c6 bc 4c fd 30 bd 5b e8 95 3d
       0.09145442 -0.024277737 -0.043210313 0.07319709
000150 70 7c 61 bd e7 86 69 bd 61 3e ef 3c d6 04 6d 3d
       -0.055050313 -0.05701342 0.02920455 0.05786594
000160 e7 ef b0 3c 61 45 90 3d 5f 9d c3 3d d9 53 8c 3d
       0.02159877 0.07044483 0.095515005 0.0685193
000170 48 46 5c bd 97 36 e6 bc 5f 2c 8d bd 53 6e 88 3c
       -0.053777963 -0.028102202 -0.06893229 0.01665417
000180 4b 2d d4 bc 29 b0 a5 3a f2 1d d1 bc 8d 2d 2c 3d
       -0.025900504 0.0012641001 -0.025526974 0.042035628
000190 c1 76 75 3d 76 c2 ab 3c 7b c8 80 bd 7f 16 ce bc
       0.059927706 0.02096675 -0.062882386 -0.025157211
0001a0 83 5b 24 3d 0a e3 7b bc 85 02 2b 3d 73 4d 3d bd
       0.040126335 -0.015373955 0.04175045 -0.04621644
0001b0 b8 3b 9b bd d3 f3 8e 3d de c5 26 3d 68 12 2a bd
       -0.0757975 0.069800995 0.040716045 -0.04152146
0001c0 fb 92 4b 3d 81 bc 29 bc 27 ff 84 bd 7c dc 17 3d
       0.04970072 -0.010359884 -0.06493979 0.037075505
0001d0 06 a7 b7 3d 94 59 18 bc 81 96 99 3d 39 23 99 bd
       0.08967404 -0.009298701 0.074994095 -0.07477421
0001e0 00 c4 9f 3c 5d ad a1 bd ec 0e 80 bd 7a 1b b6 3d
       0.01950264 -0.078943945 -0.06252846 0.088919595
0001f0 3d e2 6c bd 4d 82 50 3d 98 62 61 bc e4 15 ba 3c
       -0.057832945 0.050905515 -0.013756417 0.022715516
000200 10 5d 30 bd 24 f4 56 3d 2a 62 31 3d 15 dd 09 bc
       -0.0430575 0.052478924 0.043306507 -0.0084145265
000210 47 fb 87 3d 30 9b 45 3d a9 d0 67 bd af de 3c bd
       0.06639724 0.0482437 -0.05659548 -0.046110805
000220 61 c6 a6 39 d0 ff ae bd ac f0 08 3d ba cd 60 bd
       0.0003180979 -0.08544886 0.033432648 -0.054883696
000230 bf 5c 6d bd 58 ad c7 3b f8 65 3c 3d 25 b7 4a bd
       -0.057949778 0.006093662 0.045995682 -0.049491066
000240 59 af 7d bc 5d 70 d3 3c 20 4b 56 3c 33 76 80 bd
       -0.015483701 0.025810415 0.013079435 -0.06272545
000250 50 03 a4 bd 45 51 95 3d d0 75 8e bd d0 82 9d 3b
       -0.08008444 0.072908916 -0.06956065 0.004806854
000260 ec cc 87 3d ae 94 95 bd 07 8a a9 bd cd f6 ee bc
       0.066308826 -0.07303749 -0.0827828 -0.029170418
000270 f1 36 98 bc bf 2e 53 3d fa 92 1b 3d 2b f2 b6 3d
       -0.018580886 0.051558252 0.037981965 0.089329086
000280 ef 67 93 bd 4c 4c a1 bd 67 ea 9b 3c 84 b2 b0 bd
       -0.07197558 -0.078758806 0.01903267 -0.08627799
000290 57 2b a2 bd 25 bf 0a bc 4a 9c a2 3d d8 9d bf 3d
       -0.07918423 -0.008468424 0.07939966 0.09356278
0002a0 2c b6 c7 3c fd 78 b1 3d 70 12 2e bc 26 4c ac bc
       0.024378859 0.08665655 -0.010624513 -0.021032404
0002b0 98 a2 b7 3c 48 08 28 3d 68 4b 33 bd da a4 a1 bd
       0.022416398 0.041023523 -0.043773085 -0.07892771
0002c0 74 3e ad bc 7b 11 58 3d 36 c7 29 bc aa c3 91 bd
       -0.021147944 0.052751046 -0.010362437 -0.07117398
0002d0 1f d8 95 3c 8a b7 11 bc 30 92 84 3b e8 c3 09 bd
       0.018291531 -0.008893857 0.004045747 -0.033634096
0002e0 47 4b 8e bd 83 f4 a6 3d 98 fa 5c 3d 1e ae 89 3d
       -0.06947952 0.08152106 0.053949922 0.06722663
0002f0 88 10 18 3d 4e 3e 74 bd 71 5d 47 3d be c2 0b 3d
       0.03712514 -0.05962973 0.048673097 0.034121267
000300 36 05 7e bc 86 2e ff bc 3e 86 3f 3d 96 36 29 3d
       -0.015504172 -0.031150114 0.046758883 0.041311823
000310 ab 43 48 bd 7e 85 19 3d 0f 35 c1 3c cb e1 02 3d
       -0.04889266 0.037480824 0.02358487 0.031953614
000320 78 f5 4d bd 3d 08 47 bd 30 be be bb fe ea 71 bd
       -0.050282925 -0.04859184 -0.005821012 -0.059061997
000330 b6 a5 d2 bc fa ab 81 3d 9a 13 52 3d 3e d5 57 3d
       -0.025713783 0.0633163 0.051288225 0.052693598
000340 29 b1 c1 3d 65 00 9e bd 66 fc 81 bd 8b f6 7f 3d
       0.09457619 -0.07714919 -0.06346969 0.06249098
000350 73 91 ef 3b 26 22 85 3d 56 66 03 3d 63 2f 8d bb
       0.00731104 0.06500654 0.032080017 -0.0043086275
000360 81 52 34 bd f7 7a 7a 3d d4 49 2d 3d 6c 7d 93 3c
       -0.044023994 0.061152425 0.042306736 0.018004142
000370 50 7a 7a 3d 9e 1f 74 3d 47 31 33 bd 7d 97 ca 3c
       0.061151803 0.059600465 -0.043748166 0.024730438
000380 1a 74 88 3c 9b ff af ba 8b ef 88 3d 03 e0 9d 3d
       0.016656924 -0.0013427617 0.06686314 0.077087425
000390 c6 01 67 bd 47 f1 51 3c de af be 3d 47 61 3b 3d
       -0.056398176 0.012813873 0.09310888 0.045747068
0003a0 de ca 77 bd 93 8b 86 bd 05 dd 06 bd f7 15 aa 3d
       -0.060496204 -0.065695904 -0.032925624 0.08304971
0003b0 25 4d 14 3d 6f c1 87 bd 04 f3 27 3d 56 07 8b bd
       0.036206383 -0.066286914 0.041003242 -0.067885086
0003c0 91 54 41 3d bc 79 00 bd 15 cf 46 3d 82 45 aa bc
       0.04719979 -0.031366095 0.048537333 -0.020785097
0003d0 b0 85 90 bd 0d 6c 05 bc 59 ef 95 3b 73 f3 98 bd
       -0.07056749 -0.008143437 0.0045756516 -0.07468309
0003e0 16 c3 26 3c dd f4 ae 3d 65 fa 07 bd 95 87 a2 3c
       0.010178348 0.08542798 -0.03319778 0.019840041
0003f0 2a be d6 bb 10 34 76 3d 07 af 87 bd 8a b3 25 bd
       -0.006553431 0.060108244 -0.06625181 -0.040454425

weight_ih_l1 f4 [512, 128]
000000 3c f6 70 bd ba 05 aa 3d ce dd a5 bc d9 d8 ad 3d
       -0.058828577 0.083018735 -0.020247366 0.08488626
000010 68 65 d8 bc fa 04 7b 3c 7e 09 7c bd 18 34 fe bc
       -0.026415542 0.015321011 -0.06153249 -0.0310307
000020 6a 5d 8c 3c 7a 1b db 3c 8d 68 e6 3c 05 6a 05 3d
       0.017134387 0.0267465 0.028126026 0.03257181
000030 c2 71 99 3d 70 0c 18 bd a8 25 3e 3d 9d fa a8 3c
       0.07492401 -0.037121236 0.04642263 0.020627314
000040 60 1f 0c 3d b3 73 64 bd b4 3a 9b bc 57 d2 8e bc
       0.03420961 -0.055774402 -0.01894889 -0.017434282
000050 d4 0d 94 3d eb 26 98 bd 81 e4 fb 3c 30 a9 8a bd
       0.072292 -0.07429298 0.030748608 -0.06770551
000060 e1 02 92 bd c2 5c 02 bb f2 0e 8d bc 5f 0f 05 3d
       -0.07129455 -0.0019891714 -0.01721904 0.032485362
000070 8a 9d a8 bd 96 80 c1 3d 8e ea e7 bc 39 17 92 3d
       -0.08233173 0.09448354 -0.028310087 0.071333356
000080 f5 7e 70 bc e1 0b 7d 3d f9 a2 40 bd 9d 18 5f bd
       -0.014678706 0.061778907 -0.047030423 -0.054466832
000090 64 ae b5 bd 90 66 7b 3d 08 59 81 3d a0 72 d3 bc
       -0.08871153 0.061377108 0.063158095 -0.025811493
0000a0 98 5e 59 3d 31 d3 65 3d 15 cc c6 bc 5b 46 86 3b
       0.053068727 0.05610961 -0.024267236 0.0040977425
0000b0 1b 1a 21 3d b4 84 0d 3d 29 69 d7 bc cd d8 8e 3b
       0.039331537 0.034550384 -0.026295261 0.0043593408
0000c0 b4 ff 61 3c b1 b3 5a bc 60 96 b9 bc 98 4c aa 3c
       0.0137938745 -0.013348506 -0.022654712 0.020788476
0000d0 98 8b 13 bd 74 9a 16 bd d3 1d 05 bd f1 ba c3 bc
       -0.0360218 -0.03676839 -0.032499146 -0.023892852
0000e0 f0 8d 7c bc 44 5a e7 bc 21 e1 c5 3d 1a 24 d3 3d
       -0.0154147 -0.028241284 0.096620806 0.1030962
0000f0 0c cb ac bd f0 67 4b 3d 1b 89 48 bd c4 87 f1 bb
       -0.084371656 0.04965967 -0.04895888 -0.007370921
000100 51 75 b8 bd e4 c8 51 3d f7 86 87 bd fb 17 ea bc
       -0.09006751 0.051216975 -0.066175394 -0.028575888
000110 6b 83 46 3d cb ff 46 3c 7c d2 73 3d 17 d3 cb 3c
       0.048465174 0.012145947 0.059526905 0.024880929
000120 38 46 5a 3d ff 98 b9 3b c9 bf 9e bd 59 31 8c bd
       0.053289622 0.0056639905 -0.07751424 -0.0684535
000130 42 ad 24 3d 96 c8 02 bd ab 48 88 3d ad 6b 82 3d
       0.040204294 -0.031929575 0.06654485 0.06368194
000140 1b c0 32 3d b3 d3 77 bd 68 4b d2 3d d4 da 6d bc
       0.043640237 -0.060504626 0.10268289 -0.014517505
000150 c5 24 86 3d 1f 69 8a 3c f5 e4 a1 3c 04 9e 29 bd
       0.06549982 0.016895829 0.019762496 -0.04141046
000160 3e c0 59 3d 59 45 0a bc 25 01 05 3d 01 a9 0a 3d
       0.053161852 -0.008439385 0.032471795 0.03385258
000170 09 7c c5 bd 33 10 0e bd 65 40 b2 bd 14 c3 37 bd
       -0.096427985 -0.034683418 -0.087036885 -0.044863775
000180 18 15 ee bc b9 19 d3 3c e9 41 80 3d f0 6a 03 bc
       -0.029062793 0.025769101 0.06262571 -0.008021101
000190 af eb 61 3d ef 80 99 bc 2f fc 0a 3d 56 60 5c 3d
       0.055156406 -0.018738238 0.033931907 0.05380281
0001a0 a0 88 ae ba 09 1d df bd 9f 0a 1d 3d d2 e6 52 3c
       -0.0013315864 -0.1089421 0.038340207 0.012872415
0001b0 3a 1a 82 3d ee d7 59 bd 5a ac 5d bd 62 ce 01 bc
       0.063526586 -0.053184442 -0.054119445 -0.007922741
0001c0 21 fa ac 3c 61 08 85 bd 93 aa ad 3d 5f c7 e3 3c
       0.021115365 -0.06495739 0.084798 0.027805028
0001d0 6b b4 ab 3d f9 cd 82 bd 72 7b 72 3d 71 bb 8c 3c
       0.08384021 -0.063869424 0.059199758 0.017179223
0001e0 61 d2 84 bd a5 46 2d 3d 0e c7 d8 ba 19 b9 17 3d
       -0.06485439 0.0423037 -0.0016538815 0.037041757
0001f0 04 a8 af 3c ac d5 97 3d 4b df b0 bd d0 98 4f bd
       0.02144242 0.074138016 -0.0863634 -0.050682843
000200 4f 5f 87 bd 1d 09 1f 3c 7b b2 79 3d b4 23 99 bd
       -0.066099755 0.009706763 0.060961228 -0.07477513
000210 4c cd 44 bd 4a a8 01 3d c4 0d 04 3c c8 2b a4 3d
       -0.04804735 0.031654634 0.008059923 0.08016163
000220 a6 e6 40 3d 50 b8 70 bc dc 55 98 3c 60 3b 36 3d
       0.047094963 -0.014692381 0.018595628 0.04449022
000230 f5 d2 1d 3d b2 08 29 3d d0 af 85 bd 9d 21 bd bd
       0.038531262 0.041268058 -0.06527674 -0.09234927
000240 de 0c 09 bd 3c e3 12 3d ce 9c 8d 3d d8 a5 04 3a
       -0.033459537 0.03586124 0.06914674 0.0005060113
000250 a5 ef 75 bd d6 20 b1 3b 17 92 a0 bd 22 44 5d 3d
       -0.060042996 0.0054055257 -0.078403644 0.054020055
000260 8b dc 5c bd 56 1f 18 3d 2f 25 51 bd ed 8a 25 3d
       -0.053921264 0.03713926 -0.05106085 0.040415693
000270 e2 d6 bb bd b4 2d 67 3c 1d ca fd 3b b4 50 98 bd
       -0.09171845 0.014110018 0.007745041 -0.07437268
000280 77 a2 80 bc 39 14 b8 3d 44 bc ce 3d 41 7d 73 3c
       -0.01570247 0.08988232 0.100945026 0.014861406
000290 06 3a 68 3d d4 03 54 3d 21 a7 96 bd b5 bd cc bc
       0.05669596 0.051761463 -0.07356096 -0.024992803
0002a0 5d 27 54 3d c8 89 e6 3b 00 6f ac 3d cc 6e a4 bd
       0.051795352 0.007035468 0.08419609 -0.08028945
0002b0 a3 c4 31 3d 56 ff 07 3c 1d 76 00 bd 23 3c 91 bd
       0.043400418 0.008300623 -0.03136264 -0.07091548
0002c0 25 dd 51 3d 3e 3c 86 3d 99 61 5a 3d d9 1d 91 bd
       0.05123629 0.06554459 0.053315733 -0.07085771
0002d0 4b 94 4b 3d 69 21 61 bc de 5b 82 3d 02 19 53 bb
       0.04970197 -0.013740876 0.063651785 -0.003221095
0002e0 0d b8 77 bc 1c 65 ba 3d b4 9d 72 3d 1e 59 a4 3d
       -0.015119565 0.09101316 0.05923243 0.0802481
0002f0 c3 0c 87 3d da 31 e6 bc 7d 88 26 3d d2 86 71 3c
       0.06594231 -0.028099943 0.04065751 0.014741616
000300 ff 1c 2f bc 4c 61 16 3c 6c 07 98 3c 87 8e 94 bd
       -0.010688066 0.009178471 0.018558227 -0.072537474
000310 aa 12 70 3d 0b 7c 4a bc 1c 0f 01 bd 10 07 98 bd
       0.05861155 -0.012358676 -0.03150855 -0.07423222
000320 6a 3b 8e b8 2f 2e d1 3c 90 86 94 bd 65 56 db bc
       -6.7821544e-05 0.025534717 -0.07252228 -0.026774595
000330 a0 80 05 bd fc a1 b1 bd 14 e7 89 bd 98 92 52 bd
       -0.03259337 -0.08673474 -0.06733528 -0.051409334
000340 23 d2 a7 bc 0c 6a 60 bd 73 dd 76 3d 23 43 8d bd
       -0.020485943 -0.054788634 0.060269784 -0.06897571
000350 3a 8a cf 3b a6 fa 9c 3d 58 16 4c 3c 08 88 63 3d
       0.0063336166 0.07664995 0.012456499 0.05554965
000360 5b 3f a7 bc 0f 88 85 bc 3b a7 c5 bd f0 0c 50 bd
       -0.020415952 -0.01630023 -0.09651037 -0.05079359
000370 eb 89 24 bd d4 4f 9d 3c 4c 8d 90 bd a1 89 08 bd
       -0.04017059 0.019203104 -0.070582 -0.03333438
000380 39 99 21 bd d8 87 89 3b b5 28 b1 3d 43 9a 9d ba
       -0.039452765 0.004197102 0.086503424 -0.0012024123
000390 8d c1 60 3d 50 35 a8 3d a8 34 ea 3b 75 a8 23 bd
       0.054872084 0.082132936 0.0071473904 -0.039955575
0003a0 0d 61 1e 3d 02 4b 24 bd b8 71 35 bd 5b 79 09 3d
       0.038666774 -0.040110596 -0.044297904 0.033563
0003b0 ee 4c 75 bd 75 ba 8a 3d 57 aa 12 3d c3 25 37 bd
       -0.05988782 0.06773845 0.03580698 -0.044713747
0003c0 cd 4d be 3d 22 1f 0e 3d 42 ef 83 bd 25 a0 e6 bc
       0.09292183 0.03469766 -0.06442119 -0.028152535
0003d0 27 f7 ca bc c5 21 d0 bc c0 f6 48 bd 0f 2a 1f bd
       -0.024776055 -0.025406728 -0.049063444 -0.03885847
0003e0 06 ec 48 bc bb b5 8e 3c 43 bf ea bc d6 ad 49 bd
       -0.012263304 0.01742064 -0.028655654 -0.04923805
0003f0 6b 02 8d 3d d4 e9 56 bd 4d 4c 32 bd e0 53 ac bd
       0.06885227 -0.05246909 -0.043529797 -0.084144354

weight_hh_l1 f4 [512, 128]
000000 50 40 d5 3c be 61 a2 3d 89 02 d2 bc 23 6c 94 3d
       0.026031643 0.07928799 -0.025635974 0.07247188
000010 32 f4 2d 3d c6 4d 36 bd bf 42 ad bc be 20 88 bd
       0.04246921 -0.044507764 -0.021149991 -0.0664687
000020 8b 61 58 bd 17 62 05 bc 68 e7 cb 3d 52 86 08 3d
       -0.0528274 -0.008141062 0.099562466 0.033331223
000030 e6 81 c6 bb a3 89 5f 3c c8 f6 f7 3b 88 d8 53 bc
       -0.0060579656 0.013643655 0.0075672604 -0.012930043
000040 ce 50 bb bd 34 47 70 3d b0 f3 ab 3d a2 1f 89 3d
       -0.09146272 0.058661655 0.08396089 0.066954866
000050 b4 53 35 3b 37 90 5e bd 3c d9 45 3c 32 3e 38 bd
       0.00276683 -0.054336753 0.0120757185 -0.04498119
000060 fe fc 86 bd 80 57 9c 3c 91 6b 3c bb a0 9e d2 3c
       -0.06591223 0.019084692 -0.0028750638 0.025710404
000070 a2 d0 96 bc 09 23 b0 bd a6 c3 09 3d 1a ee 74 3d
       -0.01841003 -0.086004324 0.03363385 0.059797384
000080 c4 cb 82 3d a0 76 d1 3b 28 05 1d bd d0 5c 99 bd
       0.063865215 0.006392315 -0.038334996 -0.07488406
000090 41 1f 83 bd 02 86 67 3d ba 82 6c bd a3 61 26 bd
       -0.064024456 0.056524284 -0.057741858 -0.040620457
0000a0 17 5d f6 3c 78 7e bc bc 1d 32 ba 3d 9b 65 3d bd
       0.030073686 -0.023009524 0.090915896 -0.046239477
0000b0 de 8d 75 bc 38 8b 55 bd ad 9c 94 bd c3 ed 55 3d
       -0.014987437 -0.052134722 -0.07256446 0.0522287
0000c0 8f e1 d9 39 a5 a0 8d bb 98 05 50 bd c6 8b a8 3d
       0.0004155752 -0.004322129 -0.050786585 0.08229785
0000d0 83 3a 36 bc f5 39 73 3d 11 4d 21 3d 72 6f 0a bc
       -0.011122349 0.059381444 0.039380137 -0.008449422
0000e0 99 19 3a bd eb 9e 85 bd fd c3 6f 3b 28 1d 87 3d
       -0.045434568 -0.06524452 0.0036585324 0.06597358
0000f0 aa 10 a6 3c d5 00 66 3c 3f bc d7 bb 48 00 b4 3c
       0.020271618 0.014038284 -0.00658372 0.02197279
000100 91 17 80 3d 14 a5 8a 3c 87 21 3a 3b fb 95 ee 3c
       0.06254495 0.016924419 0.0028401332 0.02912425
000110 68 57 be 3d 55 32 72 3d 69 3d 7e 3d 58 2a 6a 3d
       0.09294015 0.05913003 0.062070284 0.05716929
000120 45 9a 6f bc f1 ca be 3d b6 c1 26 bd 0d 73 6f 3c
       -0.014624183 0.09316052 -0.04071208 0.014614833
000130 4d 63 1f 3d 49 3f 48 bd 17 48 68 bd 26 f5 31 bd
       0.03891306 -0.04888848 -0.056709375 -0.043446682
000140 df 47 64 3d ea ba 15 bd 80 c7 b8 3c c4 d8 3d 3c
       0.055732604 -0.03655521 0.022556067 0.0115873255
000150 ab 71 59 bb 0a bd 0f bd 5f 2d 88 3c f9 b8 98 3d
       -0.0033179324 -0.03509239 0.016623197 0.07457156
000160 69 30 09 bb 7b 77 56 bd 62 b9 7a bd 32 64 a3 3d
       -0.0020933396 -0.05236004 -0.06121195 0.07978095
000170 f2 cd ee bc c3 b6 08 bc 8d 1e 65 3c 0c 06 79 3d
       -0.029150937 -0.008344355 0.013984335 0.060796782
000180 58 66 06 bd aa d7 73 bc b4 eb 7f 3d 0c 56 e2 bc
       -0.032812446 -0.014882961 0.062480643 -0.027628921
000190 78 75 1b bb c0 6d 6e 3d 3d 01 05 bd 06 26 ba 3d
       -0.002372114 0.058210135 -0.032471884 0.09089284
0001a0 1b 6c 82 3d da 4d 7e 3c 6a 72 57 bc 59 4a 46 bd
       0.06368276 0.015521491 -0.013149837 -0.048410747
0001b0 e7 a8 c4 bd 2a cb 4a bd e9 a7 87 bd 5a fb ee 3c
       -0.09602528 -0.04951016 -0.06623823 0.029172588
0001c0 ff 97 3b bd d2 05 a7 3d 1d 2a 5d 3d 4b e2 da bc
       -0.04579925 0.08155407 0.05399524 -0.026719233
0001d0 92 aa bf bc c4 db a6 3d 9e dd 41 bc 8e 58 2a 3b
       -0.023396764 0.08147386 -0.011832623 0.0025992724
0001e0 88 c8 b0 3d 7c a2 91 bd 2c 00 1d bc 4b d6 b0 bd
       0.08631998 -0.071110696 -0.0095825605 -0.08634623
0001f0 3a e9 0c bd 46 04 b6 3d 20 a6 f8 bc f0 b6 46 3d
       -0.03440211 0.08887534 -0.030352652 0.048514307
000200 0f 79 42 3c 72 e9 d3 b9 46 9c 89 bc 52 78 3c bd
       0.011869683 -0.00040418986 -0.01679815 -0.046013184
000210 69 e7 ed bc 00 13 a5 bd 01 2c 74 3d b7 39 81 bb
       -0.029041009 -0.080602646 0.059612278 -0.0039436477
000220 fc 6c b4 3b ef 06 10 3d a2 1d 8f bd ff 4e 93 3c
       0.005506156 0.035162862 -0.06988074 0.017982004
000230 6d 72 18 3d 8e de 91 bd 5d 76 1f 3d a7 27 04 3d
       0.0372185 -0.07122527 0.03893124 0.032264378
000240 70 4f 16 3d 79 aa 9b 3c 97 e0 2d bd 55 4f 20 3d
       0.03669685 0.019002186 -0.042450514 0.039138157
000250 d6 28 ac bc 3f 25 85 bd 3c 74 a6 3d 9a e6 91 3c
       -0.021015566 -0.06501245 0.08127639 0.017810155
000260 9a 40 32 3d e6 5e 42 3d 6d c8 d2 3c af a2 49 bc
       0.04351864 0.047453783 0.025730336 -0.012306853
000270 f5 81 af 3d 1f 2d ac bc 96 20 93 bd 08 77 93 3d
       0.08569709 -0.02101761 -0.0718395 0.07200438
000280 5b 11 57 bd 56 9f 97 bd 09 0d 10 3d 3d c4 a7 3d
       -0.052506786 -0.07403438 0.03516868 0.08191726
000290 48 50 a5 bd 45 bb e8 bc f9 5e 35 bd 63 ff 09 bd
       -0.08071953 -0.02840961 -0.044280026 -0.03369082
0002a0 23 99 fb bb 9a ec fe 3c 73 ac a1 bd 32 57 39 3c
       -0.0076781674 0.03111868 -0.0789422 0.011312293
0002b0 f7 e4 78 3c 87 d6 a9 bb 12 71 32 bd ab d1 95 bd
       0.015191308 -0.0051830444 -0.043564864 -0.073153816
0002c0 7f 21 b0 3c e6 77 fa bc 0c 1c 7f bd a0 9b 33 bd
       0.021500347 -0.03057475 -0.062282607 -0.043849587
0002d0 81 64 b3 3c 7f 00 8d b7 d6 07 9d bb 03 41 06 bc
       0.02189851 -1.680874e-05 -0.004792194 -0.008194211
0002e0 52 d8 80 3d 0f 8a 94 3c fb 51 9c 3d eb 3e 55 bd
       0.0629126 0.018132238 0.07632824 -0.052061956
0002f0 a1 db a2 3d 3d d6 3e bd b9 73 bf 3d 4d ce 0e 3d
       0.07952047 -0.046591032 0.09348244 0.034864713
000300 fd 5c 0e 3b 5e 08 21 bd d9 15 28 3d 8b 15 4e bb
       0.0021722906 -0.03931462 0.04103646 -0.0031445946
000310 56 c4 a6 3d 9c 84 da 3c 63 e2 fe bc cd 6b 34 bd
       0.08142917 0.026674561 -0.031113809 -0.04404812
000320 b2 30 0c bd ba dd 89 bd 26 40 88 3d 29 45 a2 3d
       -0.034226127 -0.06731744 0.0665286 0.079233475
000330 e3 f8 23 3d d4 05 28 3d f3 22 5c bc 18 ef a1 bd
       0.04003228 0.041021183 -0.013436067 -0.07906932
000340 a4 2a 91 3d a4 e9 2f 3c f5 4c 29 3c 20 aa a4 3d
       0.07088211 0.010736857 0.010333289 0.08040261
000350 7f 2c 95 bd 56 d8 6a 3d d5 e5 7f 3c c9 11 6a 3d
       -0.072838776 0.05733522 0.015618761 0.057145867
000360 ca 0c 2a 3a 9a 03 44 3d cf 5c 77 3d ab 4b 80 bd
       0.0006486891 0.047854997 0.060391244 -0.062644325
000370 c9 e6 c1 3d 2d 58 a9 3c ad 96 b3 b9 74 e9 76 bd
       0.09467847 0.020671928 -0.00034253803 -0.060281232
000380 01 67 78 3d 47 1d 9d 3d 07 ad 7e bd f8 e3 e3 3c
       0.060645107 0.076716 -0.06217673 0.027818665
000390 61 8f 13 3d a9 78 ab bd ba 71 41 bd 4f a8 b4 bd
       0.03602541 -0.083726235 -0.0472276 -0.08821165
0003a0 fd 00 ef ba a9 a2 22 3d 5b ba 9c bd 38 7e 67 bd
       -0.0018234547 0.039705906 -0.07652732 -0.056516856
0003b0 e5 6b 89 3d f2 32 50 3d 2f 65 bb 3d c9 7b 56 bd
       0.067100324 0.050829835 0.091501586 -0.052364144
0003c0 df 6b 99 3d d0 55 95 3d 41 6d 90 3d 17 53 95 3c
       0.07491278 0.07291758 0.070520885 0.018228097
0003d0 e2 34 fc 39 88 a9 8f 3d b8 f4 0c bd 87 e1 7f 3a
       0.00048104586 0.070147574 -0.03441307 0.0009761084
0003e0 68 d3 bc bc 27 a4 0f 3d 5b 71 9b 3d b9 d9 3e 3b
       -0.023050025 0.035068657 0.0758998 0.0029121472
0003f0 10 7f 2a 3d 1d 5e df bc 42 df ed bb 65 04 34 bd
       0.041625082 -0.027266556 -0.0072592804 -0.043949503

bias_ih_l1 f4 [512]
000000 35 bd 81 bb 63 ff 09 bd d9 0c 40 3d 33 d0 ec 3c
       -0.003959323 -0.03369082 0.046887252 0.02890787
000010 d5 b4 8d 3d e2 7c c3 3c ca ba 31 3d e3 18 53 3c
       0.069192566 0.02386326 0.043391027 0.012884351
000020 b7 e4 99 3d 9e 6b 45 bd 29 44 96 bd e1 95 80 bd
       0.07514327 -0.048198335 -0.07337219 -0.06278587
000030 68 61 07 3d ce 2e 8c 3d e5 28 f8 3c 60 e7 2f 3b
       0.03305188 0.06844865 0.030292938 0.002684079
000040 fb 60 16 bd c9 02 7f bd 97 d0 9a bc c9 96 1a bd
       -0.03671358 -0.062258516 -0.018898292 -0.037741456
000050 22 e7 f9 bc ec e9 6b bc 3d fa 8e bb d5 15 53 3c
       -0.03050572 -0.014399033 -0.004363327 0.012883623
000060 9c 68 eb 3c cb 4a 0e 3d c7 79 1f 3d c2 05 80 bd
       0.028736405 0.034739297 0.038934495 -0.06251098
000070 64 58 72 bd 2e 8e cf 3d 10 c9 de 3c 87 7e c1 bd
       -0.059166327 0.101345405 0.027195483 -0.09447961
000080 15 fe b4 3d 06 ad f0 3b ac 1f 17 bd 8f 52 a6 bc
       0.08837525 0.0073448448 -0.03689544 -0.020303039
000090 9e 27 9d bd a0 c1 fe bc 1f bb 94 3c 2a 4e 65 bd
       -0.07673572 -0.031098187 0.018155633 -0.055982746
0000a0 54 d2 70 bd 75 bd 07 bd f4 8d 81 bc e5 28 98 3d
       -0.058794335 -0.033139665 -0.015814759 0.07429675
0000b0 d8 fa 97 bd cd f1 d6 3d c1 fe 33 3d 51 0a 3a 3d
       -0.074208915 0.104953386 0.043944124 0.045419995
0000c0 7a 06 19 bd b7 29 a1 3d 37 d4 d9 3d 44 1e 84 bd
       -0.037359692 0.078692846 0.1063618 -0.06451085
0000d0 e9 fc 2b bd 4a 48 60 bd 63 03 7d 3d 26 f8 33 bc
       -0.04198924 -0.05475644 0.061770808 -0.010984456
0000e0 2c a8 46 3d 3b be 02 3c 57 29 54 3d 58 10 5c ba
       0.048500225 0.007979925 0.051797237 -0.00083947694
0000f0 0a 49 1d bd 46 3e f2 3c a9 e0 94 3d 43 9a 2a 3b
       -0.038399734 0.02957071 0.07269413 0.0026031889
000100 3e 49 45 3d 82 7f ee bc 0c a1 d7 3c 32 82 98 3d
       0.048165552 -0.029113535 0.02632191 0.07446708
000110 03 17 61 bc 33 94 a5 bd 6e 33 57 3d 3c cf 5f 3d
       -0.013738397 -0.080849074 0.05253928 0.054640993
000120 39 2d 9c 3d 00 72 db bc 1d b5 c0 bc ad c6 17 3d
       0.07625813 -0.026787758 -0.023523862 0.037054706
000130 51 15 b4 bc a3 51 89 bd 39 10 69 bd 49 b4 91 3d
       -0.02198282 -0.06705024 -0.056900237 0.07114465
000140 6b 1a 5d 3d 00 21 34 3d 43 a0 a4 3d 58 1f ae 3c
       0.053980272 0.043976784 0.0803838 0.02125518
000150 b3 a6 d2 3c 06 82 dc bc 8c e2 86 3d 70 dc 85 bd
       0.025714254 -0.026917469 0.06586179 -0.06536186
000160 e4 ce a0 3d ff bd 33 bd 80 4d 5e 3d 23 09 37 3d
       0.07851961 -0.043882366 0.05427313 0.044686448
000170 ef 6a 87 bd 18 08 95 bd 34 fe ea bc ed 32 9c 3d
       -0.06612193 -0.072769344 -0.028685667 0.07626901
000180 64 da 44 bd f5 45 4a 3d cf 89 e0 bb ab b1 fc 3c
       -0.048059836 0.049383122 -0.0068523656 0.030846437
000190 62 85 5b 3d 85 c2 2e 3d fd b5 a1 bc 99 de 77 bd
       0.053594 0.042665977 -0.0197401 -0.06051502
0001a0 59 8f 8b bd 5d 01 78 bd 63 4b a7 bc f2 77 3a 3d
       -0.06814451 -0.060548175 -0.02042169 0.045524545
0001b0 cb b1 89 bd 81 12 02 bc 80 d9 93 bd 29 63 b1 3d
       -0.067233644 -0.007938982 -0.07219219 0.086614914
0001c0 4b a8 9c bc 36 34 ee 3b 99 7e 96 3d d3 d7 90 3d
       -0.019123217 0.0072694076 0.07348365 0.07072415
0001d0 dd 22 ad 3c 63 97 d0 3b c0 63 b8 3d c0 46 81 3d
       0.021134788 0.006365703 0.09003401 0.063123226
0001e0 d5 bd 82 3c 96 ca a8 bd 8f c8 d8 bb bd c3 89 bc
       0.01595966 -0.08241765 -0.0066157053 -0.016816968
0001f0 1b 5a a0 3d ee 8c 49 bd f0 ac 81 bd 45 23 fe 3c
       0.07829686 -0.049206667 -0.06331813 0.031022677
000200 e6 fb 8e 3d d5 7a af 3d 22 34 b3 bd 6a 9a 7b 3c
       0.069816396 0.0856835 -0.08750178 0.015356639
000210 62 49 1f bd b0 6a 26 3d 6a 28 a8 3d 4a 5a 35 3d
       -0.038888343 0.04062909 0.08210833 0.04427556
000220 60 18 71 3d 83 a2 92 bd d0 56 17 3c 36 68 c6 3d
       0.058861136 -0.07159903 0.009237006 0.096878454
000230 7b 45 9e 3d a1 c7 bb 3b df 48 a5 bd d2 63 43 bd
       0.07728096 0.0057305847 -0.0807054 -0.047702618
000240 37 4c 56 3d 79 a9 db 3c c5 03 9a 3d 4b ba 47 bd
       0.052318778 0.02681421 0.0752025 -0.048761647
000250 97 9e 97 bb c8 05 22 3d 70 cb 99 3c b8 4b 9c 3d
       -0.0046270597 0.039556295 0.018773764 0.0763163
000260 f4 0c 88 3d 88 d9 8a 3d 14 5b 31 bd bc 38 32 3d
       0.066430956 0.06779772 -0.04329975 0.043511137
000270 19 53 1e 3d eb eb 99 bd 8d c8 1c 3d f4 c8 20 3c
       0.038653467 -0.07515701 0.038277198 0.009813536
000280 60 d3 a7 3d 70 94 d5 3a 35 8f 31 bd 52 80 8b 3c
       0.081946135 0.0016294848 -0.043349463 0.017028961
000290 3e 2d 65 bd ec de 13 3d 4a d3 90 bc 21 53 8c 3c
       -0.05595135 0.036101267 -0.017678875 0.017129483
0002a0 07 3b d1 3b 7a e8 3c 3b 0b 35 c1 bc 9c 89 1e bc
       0.0063852104 0.002882509 -0.023584863 -0.009676363
0002b0 3e a8 a5 bc e1 4a 66 3d 65 f7 9b 3c 78 28 99 bd
       -0.020221826 0.056223754 0.019038865 -0.07478422
0002c0 a6 72 ea bc c9 0e 78 bd be 4d b6 bb 2c c3 1c 3d
       -0.028619122 -0.060560975 -0.005563467 0.038272068
0002d0 99 49 99 3c f7 80 60 bc 27 0f 8c bd 49 5c 8c bd
       0.018711852 -0.013702623 -0.068388276 -0.068535395
0002e0 50 36 7d 3d 96 f4 76 3d a0 0f 58 bd 21 33 82 ba
       0.061819375 0.06029185 -0.052749276 -0.000993345
0002f0 a3 35 8c 3d 64 ac ba 3b 89 ad 71 3d 23 7a 9c 3d
       0.06846168 0.00569682 0.059003387 0.07640483
000300 41 87 40 3d a4 f8 a9 3d 12 41 51 bd fa ea 3e 3d
       0.04700399 0.082993776 -0.051087447 0.04661081
000310 5b af 50 bd a8 fe 3a bd e5 2e 42 bd 49 6f cc bc
       -0.050948482 -0.045653015 -0.047408003 -0.024955409
000320 c5 7b 91 bd 2b f2 b1 3d 4a 5c 0b 3d 62 14 4e bd
       -0.07103685 0.08688768 0.03402356 -0.050312407
000330 01 87 fe bb 55 5d 71 3d db 21 50 bd 35 40 48 bc
       -0.0077675586 0.0589269 -0.050813537 -0.012222339
000340 10 d5 39 3c 7b ba 7f bd 12 90 2b 3d 71 29 9f bd
       0.011342302 -0.0624337 0.041885443 -0.07771576
000350 f1 52 66 3d 67 18 4a 3d 59 96 04 bd ae bb 1b 3d
       0.056231443 0.04933968 -0.032369945 0.038020782
000360 27 f6 8e bd af 3f 2a 3d 76 90 85 3d 42 4f 92 bd
       -0.069805436 0.04156464 0.06521694 -0.071440235
000370 11 71 9a bd 82 fa 67 3d aa 1e 84 bd 94 29 41 3d
       -0.07541097 0.056635387 -0.06451161 0.047158793
000380 53 66 2c bd 86 5b 64 bd 18 51 8a bd 64 c3 ab bc
       -0.04208977 -0.055751346 -0.06753749 -0.020967193
000390 03 9b f7 3c 34 9c 94 3c 22 e9 c6 bc 54 86 2f 3d
       0.030225283 0.01814089 -0.024281088 0.042852715
0003a0 e8 f6 23 3d f3 d1 92 bd 15 80 51 ba d8 11 73 bc
       0.04003039 -0.07168951 -0.0007991803 -0.014835797
0003b0 ff f1 c0 3d da ab 8d 3c a2 82 17 bd a1 0f 86 3d
       0.09421157 0.01729386 -0.036989816 0.0654595
0003c0 42 20 8e 3d 19 ba 39 bd 59 60 6a bc e3 a2 dd 3b
       0.069397464 -0.045343492 -0.014305198 0.0067638024
0003d0 4f 15 dc ba 10 ad 9d 3d fb 1d ad 3c ea 4d 09 3d
       -0.0016791018 0.07699025 0.02113246 0.03352157
0003e0 30 8b 8d bc a5 b7 8b bd 20 e0 c6 3a c8 7b 00 bd
       -0.017278284 -0.06822137 0.0015172996 -0.031368047
0003f0 85 24 56 3c cd e6 9b 3d 9f 60 a0 bd c1 88 ef bc
       0.01307023 0.07612381 -0.07830929 -0.029240014
