stockforecasting/600900_model.pkl (torch, 858688 bytes, 14 tensors)

weight_ih_l0 f4 [512, 4]
0	0xbc0e7c04	-0.00869656
1	0x3df7f013	0.121063374
2	0xbd202773	-0.03910012
3	0x3cd0a37b	0.025468579
4	0x3dcc229d	0.099675395
5	0x3d881145	0.06643919
6	0xbc066399	-0.008202457
7	0x3daa05a8	0.0830186
8	0xbb89370d	-0.004187471
9	0x3dbdf737	0.09275668
10	0x3b74ee8d	0.0037373633
11	0x3ca6213a	0.020279516
12	0x3d40fe67	0.047117617
13	0xbd16c18f	-0.036805686
14	0x3c595a65	0.013266181
15	0xbdb85a04	-0.09001544
16	0xbd55bc19	-0.052181337
17	0x3d81fe0e	0.06347285
18	0x3c9b8eb6	0.018988948
19	0x3d8b8acf	0.06813585
20	0x3dcf9cea	0.10137351
21	0xbd11fbe2	-0.035640605
22	0x3de65ba8	0.11247951
23	0x3c96476d	0.018344605
24	0x3b7bb026	0.0038404553
25	0x3b89d5bc	0.0042063873
26	0x3cfb4e40	0.030676961
27	0xbc0f7aee	-0.008757336
28	0xbc8332bc	-0.016015403
29	0xbdadb8f0	-0.0848254
30	0xbcd4eb0b	-0.025990983
31	0xbd563ca4	-0.052303925
32	0xbc494f4f	-0.012286975
33	0xbdab81ea	-0.083743885
34	0xbd7a467f	-0.061102387
35	0x3bacec3c	0.005277185
36	0x3dbb333c	0.091406316
37	0xbc81b3f6	-0.015832882
38	0x3d164320	0.03668511
39	0xbd113b67	-0.03545704
40	0xbd9c28f1	-0.076249965
41	0xbd993b2d	-0.0748199
42	0xbb4386fa	-0.002983509
43	0xbc243b0e	-0.010023845
44	0xbdade66d	-0.08491216
45	0x3a8b722e	0.0010638887
46	0x3a924e48	0.0011162246
47	0x3b2bd87f	0.002622157
48	0xbd9c6df6	-0.07638161
49	0xbca16b3d	-0.019704456
50	0xbd1b91a5	-0.037980694
51	0x3d7d2306	0.06180098
52	0x3da14656	0.07874744
53	0x3d5358e8	0.05159846
54	0xbd5cce84	-0.053907886
55	0x3d9c9404	0.07645419
56	0x3cc5fc36	0.024168115
57	0x3befc02b	0.0073166094
58	0xbd8858f6	-0.06657593
59	0xbd587aed	-0.052851606
60	0x3a209e70	0.00061271247
61	0x3db9c587	0.090708785
62	0x3d000989	0.031259093
63	0x3ca39c20	0.019971907
64	0x3d145e23	0.03622259
65	0x3d4159c6	0.047204755
66	0xbbc67879	-0.006056842
67	0x3d70c58d	0.05878215
68	0xbd827ef4	-0.06371871
69	0xbdb267f3	-0.08711233
70	0x3cfc4346	0.030793797
71	0x3b112689	0.0022148213
72	0xbd7a67a3	-0.061133992
73	0x3da2fdc8	0.07958561
74	0x3bf7648f	0.0075498293
75	0x3db88ebe	0.09011601
76	0x3da00f04	0.07815364
77	0x3d2be6a8	0.041968018
78	0x3d1fc366	0.039004706
79	0x3d8663c7	0.06562
80	0xbd00fef0	-0.031493127
81	0xbda79748	-0.081831515
82	0xbd537906	-0.05162909
83	0xbcd11203	-0.025521284
84	0xbadc4d51	-0.001680771
85	0xbc8c9141	-0.017159106
86	0x3d7492f6	0.059710465
87	0xbbd355bf	-0.0064494307
88	0x3df85e2b	0.12127336
89	0x3d2d5268	0.042314917
90	0x3c92c7bd	0.017917508
91	0x3d229088	0.039688617
92	0xbdcd55c4	-0.10026124
93	0xbd9b9d2c	-0.075983375
94	0x3d0667fe	0.03281402
95	0xbd861201	-0.06546403
96	0xbd8515dc	-0.0649831
97	0xbce94d6e	-0.028479304
98	0xbdb1703e	-0.086639866
99	0xbd825ef0	-0.06365764
100	0xbca754bd	-0.020426149
101	0xbd4cae15	-0.049970705
102	0xbd89b31c	-0.067236155
103	0x3c85d665	0.016337583
104	0x3da87d79	0.08227057
105	0xbd64f186	-0.055894397
106	0x3cd448a8	0.025913551
107	0x3c9393a8	0.018014744
108	0x3d347d6f	0.044064935
109	0xbd3f52cb	-0.046709817
110	0x3d41c1b9	0.04730389
111	0xbd901307	-0.07034879
112	0x3d1825c3	0.037145387
113	0x3bd2d16e	0.0064336574
114	0x3d35ab4f	0.044352826
115	0x3ccf6c28	0.025320128
116	0x3d2cf2a4	0.042223588
117	0x3da544b6	0.08069746
118	0x3a43fde5	0.0007476493
119	0xbd3b3503	-0.045704853
120	0x3d9c1359	0.07620878
121	0xbd12e18c	-0.03585963
122	0xbd8e03ca	-0.069343165
123	0xbba858b3	-0.005137527
124	0xbcbf00d1	-0.023315819
125	0xbc8f2c32	-0.017477129
126	0xbd2381d2	-0.03991873
127	0x3cb82c35	0.022482017
128	0xbd454dd4	-0.048169926
129	0x3ca56dc0	0.020193934
130	0x3d092abe	0.033488028
131	0xbc2f01e2	-0.010681601
132	0xbd6bac13	-0.05753715
133	0xbcbbb78c	-0.02291467
134	0x3d1045ea	0.035222925
135	0xbcf04238	-0.02932845
136	0x3c9874b0	0.018610328
137	0x3cdb1373	0.026742673
138	0xbc326111	-0.0108874
139	0x3c4ab090	0.012371197
140	0xbd9f0d55	-0.07766215
141	0xbcebcc3d	-0.028783912
142	0x3da2ae95	0.07943455
143	0xbd56a811	-0.052406374
144	0x3d018d3e	0.03162884
145	0xbcfcc66a	-0.03085633
146	0x3d33e574	0.043919995
147	0xbd25a89f	-0.040444013
148	0x3d3dcae7	0.04633608
149	0xbd6155d5	-0.055013496
150	0x3c017a3b	0.007902677
151	0x3ba14bcd	0.0049223662
152	0xbd39ba61	-0.04534376
153	0x3cf41b7b	0.02979826
154	0x3de93ab2	0.11388148
155	0x3cd17635	0.02556906
156	0x3d863f26	0.06555013
157	0x3c9da116	0.01924185
158	0xbd238a07	-0.039926555
159	0xbd0b24e5	-0.033970732
160	0x3dc1162c	0.09428057
161	0x3c9ed217	0.019387288
162	0xbd1a102c	-0.03761308
163	0x3dc082d9	0.09399957
164	0xbc8d95e9	-0.017283397
165	0x3d1d14f9	0.03835008
166	0xbd9a41be	-0.075320706
167	0x3c9da212	0.01924232
168	0xbd3b14a9	-0.045674
169	0x3cf4ae37	0.029868228
170	0xbd208cb0	-0.03919667
171	0xbd6febdc	-0.058574542
172	0xbd1b0ce6	-0.037854098
173	0xbdb0ca24	-0.08632305
174	0x3d5ae4c4	0.053440824
175	0xbd50a1b2	-0.050935455
176	0xbddc129e	-0.107457384
177	0x3b569b8c	0.0032746522
178	0xbbac3a27	-0.0052559557
179	0xbd989cff	-0.0745182
180	0xbcb7d1e5	-0.022438953
181	0x3d13f4e3	0.036122214
182	0x3cf6f734	0.030147173
183	0xbc2b7e0a	-0.010467062
184	0x3dc5a01a	0.096496776
185	0x3c078c96	0.008273264
186	0xbd41f13e	-0.047349207
187	0x3dddd17d	0.10830972
188	0x3c70d19d	0.014698413
189	0xbd256540	-0.040379763
190	0x3da7723c	0.08176085
191	0x3d763e79	0.060118172
192	0xbd085d4a	-0.033292092
193	0x3bfd6c6d	0.0077338726
194	0xbc091585	-0.008366947
195	0x3ce2fa2c	0.027707182
196	0x3d919548	0.07108551
197	0x3b157bb8	0.0022809338
198	0x3b081f77	0.0020770708
199	0xbcf04a8d	-0.029332424
200	0x3cf0fd15	0.029417554
201	0x3cf99c18	0.03046994
202	0xbd86de75	-0.06585399
203	0x3b5bc683	0.003353507
204	0x3dc30915	0.09523217
205	0x3d9326f1	0.07185162
206	0x3dd7ed62	0.10543324
207	0x3db18a97	0.08669012
208	0x3d6442bb	0.0557277
209	0x3c96dd00	0.018415928
210	0xbdabc3ac	-0.08386931
211	0xbd84da6d	-0.06486974
212	0x3d849ebb	0.06475588
213	0xbcb4cf29	-0.022071438
214	0xbb284930	-0.0025678389
215	0x3d9162e9	0.07098944
216	0x3dfa0d61	0.12209583
217	0x3de32e66	0.11092834
218	0x3e00ba0f	0.12570976
219	0x3c1d02bb	0.0095831705
220	0x3d2af497	0.041737165
221	0x3da1741c	0.07883474
222	0x3d3d4369	0.046206865
223	0xbcaf7c46	-0.021421563
224	0xbda379e0	-0.0798223
225	0xbd1d3e45	-0.038389463
226	0xbd9d3e85	-0.0767794
227	0xbd9aaa8e	-0.07552062
228	0x3ddaf18a	0.10690601
229	0xbc997fc3	-0.01873768
230	0x3ddcf8f5	0.10789672
231	0xb9e68954	-0.00043971336
232	0xbcfd8c48	-0.03095068
233	0x3d45e24a	0.04831151
234	0x3c421a5b	0.011847104
235	0x3da92a25	0.082599916
236	0x3d826b19	0.063680835
237	0x3c34c44c	0.011033129
238	0x3c4bcb15	0.012438555
239	0x3d3ba18f	0.04580837
240	0x3cf2a142	0.02961791
241	0xbd384334	-0.044985965
242	0xbd28b5de	-0.041189067
243	0x3c4b8e70	0.012424096
244	0xbc7b243f	-0.015328466
245	0xbd370584	-0.044682994
246	0xbd44d9eb	-0.048059385
247	0xbda439ba	-0.08018823
248	0xbd841f55	-0.064512886
249	0x3d1f7d50	0.038937867
250	0xbd46a6d4	-0.048498943
251	0xbcdd12a3	-0.026986426
252	0xbd799c85	-0.060940284
253	0x3db50318	0.08838481
254	0xbd08be2c	-0.033384487
255	0x3c48c7d3	0.012254673

weight_hh_l0 f4 [512, 128]
0	0xbd911336	-0.07083742
1	0x3de69f8f	0.11260902
2	0x3a91b2a8	0.0011115866
3	0x3bd3913e	0.006456523
4	0xbca42a36	-0.020039659
5	0xbd906072	-0.070496455
6	0xbe07ef11	-0.1327479
7	0xbd0031af	-0.031297382
8	0x3d335aaa	0.043787636
9	0xbdf09edd	-0.11749051
10	0x3b1d320c	0.002398613
11	0xbc830c29	-0.01599701
12	0xbd9aadee	-0.07552706
13	0xbdc0a696	-0.09406774
14	0x3c678998	0.014131926
15	0xbddf134f	-0.10892355
16	0x3df5cf32	0.1200241
17	0xbd47a238	-0.04873869
18	0xbcd0a9b6	-0.02547155
19	0x3d831900	0.06401253
20	0x3c83748c	0.016046785
21	0xbc56fbba	-0.01312154
22	0x3d807f19	0.06274242
23	0x3de3421f	0.11096596
24	0xbcdcc4de	-0.026949342
25	0x3dcca2a1	0.099919565
26	0xbc87bfdc	-0.016570978
27	0xbd4b4509	-0.049626384
28	0xbdd524f7	-0.10407441
29	0x3dba3c48	0.09093529
30	0x3d0c4af0	0.034251153
31	0x3df57159	0.1198451
32	0xbdd84a9e	-0.10561107
33	0xbc2dd8d8	-0.010610782
34	0xbe05e1a4	-0.13074356
35	0x3d44c3cf	0.0480383
36	0x3cd10a46	0.025517594
37	0x3e03ce3b	0.1287164
38	0xbd0ccb01	-0.034373287
39	0x3da37ae7	0.07982426
40	0x3cb74438	0.022371396
41	0x3db4c3ad	0.08826385
42	0xbdd68e00	-0.10476303
43	0xbd5c16b5	-0.053732593
44	0x3d140022	0.03613294
45	0x3dab4032	0.08361854
46	0xbc90cc94	-0.017675675
47	0xbba099a2	-0.004901127
48	0x3d3b9f62	0.045806296
49	0xbdc313af	-0.09525239
50	0x3d5c20a5	0.05374207
51	0xbd8395d6	-0.06425063
52	0x3dc80dfc	0.09768292
53	0xbdd48617	-0.10377138
54	0x3be376f8	0.0069416724
55	0xbe01921d	-0.12653394
56	0xbd1b5805	-0.03792574
57	0xbc908fdf	-0.017646728
58	0xbcfbde0b	-0.030745527
59	0xbe02a1e7	-0.12757073
60	0xbd4c7d84	-0.04992439
61	0x3dda574f	0.10661184
62	0xbd9610be	-0.07327412
63	0x3cfdf4a8	0.03100045
64	0x3e0b5a8b	0.13608758
65	0xbdac71c1	-0.08420134
66	0xbbdf00d2	-0.0068055177
67	0x3c338f50	0.010959461
68	0xbd97313f	-0.0738244
69	0xbd2704b5	-0.040775973
70	0xbd328036	-0.043579303
71	0xbc8e296c	-0.017353736
72	0x3c88f7d4	0.016719736
73	0xbc9e744c	-0.019342564
74	0x3d1cde64	0.038298026
75	0x3d6ff773	0.058585595
76	0xbde93700	-0.113874435
77	0xbc53bc7f	-0.012923359
78	0xbdab4c37	-0.08364146
79	0xbd899b3f	-0.06719064
80	0x3c10ad42	0.00883037
81	0x3d92e703	0.07172968
82	0x3cf40120	0.029785693
83	0x3da2ae4a	0.07943399
84	0xbd919a44	-0.07109502
85	0x3c743953	0.014906245
86	0x3db1c0c4	0.08679345
87	0xbd535418	-0.05159387
88	0x3d4ac9ae	0.049508743
89	0x3d82794b	0.06370791
90	0xbd28bcdf	-0.041195747
91	0x3dd74d3a	0.10512777
92	0x3dd1131c	0.10208723
93	0xbda410b6	-0.08011
94	0xbb1dc37f	-0.0024072824
95	0x3ce3f6a7	0.027827574
96	0x3d958a87	0.073018126
97	0xbd51f194	-0.051255777
98	0xbc7b3a05	-0.015333657
99	0xbbf84237	-0.007576253
100	0x3ddc8b23	0.10768726
101	0xba3152c9	-0.000676435
102	0xbd36a740	-0.044593096
103	0xbd7bee55	-0.061506588
104	0xbc0bbfe6	-0.008529639
105	0x3ce80b91	0.028325828
106	0xbdbd9c9a	-0.09258385
107	0xbd37ee23	-0.04490484
108	0x3cc96448	0.02458395
109	0xbdf5f38d	-0.12009344
110	0xbd151e89	-0.036406074
111	0xbaeb5f87	-0.0017957547
112	0xbcafd93c	-0.02146589
113	0xbd149bb5	-0.036281306
114	0xbc9990fc	-0.018745892
115	0xb9157842	-0.00014254547
116	0xbc5307d9	-0.012880289
117	0x3d0166cc	0.031592175
118	0xbdc02bb2	-0.09383334
119	0xbbe8ba34	-0.0071022753
120	0xbb2801bc	-0.00256358
121	0x3cf54cac	0.029943787
122	0xbcfc4597	-0.030794902
123	0x3d153751	0.036429707
124	0xbbbffcd2	-0.005858996
125	0xbda582f6	-0.080816194
126	0xbdf1a29b	-0.11798593
127	0xbd53e10a	-0.051728286
128	0xbdd1cb19	-0.10243816
129	0xbd5ec2b6	-0.05438491
130	0xbd12fb41	-0.035884146
131	0x3b81f1e4	0.003965603
132	0x3d49f46b	0.04930536
133	0xbd012b70	-0.031535566
134	0xbb85b6ce	-0.00408063
135	0xbd35065d	-0.04419552
136	0xbd9b68ad	-0.07588325
137	0xbd85baff	-0.06529807
138	0xbce7b317	-0.028283639
139	0xbd65a24e	-0.05606299
140	0x3a898af6	0.0010493684
141	0xbdbe28ea	-0.092851475
142	0xbdb6c9e6	-0.08925228
143	0x3cce096c	0.025150977
144	0x3d49e0d4	0.04928668
145	0x3d072d65	0.033002276
146	0xbcb45cdd	-0.022016937
147	0x3d373d5e	0.04473626
148	0x3b68e5f6	0.0035537458
149	0x3c67a15a	0.01413759
150	0x3ca793bd	0.02045619
151	0x3d93c614	0.07215515
152	0x3d7381cf	0.059449967
153	0xbd2cb401	-0.042163853
154	0xbdc118cc	-0.09428558
155	0xbb030ec2	-0.001999781
156	0x3d28264a	0.04105214
157	0xbd1bea28	-0.038065106
158	0x3c58b4ef	0.013226732
159	0x3d6f062a	0.058355488
160	0xbd87ae26	-0.06625013
161	0x3b7f3ea7	0.0038947256
162	0x3d360fc0	0.044448614
163	0x3dbf0bd7	0.0932843
164	0x3d51f486	0.051258586
165	0x3ce5739e	0.028009232
166	0x3d05ffe3	0.032714736
167	0x3dcf5abc	0.10124728
168	0x3d182e5f	0.037153598
169	0xbd86ec17	-0.06587999
170	0xbd8d846c	-0.06910023
171	0x37779f57	1.47594465e-05
172	0xbd1e00e1	-0.038575057
173	0x3c341d16	0.010993263
174	0x3cec712c	0.028862558
175	0xbd9c085e	-0.076187834
176	0x3d9d4e92	0.07681002
177	0xbce0f4b7	-0.02746044
178	0xbcd91ab9	-0.026502
179	0xbd8699b5	-0.06572286
180	0x3c823556	0.015894573
181	0x3dcf3558	0.101175964
182	0xba7fe7fd	-0.0009762047
183	0xbb8d4992	-0.004311749
184	0xbb999aa9	-0.0046876264
185	0xbca8540c	-0.02054789
186	0xbd599fce	-0.053130917
187	0x3d0bb088	0.0341039
188	0x3d599722	0.053122647
189	0xbc0e0976	-0.008669248
190	0x3d40765a	0.04698787
191	0xbd8cbc78	-0.06871885
192	0x3de15428	0.1100238
193	0xbdb3ad9f	-0.0877335
194	0xbd467ddd	-0.048459876
195	0xbcb2da78	-0.02183269
196	0x3d95a919	0.073076434
197	0xbd731f29	-0.05935589
198	0x3d297934	0.041375354
199	0x3d13e1cc	0.03610401
200	0xbce4adc7	-0.027914895
201	0xbd6a96f5	-0.05727287
202	0x3d8493e2	0.06473519
203	0xbd90d55f	-0.07071947
204	0xbd2a4ef4	-0.0415792
205	0xbc8d4ce3	-0.017248577
206	0x3c01d7d9	0.007924997
207	0x3d0107d1	0.031501595
208	0xbd2b8ec7	-0.04188421
209	0x3d55fcb0	0.052242935
210	0xbdb7cbaf	-0.089743964
211	0x3d504693	0.050848555
212	0xbc83c6de	-0.016086038
213	0xbca5c9fe	-0.020237919
214	0x3db7ab55	0.08968226
215	0x3c68a169	0.014198639
216	0x3dd4d4fd	0.10392187
217	0xbcd34e19	-0.025794076
218	0xbc6c87e3	-0.014436695
219	0x3d6a626b	0.057222765
220	0x3de24f18	0.11050242
221	0xbd96f4f1	-0.073709376
222	0xbd74dcb7	-0.059780803
223	0x3d98dadb	0.07463618
224	0xbd6b4570	-0.057439268
225	0x3984518d	0.00025237762
226	0xbd165a69	-0.036707316
227	0xbd1001b2	-0.035157867
228	0xbc403c45	-0.011733119
229	0xbdc68219	-0.09692783
230	0x3d826044	0.063660175
231	0x3da122ed	0.0786799
232	0x3b9199fc	0.004443405
233	0x3d4e5905	0.050377864
234	0xbddc742c	-0.107643455
235	0xbc97c3a5	-0.018525908
236	0xbd770533	-0.060307693
237	0xbda2693c	-0.07930228
238	0x3d841f42	0.064512745
239	0x3d0f4021	0.034973267
240	0xbdc3e317	-0.09564798
241	0xbd3dde9f	-0.046354886
242	0xbd27d147	-0.040971067
243	0xbcd89560	-0.026438415
244	0x3d11e25d	0.035616267
245	0x3c176b9f	0.009241967
246	0x3c25b81a	0.010114694
247	0x3ce60883	0.02808023
248	0x3cc66375	0.024217347
249	0x3ca97510	0.020685703
250	0x3d1e849d	0.03870069
251	0xbd815d6d	-0.06316648
252	0xbd966dfd	-0.07345197
253	0xbd9e828d	-0.07739744
254	0xbd172bb5	-0.036906917
255	0x3d5fb0aa	0.05461184

bias_ih_l0 f4 [512]
0	0x3c7af89a	0.01531806
1	0x3d911afc	0.07085225
2	0xbd919aa6	-0.07109575
3	0xbd1f2fb7	-0.038863864
4	0xbd86b3f6	-0.065772936
5	0xbd9fbaf1	-0.07799328
6	0xbcf2204d	-0.029556418
7	0x3d8a00d3	0.067384385
8	0x3cd4e404	0.025987633
9	0x3e36ccc9	0.17851557
10	0xbb895c13	-0.0041918843
11	0x3d4c4252	0.049867935
12	0x3ce1d2e9	0.02756639
13	0x3d944128	0.0723899
14	0x3eb9a4b8	0.36258483
15	0x3d402b31	0.04691619
16	0x3c5fed57	0.013667426
17	0x3d9acdf4	0.07558814
18	0x3dd74542	0.10511257
19	0xbcd207ea	-0.02563854
20	0xbd8c49d2	-0.068500176
21	0x3d774dca	0.06037692
22	0xbd7d7aae	-0.061884575
23	0x3d6645ec	0.056219026
24	0x3d523a5e	0.051325195
25	0x3db94797	0.09046858
26	0xbdcffa5d	-0.10155175
27	0x3d6852ec	0.056719705
28	0xbc5ffd4f	-0.013671233
29	0x3dbd6b2b	0.09248956
30	0x3e012bb8	0.12614334
31	0x3d8f6149	0.070009775
32	0x3d83499e	0.06410526
33	0x3d45100d	0.04811101
34	0x3eae9404	0.34097302
35	0x3c37e820	0.0112247765
36	0xbc3a2ab0	-0.011362717
37	0x3d3eaa60	0.0465492
38	0xbd938c39	-0.0720448
39	0x3d568644	0.05237414
40	0x3a990289	0.0011673729
41	0x3dcb2239	0.09918637
42	0xbda09d9c	-0.078425616
43	0xbc2ea8d7	-0.010660372
44	0x3d4be4ad	0.04977863
45	0x3d12ec56	0.03586992
46	0xbbb6c5c0	-0.005577773
47	0xbd87dd91	-0.06634057
48	0x3da6af95	0.08138958
49	0x3dcf2c0f	0.101158254
50	0x3d2a157b	0.04152439
51	0xbd81a507	-0.063303046
52	0xbc859fa7	-0.01631148
53	0x3dde841d	0.10865042
54	0xbdab132d	-0.08353267
55	0x3d28f4f8	0.041249245
56	0xbd2c1ee4	-0.042021647
57	0xbd314b6f	-0.04328483
58	0xbcee0855	-0.029056707
59	0xbda22afd	-0.079183556
60	0xbd3aa26a	-0.045565046
61	0x3b694b0b	0.0035597708
62	0x3d2cbc76	0.042171918
63	0x3d9b77a2	0.075911775
64	0xbd371372	-0.04469628
65	0xbd25725b	-0.04039226
66	0xbdd31085	-0.10305885
67	0x3d4d442e	0.05011385
68	0x3dac4284	0.08411124
69	0xbd197cf3	-0.037472676
70	0xbdb15718	-0.0865919
71	0x3d84ae06	0.06478505
72	0x3db15955	0.08659617
73	0xbc95f121	-0.018303456
74	0x3d644081	0.05572558
75	0x3a6c3c3a	0.000901166
76	0xbd7c46a9	-0.061590824
77	0xbccfed1c	-0.025381617
78	0x3cdbc83b	0.026828876
79	0xbd205829	-0.039146576
80	0xbd27f20c	-0.04100232
81	0xbcabdd04	-0.020979412
82	0x3cd57785	0.026057968
83	0x3e3b6cca	0.18303218
84	0x3d7d6f20	0.061873555
85	0xbd9e047c	-0.07715699
86	0xbdbbeab4	-0.091756254
87	0x3d80882f	0.06275975
88	0xbd8c7c48	-0.06859642
89	0x3d55b4f4	0.052174523
90	0xbc9c1f30	-0.01905784
91	0x3b1bdc63	0.0023782484
92	0xbd4bbafc	-0.04973887
93	0x3bb38870	0.005478911
94	0x3cc88b24	0.02448041
95	0xbcbcaf47	-0.023032798
96	0xbcc5576d	-0.02408954
97	0xbd5a2c71	-0.05326504
98	0x3dafe121	0.08587862
99	0xbc87f8e7	-0.016598178
100	0x3c60b2b2	0.013714479
101	0xbd1fe294	-0.03903444
102	0xbd909588	-0.07059771
103	0x3dbdc737	0.09266513
104	0x3d807c9e	0.06273769
105	0xbc762b61	-0.015024991
106	0x3d7f555f	0.062337276
107	0xbd75b21d	-0.059984315
108	0xbcc7916b	-0.024361333
109	0x3d9c008b	0.07617291
110	0xbdf0251b	-0.11725827
111	0x3dc48cf4	0.09597197
112	0x3cf8c1be	0.030365821
113	0xbd606b17	-0.05478963
114	0xbd548b5b	-0.051890712
115	0x3cde51f8	0.027138695
116	0xbdc387eb	-0.09547409
117	0x3dcf4725	0.101209916
118	0xbd4720a2	-0.048615105
119	0x3ce8fab4	0.028439857
120	0xbd0b163c	-0.03395675
121	0x3caaae03	0.020834928
122	0xbca0547e	-0.019571539
123	0x3c17c747	0.00926382
124	0x3d9d329b	0.07675668
125	0x3d04cfc3	0.0324247
126	0x3d5e4683	0.054266464
127	0x3d03d798	0.032188028
128	0xbd228b2e	-0.039683513
129	0x3c6a24dc	0.0142910145
130	0x3c594bf0	0.013262734
131	0xbdba128f	-0.09085571
132	0xbd9f84ce	-0.07789002
133	0xbd0a905d	-0.03382908
134	0xbd12b5c3	-0.035817873
135	0x3d6da5b7	0.058019366
136	0xbd9157e8	-0.07096845
137	0xbdfb485f	-0.12269663
138	0xbbd4fe97	-0.006500076
139	0xbd6cc730	-0.057807148
140	0x3d834c3c	0.06411025
141	0xbd185dd7	-0.037198868
142	0xbdb2fab7	-0.08739226
143	0x3c09d2d4	0.008412082
144	0xbd97ce0e	-0.07412349
145	0x3d4d82bd	0.05017351
146	0xbd1fe85b	-0.03903995
147	0x3cc15310	0.023599178
148	0x3d34c928	0.04413715
149	0xbda7cf68	-0.081938565
150	0xbdadbd45	-0.08483366
151	0x3c373059	0.011180961
152	0xbdeaeb5a	-0.11470671
153	0xbd99b903	-0.07505991
154	0xbd1903c8	-0.03735712
155	0x3d2a817f	0.041627403
156	0xbccacef4	-0.024756886
157	0xbc1a7ef8	-0.009429686
158	0xbbb213d4	-0.0054344926
159	0xbe13ec29	-0.14445557
160	0x3cd80211	0.026368173
161	0xbcc23720	-0.023707926
162	0xbe069b34	-0.13145143
163	0xbd3fc017	-0.04681405
164	0x3c534a3a	0.012896115
165	0xbda8e6d2	-0.082471505
166	0xbd2c3ec1	-0.042052034
167	0xbd6d7eea	-0.057982363
168	0x3c3e1dae	0.011603756
169	0xbd21f657	-0.03954157
170	0xbe240020	-0.16015673
171	0x3da06282	0.07831289
172	0xbd642825	-0.055702347
173	0xbda82ff8	-0.08212274
174	0x3c6c7e4e	0.01443441
175	0x3d442916	0.047890745
176	0x3c70452a	0.0146649275
177	0x3d71d7f1	0.05904383
178	0xbcb82edd	-0.022483284
179	0xbd14bc92	-0.036312647
180	0xbd06eebb	-0.032942515
181	0xbd7238fc	-0.059136376
182	0xba828130	-0.0009956714
183	0xbaeed673	-0.001822187
184	0xbd2e6184	-0.042573467
185	0xbd92543e	-0.07144974
186	0xbdc92d35	-0.09823076
187	0x3ca6473d	0.020297641
188	0x3c9cb1f8	0.01912783
189	0x3c3a4719	0.01136949
190	0x3d023c28	0.03179565
191	0xbc1c2ff2	-0.009532915
192	0xbda49953	-0.08037057
193	0x3daf331e	0.08554672
194	0xbda3df2f	-0.08001553
195	0xbd27ce8c	-0.040968463
196	0x3c5280cf	0.012848093
197	0x3cb1c232	0.021699045
198	0x3cb191bc	0.021675937
199	0xbd6fc333	-0.058535766
200	0x3bb87ad0	0.0056298748
201	0x3d99c60f	0.0750848
202	0xbcb4b064	-0.022056766
203	0x3d4221f6	0.04739567
204	0xbd5d8746	-0.054084085
205	0xbc5a42b5	-0.013321568
206	0xbdc531a7	-0.09628611
207	0xbc5affec	-0.013366681
208	0xbd9decf1	-0.077112086
209	0xbd3b63be	-0.04574942
210	0x3cc45558	0.023966476
211	0xbe1b877b	-0.151884
212	0xbd4ef66f	-0.050527986
213	0xbdbde659	-0.09272451
214	0x3bac2ebc	0.0052545946
215	0xbd3aaa12	-0.045572348
216	0xbdc09645	-0.09403662
217	0x3d5d51b3	0.054032993
218	0x3d7f280f	0.062294062
219	0xb95a28d5	-0.00020805311
220	0xbd4fb164	-0.050706282
221	0xbdbb9d49	-0.09160859
222	0x3d483fcd	0.04888897
223	0xbb87d745	-0.004145535
224	0x3d252ae1	0.040324096
225	0xbdd6e44c	-0.10492763
226	0xbdf2f76a	-0.11863597
227	0xbd86e65d	-0.06586907
228	0xbd7f3e2b	-0.062315147
229	0x3c9c16ac	0.01905378
230	0xbd93c9a1	-0.07216192
231	0x3d96270d	0.07331667
232	0xbbbaee3d	-0.0057046697
233	0x3d509452	0.0509227
234	0xbc3542bc	-0.011063274
235	0xbdaaac0f	-0.08333599
236	0xbdc3f9e7	-0.095691495
237	0x3d1e5737	0.038657393
238	0xbba124be	-0.00491771
239	0xbd528e2a	-0.05140511
240	0xbd72fab6	-0.059321128
241	0xbdb3331b	-0.08749982
242	0xbd41aa56	-0.047281586
243	0xbd00d5b8	-0.031453818
244	0xbdcfdd01	-0.10149575
245	0x3c922d04	0.01784373
246	0xbd1abb9d	-0.03777658
247	0x3d6b795d	0.057488788
248	0xbdc9ddb7	-0.09856742
249	0x3d5f9203	0.054582607
250	0x3d898e0e	0.06716548
251	0xbda2915c	-0.07937881
252	0x3d872f2e	0.06600796
253	0xbdd471c1	-0.10373259
254	0xbd98e22f	-0.07465016
255	0x3c0b08df	0.008486002

bias_hh_l0 f4 [512]
0	0x3c3c2a40	0.011484683
1	0x3cab8878	0.020939097
2	0x3d933ad4	0.07188955
3	0x3c950db8	0.018195018
4	0xbd400c37	-0.04688665
5	0x3d9200c8	0.07129055
6	0xbc0ebb16	-0.008711597
7	0x3d3a427e	0.04547357
8	0xbd09491e	-0.033516996
9	0x3e154266	0.1457611
10	0xbc658217	-0.014008067
11	0xba36880b	-0.0006963021
12	0x3e055519	0.13020743
13	0xbd7db44e	-0.06193953
14	0x3e71d370	0.23615813
15	0xbd5db70d	-0.05412965
16	0xbd900f4c	-0.07034168
17	0x3d31ffab	0.043456715
18	0x3dde977e	0.108687386
19	0xbd8661be	-0.065616116
20	0x3d208a0d	0.039194155
21	0xbd1201fe	-0.03564643
22	0xbd67092b	-0.056405228
23	0xbd30187b	-0.042992096
24	0x3d7bef94	0.061507776
25	0xbc29a85f	-0.010355084
26	0xbc9418c3	-0.018078214
27	0x3d836b80	0.064169884
28	0xbd912eec	-0.07089028
29	0x3da7ff7b	0.08203026
30	0x3d9ca920	0.076494455
31	0x3dc7f404	0.09763339
32	0x3d38d22a	0.045122303
33	0xbc401783	-0.011724356
34	0x3e79cd79	0.24394788
35	0xbded25cb	-0.11579474
36	0xb9b9db2e	-0.0003544925
37	0x3e0b2c59	0.13591136
38	0xbd3e6c86	-0.046490215
39	0x3d4f1deb	0.05056564
40	0x3d8d069b	0.068860255
41	0x3dbedf59	0.09319944
42	0xbe1c5f1a	-0.15270653
43	0x3dd0216b	0.10162624
44	0xbbdf8d27	-0.0068222466
45	0xbd04c851	-0.0324176
46	0xbd6c7d77	-0.05773684
47	0xbd46ed87	-0.048566367
48	0xbb8d7760	-0.004317209
49	0xbd5eedd9	-0.054426048
50	0x3d9dab78	0.07698721
51	0x3d7f87ac	0.062385246
52	0xb98b1112	-0.00026524864
53	0x3de6ac30	0.11263311
54	0x3ca1a41d	0.019731576
55	0x3be443a2	0.0069660703
56	0x3d922900	0.071367264
57	0xbda1da00	-0.07902908
58	0x3c918a95	0.017766276
59	0xbd70c0e4	-0.058777705
60	0x3c6ae859	0.014337623
61	0xbcfe4aae	-0.03104147
62	0x3da6e1df	0.0814855
63	0xbd1beac4	-0.038065687
64	0x3d462cb0	0.04838246
65	0xbaabbd97	-0.0013102767
66	0xbd940ca2	-0.07228972
67	0x3d36c193	0.0446182
68	0xba5be4a3	-0.00083882565
69	0x3d502dac	0.050824806
70	0xbd913b3f	-0.070913784
71	0x3d261579	0.04054782
72	0x3d9bab1b	0.07600995
73	0x3d20ee96	0.039290033
74	0x3d6fb02e	0.058517627
75	0xbc9a9e1f	-0.018874226
76	0x3d3ab214	0.045579985
77	0x3da52cbe	0.080651745
78	0xbc26d93d	-0.01018363
79	0xbc6eba72	-0.014570819
80	0xbb09e526	-0.0021041124
81	0x3d890f09	0.06692321
82	0x3d1e9a96	0.038721643
83	0x3e2fb671	0.1715944
84	0x3dd88682	0.1057253
85	0xbdc040cc	-0.09387359
86	0xbc7b70e9	-0.015346744
87	0xbc61649a	-0.013756895
88	0x3c1e93a7	0.009678758
89	0x3d933528	0.07187873
90	0xbdb34280	-0.08752918
91	0xbd9307f1	-0.07179249
92	0x3d8156ac	0.063153595
93	0xbc0f6b48	-0.008753605
94	0xbd8e610c	-0.06952104
95	0xbd07a582	-0.033116825
96	0xbda13046	-0.078705356
97	0xb9f397aa	-0.0004646157
98	0x3c876fc7	0.016532792
99	0xbd4bba56	-0.04973825
100	0xbd1a26fc	-0.037634835
101	0x3dc0c45a	0.09412451
102	0xbc35b3ac	-0.0110902
103	0xba08e8a9	-0.00052226573
104	0xbc85d5f1	-0.016337367
105	0xbd95e2dc	-0.073186606
106	0xb96be5f4	-0.0002249701
107	0xbbfd34b9	-0.0077272323
108	0x3c3870b6	0.011257341
109	0x3d96f7df	0.073714964
110	0xbdfd5880	-0.12370396
111	0x3d84f202	0.06491472
112	0x3c9752b3	0.018472051
113	0xbd7b96c4	-0.06142308
114	0x3b6d6555	0.0036223729
115	0xbc78ac43	-0.015177789
116	0xbdc4e6ee	-0.09614359
117	0xbd008d2b	-0.03138463
118	0xbd6a8ca0	-0.057263017
119	0xbd32d3c8	-0.043659
120	0x3d08cb07	0.033396747
121	0x3db8f6ce	0.09031449
122	0x3ae65558	0.0017573042
123	0xbcf2b1e7	-0.029625846
124	0xbd85942d	-0.06522403
125	0xbd3e2a9e	-0.04642736
126	0x3d8398b6	0.06425612
127	0xbdb1562b	-0.08659013
128	0xbd660305	-0.056155223
129	0xbdbd321c	-0.09238073
130	0xbd03a6e6	-0.03214159
131	0x3b015227	0.0019732805
132	0xbd81e067	-0.063416295
133	0x3d14fc08	0.03637317
134	0x3d51ca66	0.051218413
135	0xbd61bb0e	-0.05511003
136	0xbd31ed89	-0.04343942
137	0xbdab8808	-0.08375555
138	0xbcaf2ae0	-0.02138275
139	0xbd87c6f0	-0.06629741
140	0x3d6a904f	0.05726653
141	0x3d47ec9a	0.048809625
142	0xbe06ee3b	-0.13176815
143	0xbda15c3c	-0.078789204
144	0x3d7404ca	0.05957488
145	0xbda16a81	-0.07881642
146	0xbd4980bd	-0.04919504
147	0x3d4d5434	0.05012913
148	0x3ccb1165	0.024788568
149	0x3c1aa93c	0.009439763
150	0xbdbc76a9	-0.0920232
151	0xbd7ac622	-0.06122411
152	0x3cd78a27	0.026310993
153	0x3d977402	0.073951736
154	0xbc779b00	-0.0151126385
155	0xbd9d0bc3	-0.07668259
156	0xbdd0e6ea	-0.10200293
157	0xbdea5c84	-0.11443427
158	0xbc8717a6	-0.016490769
159	0xbe011fa9	-0.12609734
160	0x3d108281	0.03528071
161	0xbc813cc4	-0.015776046
162	0xbdb41f8a	-0.08795078
163	0x3bdd1f2f	0.006748102
164	0x3d5eb4c6	0.054371618
165	0xbcf9f000	-0.030509949
166	0xbd66ed3a	-0.05637858
167	0x3da73695	0.081647076
168	0x3d8226b2	0.06355037
169	0xbdac0baf	-0.08400666
170	0xbd9fc1e6	-0.07800655
171	0x3d773ac4	0.060358778
172	0xbd1f40a4	-0.038880005
173	0xbd88c9f4	-0.066791445
174	0x3ccf2684	0.02528692
175	0xbc00e32c	-0.007866662
176	0x3b826c57	0.0039802003
177	0xbcdb24e2	-0.026750986
178	0x3cd44359	0.02591102
179	0x3d8634cf	0.06553041
180	0xbdafcdb9	-0.0858416
181	0xbd96cd58	-0.07363385
182	0x3d7d7cb6	0.06188651
183	0x3d108c26	0.035289906
184	0xbd90c796	-0.07069318
185	0x39269468	0.0001588628
186	0xbd21c6a7	-0.03949609
187	0x3cb25cbc	0.021772735
188	0xbd21cf0b	-0.039504092
189	0x3c9c8619	0.019106911
190	0xbd7fd7f7	-0.06246182
191	0x3d6c9060	0.057754874
192	0xbdaa6c61	-0.08321453
193	0xbc6ec721	-0.014573843
194	0xbb630423	-0.0034639917
195	0x3d6dbf2c	0.058043644
196	0xbda438de	-0.08018659
197	0xbc25f938	-0.010130219
198	0xbdae9992	-0.08525385
199	0x3bc92ced	0.006139389
200	0xbdc15c0f	-0.09441387
201	0xbd801e89	-0.06255824
202	0xbd98eb41	-0.07466746
203	0x3d4754f6	0.04866501
204	0x3c3ff8dd	0.0117170485
205	0xbce9fe3b	-0.02856361
206	0xbd32d5a4	-0.043660775
207	0xbdafa2d2	-0.085759774
208	0xbd53c5f7	-0.051702466
209	0xbc532b38	-0.012888722
210	0xbce6d03d	-0.028175468
211	0xbd1e6fa9	-0.038680706
212	0x3d79f5dc	0.061025485
213	0x3d788129	0.06067005
214	0xbdbac9ab	-0.09120496
215	0xbda0772c	-0.0783523
216	0xbdb0d9e5	-0.0863531
217	0x3d2dcc5a	0.042431213
218	0x3bb1620a	0.0054132985
219	0x3cabd314	0.020974673
220	0xbdc5dff6	-0.09661858
221	0xbd4afba1	-0.04955638
222	0xbcfec913	-0.031101739
223	0xbd0be699	-0.034155462
224	0x3d64f873	0.055901002
225	0x3d20c941	0.03925443
226	0x3c886bc8	0.016652957
227	0x3d4fb4be	0.05070948
228	0x3d874a8f	0.06606018
229	0xbcad1c55	-0.021131674
230	0xbd48ce04	-0.049024597
231	0x3d476d44	0.04868819
232	0xbdbe57db	-0.09294101
233	0x3d663fea	0.056213297
234	0xbd4c1794	-0.049827173
235	0xbdade665	-0.0849121
236	0xbce30c11	-0.027715715
237	0xbcae6a7b	-0.021291008
238	0xbd284c8a	-0.04108862
239	0xbdc51d3b	-0.09624716
240	0xbce02cfa	-0.027365196
241	0xbcfd692e	-0.030933943
242	0x3d4a77a9	0.049430523
243	0xbd19d528	-0.037556797
244	0xbd3c2868	-0.045936972
245	0x3d03e67a	0.03220222
246	0x3d907a68	0.07054597
247	0x3d9203b2	0.07129611
248	0xbd618329	-0.055056725
249	0x3d071c17	0.032985773
250	0xbd2d01c4	-0.042238012
251	0xbd85ac93	-0.065270565
252	0xbbc814a6	-0.006105977
253	0x3bf5f48d	0.0075059594
254	0xbd1f4715	-0.03888615
255	0xbdab211f	-0.08355927

weight_ih_l1 f4 [512, 128]
0	0xbd76a33a	-0.06021426
1	0x3d6862cb	0.05673484
2	0xbda426c9	-0.0801521
3	0x3cb70473	0.022340989
4	0x3d205233	0.03914089
5	0x3d86eb3d	0.06587837
6	0xbd093769	-0.03350011
7	0xbcc4c185	-0.024018059
8	0xbd2cea52	-0.042215653
9	0x3c22ff0b	0.009948502
10	0x3d966dad	0.07345138
11	0xbd4176b8	-0.04723236
12	0x3cf77c0b	0.030210515
13	0xbd8ffaa3	-0.07030227
14	0xbc888545	-0.01666511
15	0x3dbc3d79	0.091914125
16	0x3d1b4e30	0.037916362
17	0x3c1483f1	0.00906466
18	0x3ddbc431	0.1073078
19	0xbd65220f	-0.055940684
20	0x3dcbce78	0.0995149
21	0x3d5a7965	0.053338427
22	0xbd03e274	-0.032198384
23	0xbd595012	-0.053054877
24	0xbd5d5a40	-0.054041147
25	0x3d72bd1a	0.059262373
26	0xbcd8d419	-0.026468324
27	0x3d404188	0.046937495
28	0xbbe00f05	-0.006837728
29	0x399ee684	0.00030307856
30	0x3ccf3f7a	0.025298823
31	0x3bab2696	0.0052231057
32	0xbb1d9c2d	-0.0024049387
33	0x3c644b95	0.013934036
34	0x3d7a5667	0.061117556
35	0x3d55acc2	0.052166708
36	0xbd930744	-0.0717912
37	0x3cd2a57e	0.025713678
38	0xbd78214c	-0.06057863
39	0x3d99a672	0.0750245
40	0xbd921b50	-0.07134116
41	0x3d374117	0.04473981
42	0xbcef8ed2	-0.029242907
43	0x3dd65645	0.10465673
44	0xbda871e8	-0.08224851
45	0xbd15e6b5	-0.036596972
46	0x3d844f29	0.06460411
47	0xbd13bfb1	-0.036071483
48	0xbcbe8ea8	-0.023261383
49	0xbd81939f	-0.063269846
50	0xbd5ccd86	-0.05390694
51	0x3d893e06	0.06701283
52	0xbd30939e	-0.04310953
53	0x3d7483a8	0.05969587
54	0x3d87764a	0.06614359
55	0x3d0efb27	0.034907486
56	0xbd3114ea	-0.043232836
57	0x3d25603e	0.040374987
58	0x3d347a27	0.044061806
59	0x3d50e5ad	0.051000286
60	0x3d9cf55a	0.076639846
61	0xbdb478c5	-0.088120975
62	0xbcabffa1	-0.020995917
63	0xbd28352a	-0.041066326
64	0x3da78a40	0.08180666
65	0x3c09fbaa	0.008421818
66	0xbd2ca0c0	-0.04214549
67	0xba94e4a2	-0.0011359642
68	0x3c9d0590	0.019167691
69	0x3d8af18b	0.06784352
70	0xbd8a60c3	-0.06756737
71	0xbd93c3f4	-0.072151095
72	0xbd33cf64	-0.043898955
73	0xbd1c8c02	-0.03821946
74	0x3b5122f1	0.0031911696
75	0x3d24164a	0.04006032
76	0xbd9f8e9e	-0.07790874
77	0xbd24e9cc	-0.04026203
78	0x3bf7f395	0.007566879
79	0xbd3b19ee	-0.045679025
80	0x3d40a684	0.0470338
81	0xbd3e1694	-0.04640825
82	0x3cbaca69	0.022801595
83	0x3ab7be2a	0.0014018465
84	0x3d81d3c9	0.06339223
85	0xbd439d50	-0.047757447
86	0xbdadc5d5	-0.08484999
87	0x3bc44af6	0.0059903814
88	0xbc0f8ef9	-0.008762115
89	0x3ccedc8d	0.025251651
90	0xbd91bb21	-0.0711577
91	0xbd010d7e	-0.031507008
92	0x3d2708ad	0.04077976
93	0xbdcbcf1f	-0.099516146
94	0xbc725d22	-0.014792712
95	0xbca9192e	-0.02064189
96	0xbd4a8610	-0.04944426
97	0x3bbb4fc9	0.0057162982
98	0xbbb8add5	-0.005635957
99	0x3dbf402d	0.093384124
100	0x3d137ff5	0.0360107
101	0x3d946c0d	0.072471716
102	0xbd10fdf6	-0.035398446
103	0x3d9d1eab	0.07671865
104	0xbd734af1	-0.05939764
105	0xbd17fad3	-0.03710444
106	0x3c882616	0.016619723
107	0xbbc34177	-0.0059587318
108	0xba4880ab	-0.00076485676
109	0x3dc8fe85	0.09814171
110	0xbd00322a	-0.03129784
111	0x3da44e65	0.08022765
112	0xbd5d90ae	-0.054093055
113	0xbd5dede7	-0.05418196
114	0x3d9dd7f2	0.07707204
115	0xbcaa9887	-0.020824684
116	0xbd815813	-0.06315627
117	0x3ce43303	0.027856356
118	0xbbae6f31	-0.0053233136
119	0x3d57c90c	0.052681968
120	0xbd4b9513	-0.049702715
121	0x3b39e2be	0.0028363909
122	0xbd1ca444	-0.038242593
123	0xbd112b50	-0.035441697
124	0x3d4d0732	0.05005569
125	0x3dbb74ad	0.091531135
126	0x3ceca70a	0.028888244
127	0xbdd02521	-0.10163332
128	0xbc29fcf0	-0.010375246
129	0xbccff140	-0.025383592
130	0x3e2eba2c	0.17063206
131	0xbc511d40	-0.012763321
132	0xbc2f51d8	-0.010700665
133	0xbe624039	-0.22094811
134	0xbdea566e	-0.114422664
135	0x3c085073	0.008319962
136	0xbd751338	-0.05983278
137	0x3c37ee4e	0.01122625
138	0x3e6a3666	0.22872314
139	0x3d29e500	0.041478157
140	0x3d38ce67	0.045118716
141	0x3dba03c9	0.09082753
142	0xbdb160be	-0.0866103
143	0xbdbaa128	-0.09112769
144	0x3da31e28	0.07964736
145	0x3d483d71	0.04888672
146	0xbd2c4b4b	-0.042063992
147	0x3dadcb0f	0.08485996
148	0x3e3bc267	0.18335877
149	0x3d05c0fb	0.032654744
150	0x3dc995f7	0.09843057
151	0xbd6d6394	-0.057956293
152	0xbda785d4	-0.081798226
153	0xbe0424fe	-0.12904736
154	0x3dce53fd	0.10074613
155	0x3e2a3f4c	0.16625708
156	0xbe32052d	-0.17384787
157	0xbbd3adc3	-0.006459923
158	0x3daa0a92	0.083027974
159	0xbd66229e	-0.056185357
160	0xbc823751	-0.015895518
161	0x3c97015e	0.01843327
162	0x3d5f342b	0.05449311
163	0x3dcba6de	0.09943937
164	0x3dc4b4c5	0.096047916
165	0x3d17c95a	0.03705726
166	0xbdaec224	-0.08533123
167	0x3d74dc7e	0.05978059
168	0x3cfd3a41	0.030911567
169	0xbb5b9fbb	-0.0033511955
170	0x3cd37cc2	0.025816325
171	0xbc1d0b65	-0.009585236
172	0xbda3f7cd	-0.080062486
173	0xbd301729	-0.042990837
174	0xbd01cfef	-0.03169244
175	0xbd16c662	-0.036810286
176	0xbad8ddc3	-0.0016545582
177	0xbdc9d404	-0.09854892
178	0xbc7aeebf	-0.015315711
179	0xbda9f6d2	-0.0829903
180	0xbce95843	-0.02848447
181	0x3d669967	0.05629864
182	0x3e1c2f96	0.15252528
183	0xbe0dd8ed	-0.13852282
184	0x3dd49bd4	0.10381284
185	0xbe2741ad	-0.16333647
186	0x3d27e967	0.040994074
187	0xbc19102c	-0.009342235
188	0xbe4672cd	-0.1937973
189	0x3b8aa4c5	0.004231068
190	0x3cddf767	0.02709551
191	0x3e1a5c89	0.15074362
192	0x3ded2241	0.11578799
193	0xbdb0c01a	-0.086303905
194	0x3e0ef808	0.13961804
195	0x3de20206	0.11035542
196	0xbd8b1735	-0.06791536
197	0xbe453495	-0.1925834
198	0xbde2d376	-0.11075489
199	0xbd7644a8	-0.06012407
200	0xbca2b08e	-0.019859578
201	0xbd293f51	-0.04132015
202	0x3e17fd56	0.14842734
203	0xbcc80f6c	-0.024421416
204	0x3e08a9a1	0.13345958
205	0x3e0d1b5f	0.13779972
206	0xbc7b8888	-0.015352376
207	0xbd19d7d2	-0.037559338
208	0xbd49a9c3	-0.049234163
209	0x3d937a2a	0.07201035
210	0xbdb8bb7f	-0.09020137
211	0x3da80f69	0.08206064
212	0xbe171bf0	-0.14756751
213	0x3d3c713d	0.04600643
214	0x3e163a85	0.14670761
215	0xbd918e31	-0.07107199
216	0x3e18bc57	0.14915596
217	0xbd91392e	-0.07090984
218	0x3e19191a	0.14950982
219	0xbc52f7b5	-0.012876441
220	0xbdc12411	-0.09430707
221	0xbdbed373	-0.093176745
222	0x3d28e0e5	0.0412301
223	0xbca5b2d7	-0.020226879
224	0x3d924a04	0.071430236
225	0x3e51bfbf	0.20483302
226	0x3d4a52df	0.04939544
227	0x3a6559fc	0.00087490655
228	0x3deb7c09	0.11498267
229	0x3d9a8379	0.07544608
230	0xbcb264f3	-0.021776652
231	0x3cee474b	0.02908673
232	0xbd825f53	-0.06365838
233	0x3d55001b	0.052002054
234	0xbcc2e880	-0.023792505
235	0x3d9f19ab	0.07768568
236	0xbd1bc7ad	-0.038032223
237	0xbd8aa2e4	-0.0676935
238	0x3d365386	0.044513248
239	0xbe277e62	-0.16356805
240	0x3d7373c6	0.059436582
241	0x3d7bb340	0.061450243
242	0xbd2e4067	-0.042541888
243	0xbbce0961	-0.006287739
244	0x3db91069	0.09036333
245	0x3e0d4c0b	0.1379854
246	0xbddd163d	-0.10795257
247	0xbd70a849	-0.05875424
248	0x3d75acf2	0.059979387
249	0x3da9f5a1	0.08298803
250	0x3e194d03	0.14970784
251	0xbdc99b8d	-0.09844122
252	0xbcb61e31	-0.022231193
253	0x3e0f55c3	0.13997559
254	0x3d1f349e	0.03886854
255	0xbde06eb6	-0.109586164

weight_hh_l1 f4 [512, 128]
0	0xbd5d71ea	-0.054063715
1	0x3d720c62	0.05909384
2	0xbd6b6bd3	-0.057475876
3	0x3c0ce1ac	0.008598726
4	0xbcac3dd3	-0.021025574
5	0x3d7e39c7	0.06206682
6	0xbda30c42	-0.07961322
7	0x3cc0f482	0.02355409
8	0x3d964afe	0.073385224
9	0x3d4e57f3	0.050376844
10	0x3d722eaa	0.059126534
11	0xbc3d782f	-0.0115642985
12	0x3d66d48e	0.05635505
13	0x3c46cd7a	0.01213395
14	0x3d6520ba	0.055939414
15	0x3d616515	0.05502804
16	0x3d87a6e3	0.06623628
17	0xbd88e751	-0.06684745
18	0x3c183da2	0.009292038
19	0xbdaf0e1c	-0.08547613
20	0xbd97d0c4	-0.07412866
21	0xbae0c5f8	-0.0017148843
22	0xbd7e92f0	-0.06215185
23	0xbcdf1a81	-0.027234318
24	0xbca5adca	-0.02022447
25	0xbb68d2a5	-0.0035525945
26	0x3c2f04a5	0.01068226
27	0x3d0b24a3	0.033970486
28	0x3dd932d7	0.106054
29	0xbcf63b20	-0.03005749
30	0x3a1c4964	0.0005961864
31	0xbd8b5273	-0.06802835
32	0xbcc1fc8b	-0.023679992
33	0x3da9ad37	0.08284991
34	0xbd9795d1	-0.07401622
35	0xbd6ddb11	-0.058070246
36	0xbd2a6d27	-0.041608002
37	0x3d596e53	0.05308373
38	0x3d6c5d6f	0.057706293
39	0x3d5772c5	0.052599687
40	0x3cf7a1e7	0.030228568
41	0x3daf9317	0.08572977
42	0x3cc7ee70	0.024405688
43	0x3b64337f	0.0034820733
44	0x3d71ec6d	0.059063364
45	0xbdb40986	-0.08790879
46	0x3d487b63	0.048945796
47	0xbd2ca942	-0.042153604
48	0x3d747016	0.059677206
49	0xbdaffdbe	-0.08593319
50	0x3c9a82d3	0.01886121
51	0x3dad8c7d	0.08474062
52	0xbca3b4e6	-0.01998372
53	0xbd9236e3	-0.07139375
54	0xbd89e630	-0.06733358
55	0x3d57ecb1	0.05271596
56	0x3ce7b0db	0.028282573
57	0xbc8ca933	-0.017170524
58	0x3c9c676c	0.019092284
59	0xbcf14350	-0.029451042
60	0xbd98f319	-0.07468242
61	0xbd9065e0	-0.07050681
62	0x3d52cf7b	0.0514674
63	0xbd8cbfa3	-0.06872489
64	0x3da9d747	0.08293014
65	0xbd7775f2	-0.060415216
66	0x3cb1bd5d	0.02169674
67	0x3d4d3f60	0.050109267
68	0xbc46c5d6	-0.012132129
69	0x3dacccf6	0.08437531
70	0xbd85987d	-0.065232255
71	0xbd4f3759	-0.050589893
72	0xbc8f2c77	-0.017477257
73	0xbd82c3de	-0.06385015
74	0xbb7902df	-0.0037996096
75	0xbba289c8	-0.0049602725
76	0xbd72ecf9	-0.059308026
77	0xbd97b9ac	-0.07408461
78	0x3c562532	0.0130703915
79	0xbbbea440	-0.00581792
80	0x3d1c4b25	0.0381576
81	0xbd53b9c4	-0.05169083
82	0xbcc81223	-0.02442271
83	0xbd03f1ff	-0.032213207
84	0xbd96bad6	-0.07359855
85	0xbcd4349b	-0.02590399
86	0xbd5f1477	-0.054462876
87	0xbd59cccb	-0.05317382
88	0xbd944275	-0.07239238
89	0x3d8755e6	0.06608181
90	0xbd2bf0b1	-0.041977588
91	0xbdb29423	-0.08719661
92	0x3d66f92d	0.056389976
93	0x3c49b5a8	0.012311377
94	0xbd6d6cd7	-0.057965126
95	0xbd399ab8	-0.045313567
96	0xbdb58ea9	-0.08865101
97	0xbd93107e	-0.0718088
98	0xbd7c4f92	-0.06159932
99	0xbd911763	-0.07084539
100	0xbd17a7ba	-0.03702519
101	0xbd8173b8	-0.063209
102	0x3c5e165f	0.013555138
103	0xbc096edc	-0.008388247
104	0x3d398af9	0.04529855
105	0xbd0fd304	-0.03511335
106	0x3c933acb	0.01797237
107	0x3d7c9115	0.0616618
108	0xbd88bd69	-0.06676752
109	0x3d7f0439	0.062259886
110	0xbd34184e	-0.04396849
111	0x3d81ee55	0.06344286
112	0x3d31e091	0.043427054
113	0xbb2cc1a1	-0.002636053
114	0x3c724f13	0.014789361
115	0xbcd8401a	-0.026397754
116	0x3cae81fc	0.021302216
117	0xbd75278c	-0.059852168
118	0x3b0c3112	0.0021391553
119	0xbd2e4dcd	-0.042554665
120	0xbd7b6977	-0.061379876
121	0x3d7a60c9	0.061127458
122	0xbba2c2cb	-0.004967069
123	0x3cc2df36	0.023788076
124	0x3cdf4e4f	0.02725902
125	0xbcf62fba	-0.030052055
126	0xbc2f3fd2	-0.010696368
127	0xbd3dc2a9	-0.04632822
128	0x3ddb17da	0.10697909
129	0xbd8d9913	-0.06913962
130	0xbd3e29f1	-0.046426717
131	0x3dabbc55	0.08385531
132	0xbd70b424	-0.058765545
133	0x3d7942c9	0.060854707
134	0xbd530d99	-0.05152664
135	0x3bb7933a	0.0056022676
136	0xbb99654b	-0.0046812645
137	0xbe0bf9e8	-0.1366955
138	0x3e2b0611	0.16701533
139	0x3a08556b	0.00052007166
140	0x3d8a2ca9	0.067467995
141	0xbd8c8c35	-0.0686268
142	0xbce3129a	-0.02771883
143	0xb9b8a2c5	-0.00035216488
144	0x3cc3845c	0.023866825
145	0x3d0c6e8a	0.034285106
146	0xbdd4edda	-0.10396929
147	0xbe13f573	-0.144491
148	0xbb1f6596	-0.0024322025
149	0x3db36955	0.08760325
150	0x3ccfa83f	0.02534878
151	0x3dd2a8ed	0.10286126
152	0xbdd99998	-0.10624999
153	0xbd94b702	-0.072614685
154	0x3c39fe1b	0.011352087
155	0xbd75da11	-0.060022417
156	0xbd31dbbf	-0.043422457
157	0xbce034a1	-0.027368845
158	0xbd32e9df	-0.043680068
159	0xbe05afc5	-0.13055332
160	0xbdf429df	-0.11922049
161	0x3d96b00a	0.073577955
162	0xbdaf16e6	-0.085492894
163	0x3d2d4415	0.042301256
164	0x3d1ece98	0.038771242
165	0x3db3ff38	0.087889135
166	0x3da07d4e	0.078364
167	0xbc8b4d55	-0.017004648
168	0xbce5cd06	-0.028051864
169	0x3d4bc28f	0.049746092
170	0xbdb0673d	-0.08613441
171	0xbe0033cf	-0.12519763
172	0x3e2fef30	0.17181087
173	0xbde9b349	-0.11411149
174	0x3d1b020a	0.03784374
175	0x3d285445	0.04109599
176	0xbdd54b9c	-0.10414812
177	0x3caf4845	0.021396765
178	0x3e04b14b	0.12958257
179	0x3deb7928	0.11497718
180	0xbcf49ee1	-0.029860916
181	0xbd3f062f	-0.046636757
182	0xbdbbf74e	-0.09178029
183	0xbdfe2cec	-0.12410912
184	0x3d0e2495	0.034702856
185	0xbdc8d896	-0.098069355
186	0xbd7859b2	-0.060632415
187	0x3dc04971	0.09389008
188	0x3d76caf5	0.06025215
189	0xbd667c7c	-0.05627106
190	0x3c98c099	0.018646525
191	0xbc9a2a27	-0.018818928
192	0xbb6d17ae	-0.0036177444
193	0x3de057d4	0.10954252
194	0xbd0c9630	-0.034322917
195	0xbe0c526a	-0.13703313
196	0xbc720b45	-0.014773195
197	0xbdff921a	-0.124790385
198	0xbc147d85	-0.009063129
199	0x3dd45025	0.10366849
200	0x3dc6e05a	0.097107604
201	0xbd82364d	-0.06358013
202	0xbc8488bb	-0.01617848
203	0xbc05c9d4	-0.008165795
204	0xbcee3fd1	-0.029083164
205	0x3d9d004a	0.07666071
206	0x3d260043	0.040527593
207	0x3d5f9074	0.05458112
208	0x3d78e606	0.060766242
209	0xbe3c48ba	-0.18387118
210	0x3bae410b	0.0053178123
211	0xbd997135	-0.07492296
212	0xbe1bd6cd	-0.15218659
213	0xbdc13244	-0.094334155
214	0xbd0630da	-0.032761432
215	0x3d7b464c	0.061346337
216	0xbcd88bdd	-0.02643388
217	0xbcf06d5b	-0.02934902
218	0xbbbcbc03	-0.0057597174
219	0xbc469d21	-0.012122423
220	0xbd2c00fe	-0.041993134
221	0x3ca28682	0.019839529
222	0x3d7e306e	0.062057905
223	0xbdced353	-0.10098901
224	0xbd4269a8	-0.047464043
225	0xbdaa4f9c	-0.083159655
226	0x3d4f8b61	0.05067003
227	0xbc934d3d	-0.017981166
228	0x3d3ea6d4	0.04654582
229	0x3d30bdb6	0.043149672
230	0x3dcc1a10	0.099659085
231	0x3d07cd04	0.033154503
232	0xbdd26b6d	-0.10274396
233	0x3d407df2	0.04699511
234	0x3da47e57	0.0803191
235	0xbd03c92c	-0.032174274
236	0xbc205612	-0.009786146
237	0x3c940514	0.018068828
238	0x3c89afcf	0.016807465
239	0x3d8b478d	0.068007566
240	0xbd5571e3	-0.052110564
241	0x3e341ebd	0.1758985
242	0x3d7d573a	0.061850764
243	0x3d2bd6a5	0.041952748
244	0xbd0d9158	-0.03456244
245	0x3ca690d9	0.02033274
246	0xbc40af73	-0.01176058
247	0xbc9ed712	-0.019389663
248	0x3db154d3	0.08658757
249	0xbd44a92a	-0.04801289
250	0x3bb65266	0.005564022
251	0xbd257a68	-0.04039994
252	0x3ba3d392	0.0049995864
253	0x3e09eeff	0.13470076
254	0x3daa59cc	0.08317909
255	0x3c7ab3c2	0.015301647

bias_ih_l1 f4 [512]
0	0x3cc69420	0.024240553
1	0x3e646ccb	0.22307126
2	0xbce44937	-0.027866943
3	0xbd2f6805	-0.04282381
4	0x3b1b9b51	0.00237437
5	0x3d083899	0.0332571
6	0x3d9295b7	0.07157462
7	0xbc0b2ee0	-0.008495063
8	0xbb9f18cc	-0.004855251
9	0x3d08a871	0.033363763
10	0xbd91d849	-0.07121331
11	0x3d91732f	0.07102048
12	0x3a65ce3a	0.0008766387
13	0xbd135d2f	-0.03597754
14	0xbd7286c8	-0.05921057
15	0x3be8f203	0.007108928
16	0xbc9b2130	-0.018936723
17	0xbc19f47c	-0.0093966685
18	0x3dc33cca	0.09533079
19	0x3cf8871c	0.030337863
20	0xbd3318b1	-0.04372472
21	0xbd7c0363	-0.061526667
22	0xbc3b3b83	-0.011427763
23	0xbc82b290	-0.015954286
24	0x3dba1abe	0.09087132
25	0xbb0bffb1	-0.002136212
26	0x3d2b3556	0.041798912
27	0x3c6749a5	0.014116679
28	0x3d673f8e	0.056457095
29	0x3d112d91	0.035443846
30	0xbc039517	-0.008031151
31	0x3d80a2f2	0.06281079
32	0x3d26ecf3	0.040753316
33	0xbced458f	-0.028963832
34	0xbcb1c7cd	-0.021701718
35	0x3dc85ab2	0.09782924
36	0x3d65a648	0.05606678
37	0xbbd7791e	-0.0065757176
38	0x3d4e015c	0.050294265
39	0x3db43260	0.08798671
40	0xbd57e156	-0.05270513
41	0x3d3c6acb	0.046000283
42	0xbc9addeb	-0.018904647
43	0x3d83955d	0.06424973
44	0x3d9fc7c4	0.07801774
45	0xbce72b44	-0.028218873
46	0xbd92f8b1	-0.0717634
47	0x3d3204e6	0.043461703
48	0x3d473fe2	0.048644908
49	0x3dc376f7	0.09544175
50	0x3b15b0b9	0.002284093
51	0x3d0b5edd	0.034026016
52	0x3d20b035	0.039230544
53	0x3dd4a0bd	0.10382221
54	0x3d95d588	0.073161185
55	0xbd6db61d	-0.058035005
56	0x3cfd73fe	0.030939098
57	0xbd9725c5	-0.07380251
58	0xbd342292	-0.04397828
59	0x3d358ca8	0.044323593
60	0x3e120b56	0.14262137
61	0x3c4110fb	0.011783834
62	0x3e9941d9	0.2993305
63	0x3e0f9104	0.14020163
64	0x3b33c140	0.0027428418
65	0x3c04558e	0.008077038
66	0x3df32895	0.11872975
67	0x3e8455c8	0.25846696
68	0x3ba83ddf	0.0051343287
69	0x3dfeb976	0.124377176
70	0xbb8bb4f3	-0.004263514
71	0xbd0d2045	-0.034454603
72	0xbd823950	-0.06358588
73	0xbda85e49	-0.082211085
74	0x3c70e044	0.014701907
75	0x3ba458e6	0.0050154803
76	0x3df97f33	0.121824645
77	0xbc36242e	-0.011117024
78	0x3d747aa0	0.059687257
79	0x3dd6a791	0.104811795
80	0x3e292a2f	0.16519998
81	0xbcb92b36	-0.022603612
82	0xbd1f3491	-0.03886849
83	0x3c2e1547	0.01062519
84	0x3d919580	0.07108593
85	0xbd5419f9	-0.051782582
86	0x3d3197a3	0.043357503
87	0xbda9613f	-0.08270501
88	0xbbd0ae07	-0.006368402
89	0x3c6f9edd	0.014625278
90	0xbd47c6f0	-0.048773706
91	0xbd0f945f	-0.035053607
92	0x3dae14f8	0.08500093
93	0x3d851fb5	0.06500188
94	0x3ce76be9	0.028249698
95	0x3d8becfe	0.06832312
96	0x3d96ab43	0.07356884
97	0xbd6dc575	-0.058049638
98	0x3d8242ac	0.06360373
99	0x3bf9eb70	0.0076269433
100	0x3dbc8b52	0.09206261
101	0xbd7b9130	-0.06141776
102	0xbd8cb6f4	-0.06870833
103	0xbd188308	-0.037234336
104	0x3d4cf230	0.050035655
105	0xbb4a59b4	-0.003087622
106	0x3c937d5f	0.018004118
107	0x3da08093	0.078370236
108	0x3de009b6	0.10939352
109	0x3d8c59cf	0.06853067
110	0x3e2adc75	0.1668566
111	0x3bbe88b3	0.0058146357
112	0xbd28337d	-0.041064728
113	0xbd818716	-0.06324594
114	0x3d233b97	0.03985175
115	0xbd91920b	-0.071079336
116	0x3c4f3a61	0.012648196
117	0x3e0a53e2	0.13508561
118	0xbce1318c	-0.027489446
119	0x3e256c53	0.16154604
120	0x3de70f33	0.11282196
121	0x3c861d1e	0.016371306
122	0x3d161b37	0.036647048
123	0x3d24cfc6	0.04023721
124	0xbc5605a6	-0.01306287
125	0x3cd618c6	0.02613486
126	0x3e906017	0.2819831
127	0x3dad8820	0.084732294
128	0x3d5767a6	0.05258908
129	0xbb99b767	-0.0046910527
130	0x3d1100af	0.035401043
131	0xbdaa56da	-0.08317347
132	0xbdc31f27	-0.09527426
133	0xbd85b0fd	-0.065278985
134	0x3d00c1e1	0.031434897
135	0xbd7b54e9	-0.061360274
136	0x3d53a34f	0.051669415
137	0xbc53e206	-0.012932306
138	0xbd367989	-0.0445495
139	0xbd5c1507	-0.05373099
140	0x3c781cfc	0.015143629
141	0xbd23baca	-0.039973058
142	0xbceb86e5	-0.028750846
143	0x3d45999c	0.048242196
144	0xbd01b3fb	-0.031665783
145	0x3d4a25c2	0.049352415
146	0x3cb61efd	0.022231573
147	0xbd9ee7d1	-0.07759059
148	0xbca2d80e	-0.019878414
149	0xbd99dc37	-0.07512706
150	0xbd5e55de	-0.054281108
151	0xbd96a5ca	-0.073558405
152	0xbd830fd2	-0.06399502
153	0x3d81cc58	0.063378036
154	0x3bc3418e	0.0059587425
155	0xbd56b05e	-0.05241429
156	0xbe005c23	-0.12535147
157	0x3c6056d4	0.013692576
158	0x3b7de1c5	0.0038739305
159	0xbcc74ad0	-0.024327666
160	0xbd992fed	-0.07479844
161	0x3d669ff9	0.056304906
162	0x3d9989fd	0.07497022
163	0x3b153654	0.0022767978
164	0xbcbfcbc6	-0.023412596
165	0xbddc66e2	-0.10761811
166	0xbd8f69c7	-0.07002597
167	0xbd73b567	-0.05949917
168	0xbe2da42a	-0.16957155
169	0xbcb09082	-0.021553282
170	0xbdc0e0ee	-0.09417902
171	0xbc6569d1	-0.014002279
172	0x3d1b720c	0.03795056
173	0xbd35036e	-0.044192724
174	0x3c1821bf	0.009285389
175	0xbcb0f896	-0.02160291
176	0xbd96e828	-0.07368499
177	0xbc9649ca	-0.018345732
178	0xbd42bff0	-0.047546327
179	0xbd7b0a02	-0.06128884
180	0xbd7d1cdc	-0.0617951
181	0xbd7f7392	-0.062366076
182	0xbd65b5f1	-0.056081716
183	0xbd532cf0	-0.051556528
184	0x3bb84b8c	0.0056242403
185	0x3ca56cca	0.020193476
186	0x3d0cf4bf	0.034413096
187	0xbda6229b	-0.08112069
188	0xbdc809e9	-0.09767515
189	0x3d45b5eb	0.048269194
190	0xbe0f6476	-0.14003167
191	0xbce071f7	-0.027398093
192	0x3d07b168	0.033128172
193	0x3d7d054a	0.061772622
194	0xbc8cbfda	-0.017181326
195	0xbdd9367e	-0.10606097
196	0x3d49e7d0	0.04929334
197	0xbd82d73b	-0.06388708
198	0x3d395bc8	0.045253545
199	0xbd8c2437	-0.06842845
200	0xbdeeb3ee	-0.116554126
201	0xbd607b83	-0.05480529
202	0x3cec45fe	0.028841969
203	0xbdda5947	-0.106615596
204	0x3da088b0	0.07838571
205	0xbe022371	-0.12708832
206	0x3ccbd5a0	0.024882138
207	0x3d6ae1c2	0.057344206
208	0xbe107dcf	-0.14110492
209	0x3d00c474	0.031437352
210	0xbd93fcb7	-0.07225936
211	0xbd30cf8a	-0.043166675
212	0xbd08cfa9	-0.033401165
213	0xbd20747a	-0.03917358
214	0x3c60115e	0.013676016
215	0xbdda034b	-0.10645159
216	0xbc937154	-0.017998375
217	0xbda87e21	-0.08227182
218	0xbd330d90	-0.043714106
219	0xbddefb28	-0.10887748
220	0xbe10a4f0	-0.14125419
221	0xbb009832	-0.0019621965
222	0x3cff53cb	0.031167885
223	0x3d8d9946	0.06914
224	0xbd03fed4	-0.032225445
225	0x3d7b0c36	0.061290942
226	0xbd62259c	-0.05521165
227	0xbd8c83dc	-0.06861088
228	0xbdc26f84	-0.09493926
229	0x3d815cb5	0.063165106
230	0xbd9e9b2b	-0.0774444
231	0xbd31dac0	-0.043421507
232	0xbd5dbfad	-0.054137874
233	0xbdbbb69c	-0.09165689
234	0xbd804a36	-0.062641546
235	0xbba87d30	-0.0051418766
236	0xbe374afb	-0.17899697
237	0xbb55d664	-0.0032629007
238	0xbd29d8ae	-0.041466407
239	0xbb085dbd	-0.0020807825
240	0xbb971c00	-0.004611492
241	0x3d347b09	0.044062648
242	0x3d3ae463	0.045627963
243	0xbc8da58b	-0.017290851
244	0xbce9500f	-0.028480558
245	0xbc82c094	-0.015960969
246	0xbc7db59e	-0.015485195
247	0xbd9c5489	-0.07633311
248	0x3c77dd7b	0.015128489
249	0xbd4dd354	-0.050250366
250	0x3ccbd1da	0.024880338
251	0xbde2e032	-0.11077918
252	0xbd422cfd	-0.047406185
253	0xbd39ef35	-0.04539414
254	0xbe4892a9	-0.19587196
255	0x3a0e6b07	0.00054328184
