stockforecasting/688157_model.pkl (torch, 858496 bytes, 14 tensors)

weight_ih_l0 f4 [512, 4]
0	0x3c5009fa	0.012697691
1	0x3a1a5d19	0.00058885064
2	0x3cdbf0f6	0.026848298
3	0xbdf8565a	-0.12125845
4	0xbc2fdca7	-0.01073376
5	0x3dbfc2d0	0.093633294
6	0x3c92acea	0.017904717
7	0x3d070608	0.032964736
8	0xbdbb6431	-0.09149969
9	0xbdb1c6e3	-0.08680513
10	0xbd83eca3	-0.06441619
11	0xbd86705c	-0.065643996
12	0xbd178caa	-0.036999382
13	0x3d9bdad6	0.07610099
14	0xbd97d727	-0.07414084
15	0xbda0e173	-0.07855501
16	0xbda01064	-0.07815626
17	0xbdb805c3	-0.08985474
18	0x3d9c056a	0.0761822
19	0x3b81ee3f	0.0039651687
20	0x3b6b48f7	0.0035901645
21	0x3d9b4a21	0.07582498
22	0xbca4281e	-0.02003866
23	0xbcf6d9a6	-0.03013308
24	0xbd818c00	-0.06325531
25	0xbd5f5283	-0.05452205
26	0x3c88eb80	0.016713858
27	0xbd97e259	-0.07416219
28	0xbd9be89e	-0.076127276
29	0xbd220688	-0.03955701
30	0x3b5f4c3a	0.0034072534
31	0xbd2a2e7c	-0.041548237
32	0xbd9f61a1	-0.07782293
33	0x3d2eed8a	0.042707004
34	0xbd6b8520	-0.057500005
35	0xbdb3c15b	-0.08777114
36	0xbda98ab9	-0.08278412
37	0x3d904f7d	0.07046411
38	0x3b381d5d	0.0028093674
39	0x3d873f15	0.06603829
40	0xbc80ad3e	-0.015707608
41	0x3cfa0ce7	0.03052373
42	0xbc22d671	-0.009938822
43	0x3d977bad	0.07396636
44	0xbd457561	-0.048207644
45	0xbd928c35	-0.071556486
46	0xbdcf47fc	-0.10121152
47	0xbcb7b47d	-0.02242493
48	0x3d756876	0.059914075
49	0x3bb43b96	0.0055002673
50	0x3dbe841c	0.093025416
51	0xbcbd307b	-0.023094406
52	0x3d0cdccb	0.034390252
53	0x3d198940	0.037484407
54	0x3baf0cb1	0.005342089
55	0x3dae91cd	0.08523903
56	0x3d87ee39	0.06637234
57	0x3b73d830	0.0037207715
58	0x39795af4	0.00023780373
59	0x3d18e2be	0.037325613
60	0x3cf028a2	0.02931625
61	0xbb7e9659	-0.0038846938
62	0x3d3fef3d	0.046859015
63	0xbd202bd2	-0.03910429
64	0xbcddc666	-0.027072143
65	0x3cb97a5e	0.022641357
66	0x3d7cc64a	0.06171254
67	0x3d9b372e	0.07578884
68	0x3be2bdd0	0.0069196
69	0xbc8e5512	-0.017374549
70	0xbcb42a0a	-0.021992702
71	0xbd0a80bc	-0.033814177
72	0xbba58498	-0.005051207
73	0x3d2538b0	0.040337265
74	0x3d87de8a	0.06634243
75	0xbca6b5f7	-0.02035044
76	0xbdd62547	-0.10456329
77	0xbd1ccc13	-0.038280558
78	0xbca92bf7	-0.020650847
79	0xbda8fa6a	-0.08250888
80	0x3d72b270	0.059252203
81	0x3c5a15c5	0.013310854
82	0xbd1fe8b2	-0.039040275
83	0x3d61805f	0.055054065
84	0x3d74eb7d	0.05979489
85	0x3cdde239	0.02708541
86	0xbbe74d6d	-0.0070587904
87	0xbd5c60d8	-0.053803295
88	0xbd5fe0a2	-0.054657586
89	0xbd281d44	-0.041043535
90	0xbd98ff0f	-0.074705236
91	0xbca91b39	-0.020642864
92	0xbd04009c	-0.032227144
93	0x3d8df6a1	0.06931806
94	0x3c8fde30	0.017562002
95	0x3c86ed59	0.016470598
96	0x3c4a4959	0.012346589
97	0xbbea332e	-0.0071472144
98	0xbd9ebf01	-0.07751275
99	0xbd5ac8e1	-0.05341423
100	0xbc85eb7b	-0.016347637
101	0xbd32bd93	-0.043637823
102	0x3d3bf244	0.04588534
103	0x3de19ac1	0.11015845
104	0x3ce51163	0.027962392
105	0xbd234057	-0.03985628
106	0xbcde41ec	-0.027131043
107	0xbcf5f63b	-0.030024638
108	0xbccd6781	-0.025073769
109	0x3dba4a18	0.090961635
110	0xbd0209e2	-0.031747706
111	0x3d2bf73c	0.041983828
112	0xbd565c40	-0.05233407
113	0xbcb8edcf	-0.022574333
114	0x3d509bc1	0.05092979
115	0xbc1608f5	-0.009157409
116	0xbba1ab65	-0.004933762
117	0x3dae8984	0.08522323
118	0xbca0133b	-0.01954042
119	0xbae310b6	-0.0017323706
120	0xbdc5cc74	-0.09658137
121	0x3d275d51	0.040860478
122	0xbd6f5f6e	-0.05844062
123	0x3cd70586	0.026247751
124	0x3d095ef8	0.033537835
125	0x3c9312d0	0.017953306
126	0x3db625f5	0.088939585
127	0x3b9b646a	0.004742195
128	0xbbfbb547	-0.007681522
129	0xbb18e38e	-0.0023328993
130	0xbdc88f8f	-0.09793007
131	0xbd384f23	-0.044997346
132	0xbcf93c48	-0.030424252
133	0x3d908bf2	0.070579425
134	0xbd980fc0	-0.07424879
135	0x3daa29e1	0.08308769
136	0xbcc2d7ef	-0.023784606
137	0xbd3759f7	-0.04476353
138	0xbd76f906	-0.06029608
139	0x3dcf5a65	0.10124663
140	0xbc999e51	-0.018752249
141	0x3dbd2c9c	0.09237024
142	0x3cc7a34f	0.024369864
143	0x3dbf5a60	0.093434095
144	0x3cd13f30	0.025542825
145	0x3ca82434	0.020525075
146	0x3dbf0c66	0.09328537
147	0xbb7ac87b	-0.0038266468
148	0x3cba21a9	0.022721129
149	0xbda6e486	-0.08149056
150	0x3b44a0c0	0.003000304
151	0x3b39053e	0.0028231884
152	0xbd984d52	-0.07436623
153	0x3c0fa941	0.008768381
154	0x3cef5631	0.029215904
155	0xbda1dbb6	-0.07903235
156	0x3cb8c36b	0.02255412
157	0x3d888677	0.06666272
158	0x3c870ed3	0.01648656
159	0x3dd994e5	0.106241025
160	0x3d98c7aa	0.07459958
161	0x3a99b544	0.0011726995
162	0xbcedac1a	-0.029012728
163	0xba856e39	-0.0010179944
164	0xbd7f9e3e	-0.06240677
165	0xbdc73ff6	-0.097289965
166	0xbd44bf39	-0.048033927
167	0x3caa3b10	0.020780116
168	0x3d94c891	0.072648175
169	0x3cf2ce15	0.029639283
170	0x3b851cc0	0.004062265
171	0x3d4a5c4f	0.04940444
172	0xbcc1377c	-0.023586027
173	0xbd3b82c0	-0.04577899
174	0xbd352929	-0.044228707
175	0x3cd7a5e4	0.02632422
176	0xbd7c6be6	-0.061626337
177	0x3d200e7c	0.039076313
178	0xbcae085c	-0.02124422
179	0x3c6e66c3	0.0145508675
180	0x3cfa6ec1	0.03057039
181	0xbd8fed14	-0.07027641
182	0x3d52eef2	0.051497407
183	0x3df724a0	0.120675325
184	0x3d50a510	0.050938666
185	0xbcee480c	-0.029087089
186	0x3d0ae99e	0.0339142
187	0x3d06ee2a	0.032941975
188	0xbd2ba159	-0.04190192
189	0xbd209b0d	-0.039210368
190	0x3c66dc12	0.014090555
191	0x3d0f319c	0.03495942
192	0x3d6dc8b1	0.058052722
193	0xbda05afb	-0.07829853
194	0x3d77034b	0.060305875
195	0x3da92441	0.08258868
196	0x3d0ebe89	0.034849677
197	0x3d8120c3	0.06305077
198	0xbc579385	-0.01315773
199	0x3c893fdf	0.016754089
200	0x3c043fdc	0.008071866
201	0x3b6c19a0	0.0036026016
202	0xbc27c365	-0.010239457
203	0xbd9484c0	-0.072518826
204	0x3cffb3ea	0.03121372
205	0x3db7222b	0.08942064
206	0xbd8164b2	-0.06318034
207	0xbd8c129a	-0.068394855
208	0xbc913399	-0.017724799
209	0x3dd146ff	0.102186196
210	0xbc787414	-0.015164394
211	0x3cb63598	0.022242352
212	0xbd8a0563	-0.06739309
213	0xbd2be9d5	-0.041971046
214	0xbb113468	-0.002215648
215	0x3d45d7d2	0.048301525
216	0xbd844c37	-0.06459849
217	0x3baef305	0.005339029
218	0xbcbd3dd1	-0.023100765
219	0xbce5c927	-0.028050018
220	0x3d39c9c4	0.045358434
221	0xbce5f9dc	-0.028073244
222	0xbdd79a0b	-0.10527428
223	0xbdfb0955	-0.12257639
224	0xbd717f3d	-0.058959235
225	0xbbc234eb	-0.0059267185
226	0x3db6cbb9	0.08925576
227	0x3dcda14e	0.10040532
228	0xbd8afae2	-0.06786133
229	0xbdb253e6	-0.087074086
230	0xbde551ec	-0.11197266
231	0xbd8daaf7	-0.069173746
232	0xbc4e41f7	-0.012588969
233	0x3dbbd5da	0.09171648
234	0xbd537279	-0.05162284
235	0xbd885bf3	-0.06658163
236	0x3da486d8	0.08033532
237	0xbd33e04d	-0.04391508
238	0x3d4d9c96	0.05019816
239	0x3d491f7b	0.049102288
240	0xbd040b03	-0.032237064
241	0x3d2085de	0.039190166
242	0x3cb2c1c0	0.021820903
243	0x3d03176b	0.032004755
244	0x3d9d4c33	0.076805495
245	0xbda85059	-0.0821845
246	0xbd4453f2	-0.04793162
247	0x3d8aebc5	0.06783251
248	0x3d22a5c0	0.039708853
249	0x3d949b3a	0.072561696
250	0x3d169265	0.036760706
251	0x3d1b331f	0.03789055
252	0x3c5a2ba8	0.0133160725
253	0x3b0222b0	0.00198571
254	0x3d74e9ef	0.05979341
255	0xbc165c1b	-0.009177233

weight_hh_l0 f4 [512, 128]
0	0x3d1c321d	0.03813373
1	0xbd80ed4f	-0.06295263
2	0xbd842e32	-0.064541236
3	0xbc44934d	-0.01199801
4	0x3d6ded5a	0.058087684
5	0xbd35ef8d	-0.044417907
6	0x3c7bd36d	0.015370232
7	0x3d6548d1	0.055977646
8	0xbd8b5bd6	-0.06804626
9	0xbcd99530	-0.026560396
10	0x3c146d3a	0.009059245
11	0xbdac5838	-0.08415264
12	0x3cb78dbd	0.022406453
13	0x3ad2cb5c	0.0016082334
14	0x3bdde1ff	0.0067713256
15	0x3b6bdb6e	0.0035988945
16	0xbd80f169	-0.06296045
17	0x396d0f92	0.00022607882
18	0x3d8a2921	0.06746126
19	0x3d73586d	0.0594105
20	0x3dde058c	0.10840902
21	0x3dc3c269	0.09558565
22	0x3d1bbe66	0.038023375
23	0xbc17a6b7	-0.0092560565
24	0xbc754f53	-0.014972526
25	0x3db44f38	0.08804172
26	0xbb9b4186	-0.0047380356
27	0xbae9feff	-0.0017852484
28	0xbddd6fa6	-0.10812311
29	0xbcd893be	-0.026437636
30	0x3cbcc859	0.023044752
31	0xbb1673c0	-0.0022957176
32	0xbb5479da	-0.0032421262
33	0xbb016151	-0.0019741843
34	0xbd1f9eb3	-0.038969707
35	0xbdaf5f9b	-0.08563157
36	0x3aa4d493	0.0012575559
37	0xbd76ed52	-0.06028492
38	0x3c80e107	0.015732301
39	0xbd7fe065	-0.06246986
40	0xbcc156e2	-0.023601
41	0x3d0c30d5	0.034226257
42	0x3d5e0743	0.054206144
43	0xbd749038	-0.05970785
44	0x3daf6e69	0.08565981
45	0x3d35713a	0.044297434
46	0x3d69f9c3	0.057122957
47	0xbd1e941e	-0.038715474
48	0x3d96914d	0.07351933
49	0x3d73d8b2	0.05953283
50	0x3d57fbc9	0.052730355
51	0x3d8710dc	0.065950125
52	0xbd98c32a	-0.074590996
53	0xbc063b83	-0.0081929
54	0xbcfc5801	-0.030803682
55	0xbd930615	-0.071788944
56	0x3d70235e	0.05862748
57	0xbd67103f	-0.056411978
58	0x3d8c02ae	0.068364486
59	0x3d8f65a1	0.07001806
60	0xbca28f11	-0.01984361
61	0xbd4d8fb8	-0.05018589
62	0xbd1c4551	-0.038152043
63	0xbd5e37c9	-0.05425242
64	0xbde462d5	-0.11151663
65	0x3c43e343	0.011956039
66	0xbd2afc55	-0.04174455
67	0xbdbfbe30	-0.09362447
68	0x3d4bf94e	0.049798302
69	0xbc03b67f	-0.008039116
70	0x3ba48d86	0.0050217537
71	0x3d5e1d51	0.054227177
72	0x3cdcbe9a	0.026946355
73	0xbdd40b55	-0.10353724
74	0xbc8942cd	-0.016755486
75	0x3db3f8d2	0.08787693
76	0x3cf5716d	0.029961312
77	0x3cc7a805	0.02437211
78	0x3cb9563f	0.022624133
79	0x3bb86ee4	0.0056284536
80	0xbb8eef67	-0.004362035
81	0xbd2d6979	-0.042336915
82	0x3db54df6	0.088527605
83	0xbcd85454	-0.026407398
84	0xbd61f39c	-0.055163965
85	0xbcddd34a	-0.02707829
86	0xbd8609d8	-0.06544846
87	0x3b32ff99	0.0027312993
88	0x3c7b5698	0.01534047
89	0xbb82d088	-0.003992144
90	0x3dd0cdcf	0.10195505
91	0xbb11b83f	-0.0022235063
92	0x3cf36996	0.029713433
93	0x3cfaddc3	0.030623322
94	0xbbb5090e	-0.005524761
95	0xbc9b055e	-0.018923458
96	0xbd536120	-0.051606297
97	0xbd018d0c	-0.031628653
98	0x3db5ce37	0.08877223
99	0xbd880936	-0.06642382
100	0xbd856b44	-0.065146
101	0x3dcf7082	0.10128881
102	0xbdb1b5ec	-0.08677277
103	0x3d263201	0.04057503
104	0xbd6a2a61	-0.057169322
105	0xbddb2b20	-0.10701585
106	0x3bc7b7d7	0.0060949135
107	0x3d1de05c	0.038544044
108	0x3dbc33c1	0.09189559
109	0xbd7b44f6	-0.061345063
110	0x3d0e6765	0.034766573
111	0x3c586bb0	0.013209268
112	0x3d7e3aa2	0.062067635
113	0xbc93916e	-0.018013682
114	0x3c8f830e	0.017518546
115	0x3bf803f2	0.0075688297
116	0xbc30cd40	-0.010791123
117	0x3d89ef08	0.06735045
118	0xbd3cf187	-0.046128776
119	0x3c5d9eb4	0.013526607
120	0xbcff6e31	-0.031180473
121	0xbcaa3109	-0.020775335
122	0x3dd97a8f	0.10619079
123	0xbd0d44ca	-0.03448943
124	0xbd102ce5	-0.035199065
125	0x3da0d454	0.078529984
126	0xbd12d762	-0.035849936
127	0x3cee7586	0.029108774
128	0x3d956ed4	0.072965294
129	0x3d8faa8d	0.07014952
130	0xbd46551d	-0.048421014
131	0xba2b3da0	-0.0006532315
132	0xbd86757f	-0.06565379
133	0x3d9723d8	0.073798835
134	0xbd9ac2e0	-0.07556701
135	0x3d7b8bff	0.061412808
136	0xbd9de24e	-0.0770918
137	0x3db09cf6	0.08623688
138	0xba27eb81	-0.0006405637
139	0xbdacb55f	-0.08433031
140	0xbd7b2077	-0.061310258
141	0xbc78cdf1	-0.015185819
142	0x3daf7cc3	0.08568718
143	0x3b8adefb	0.004238007
144	0x3d062cfb	0.03275774
145	0xbd165053	-0.036697697
146	0xbcf45b53	-0.029828703
147	0xbd545a3e	-0.051843874
148	0x3d1b9083	0.037979614
149	0xbd0428b9	-0.0322654
150	0x3c98796c	0.018612586
151	0xbc20c7e3	-0.009813282
152	0x3d4031e0	0.046922565
153	0xbb90d835	-0.004420305
154	0xbbc4b0b2	-0.006002509
155	0x3c937665	0.01800079
156	0x3b5eae74	0.0033978494
157	0x3ccff73a	0.025386441
158	0x3db44b84	0.08803466
159	0xbd6f048c	-0.058353946
160	0xbcd403f7	-0.025880797
161	0xbd54224d	-0.051790524
162	0x3c98a3cc	0.018632792
163	0xbdbf8ac0	-0.09352636
164	0xbcb79e92	-0.02241448
165	0x3d8a4fa0	0.067534685
166	0xbdb9b369	-0.09067423
167	0xbb24efe3	-0.0025167398
168	0x3d54cac5	0.05195119
169	0xbdac8368	-0.08423501
170	0xbd16b8af	-0.03679722
171	0x3db5e7b3	0.08882084
172	0x3d510a18	0.051035017
173	0x3d7ef495	0.06224497
174	0x3d56183b	0.0522692
175	0x3dad6f40	0.08468485
176	0xbd593381	-0.053027634
177	0xbda2a370	-0.079413295
178	0xbd811835	-0.06303445
179	0xbcef8f27	-0.029243065
180	0x3a605a74	0.00085584004
181	0x3d7e5375	0.06209131
182	0xbd5f6595	-0.054540236
183	0xbc53d287	-0.012928612
184	0x3daf6de7	0.08565884
185	0x3c384eda	0.011249268
186	0x3d5d4866	0.054024123
187	0x3c3365b2	0.010949539
188	0x3d50c537	0.05096933
189	0x3b11ac0d	0.0022227794
190	0x3d17f655	0.037100155
191	0xbd89bcd1	-0.06725467
192	0xbc996f69	-0.018729882
193	0xbd88c653	-0.06678452
194	0x3c74a0d2	0.014930921
195	0x3d4d0943	0.05005766
196	0xbd0f2723	-0.034949433
197	0x3d907d0c	0.07055101
198	0x3d91cce2	0.071191564
199	0x3d822ca8	0.06356174
200	0x3d8bd367	0.06827431
201	0xbd838ea0	-0.06423688
202	0x3d1dc69c	0.038519487
203	0xbb6a1676	-0.0035718954
204	0x3d951b92	0.07280649
205	0xbd9bb6fa	-0.076032594
206	0xbce94515	-0.028475324
207	0x3c30676c	0.010766845
208	0x3b6d22e8	0.0036184136
209	0x3d3d3bba	0.046199538
210	0x3d8297e0	0.06376624
211	0xbdcb7af6	-0.09935562
212	0xbc57a7ad	-0.013162536
213	0xbab665b1	-0.0013915804
214	0x3dbbafbd	0.09164379
215	0x3ce910ec	0.028450452
216	0x3c2f1674	0.010686506
217	0xbd3da68b	-0.046301406
218	0x3d1cefdf	0.038314696
219	0xbd82d39b	-0.06388017
220	0xbbdc12e4	-0.006716119
221	0xbd9926d2	-0.074781075
222	0x3d7718d7	0.060326423
223	0x3d80a5cf	0.062816255
224	0xbce0bd00	-0.027433872
225	0x3d5c311b	0.053757768
226	0xbda955b4	-0.082683
227	0x3c1480b7	0.009063891
228	0xbcded88d	-0.027202869
229	0xbad66628	-0.0016357349
230	0xbc2722af	-0.01020114
231	0xbbefc5a6	-0.0073172627
232	0x3cf1f331	0.029534908
233	0x3d4cec8e	0.050030284
234	0xbd8e5753	-0.069502495
235	0xbd149621	-0.036275987
236	0xbdd33f88	-0.10314852
237	0xbbab6127	-0.0052300873
238	0xbd08386c	-0.033256933
239	0xbc5c3ef5	-0.0134427445
240	0xbdaaf7eb	-0.08348068
241	0x3cc49eb1	0.024001451
242	0xbd284f77	-0.04109141
243	0x3d77cfdb	0.06050096
244	0xbd33ab05	-0.04386427
245	0x3c35b4ad	0.01109044
246	0x3dca3c39	0.09874768
247	0x3c99790a	0.018734474
248	0xbc77aeea	-0.015117386
249	0x3d4089fb	0.04700659
250	0x3dbc3a47	0.09190803
251	0x3cb32dfa	0.02187251
252	0xbd509f61	-0.050933246
253	0xbd9b1828	-0.07572967
254	0x3d87d6da	0.066327766
255	0xbc111320	-0.008854657

bias_ih_l0 f4 [512]
0	0x3d146a73	0.03623433
1	0xbda0d03a	-0.07852216
2	0x3db0c977	0.08632176
3	0xbbe8a3bb	-0.0070995963
4	0x3dcc0d16	0.099634334
5	0x3e147d61	0.14500953
6	0x3d9a4947	0.07533508
7	0x3c18d7a0	0.009328753
8	0x3db4aec5	0.08822397
9	0x3d42878f	0.04749256
10	0x3dd99a6d	0.106251575
11	0x3b557712	0.0032572192
12	0x3db4cd97	0.08828276
13	0x3e0056c5	0.125331
14	0x3d1e0bc4	0.03858544
15	0x3ac71ff9	0.0015192024
16	0x3df42af3	0.119222544
17	0x3d6b4cd3	0.057446312
18	0x3daf82b8	0.085698545
19	0xbb0a77f7	-0.0021128634
20	0xbd73a07b	-0.059479218
21	0x3d9648b6	0.07338087
22	0xbd89a06e	-0.06720053
23	0x3ddc60e7	0.1076067
24	0x3c8bc72f	0.017062752
25	0xbd44fe99	-0.048094366
26	0x3b7a34a6	0.0038178354
27	0x3ca0f14a	0.019646306
28	0x3c9be3b1	0.01902947
29	0xbbca24b8	-0.006168928
30	0x3c55bbd3	0.013045269
31	0x3d07b594	0.03313215
32	0x3c2db798	0.010602854
33	0xbd083620	-0.033254743
34	0x3d35d632	0.044393726
35	0xbd87c89f	-0.06630062
36	0xbcfe00cf	-0.031006245
37	0x3cb808d5	0.022465149
38	0x3da9d778	0.082930505
39	0x3d8307f2	0.06398
40	0xbd8c1cc9	-0.06841428
41	0x3d972b44	0.07381299
42	0x3d1d79cf	0.038446244
43	0xbd4bf056	-0.04978975
44	0xbc46b079	-0.012127035
45	0x3d88c6a9	0.066785164
46	0xbd9396b0	-0.07206476
47	0x3d399ba0	0.04531443
48	0x3be20ff1	0.006898873
49	0x3d89b4fa	0.06723972
50	0xbc30d3c2	-0.0107926745
51	0x3bf0d966	0.0073501347
52	0xbd1aaad3	-0.037760567
53	0xbc6f8fe9	-0.014621713
54	0xbd8ad32a	-0.067785576
55	0xbcf40101	-0.029785635
56	0x3ddd9dab	0.108210884
57	0xbbc4170d	-0.005984193
58	0x3d089b50	0.033351243
59	0x3d52ad8b	0.051435035
60	0x3d44700a	0.04795841
61	0xbd9c64bc	-0.07636401
62	0xbc370cc0	-0.011172473
63	0x3d8bbc46	0.0682302
64	0x3b92e5c2	0.0044829557
65	0x3d9bc764	0.0760639
66	0xbd36bfc4	-0.044616476
67	0x3d8a2596	0.0674545
68	0x3bf1a641	0.0073745553
69	0x3d0acfc6	0.033889554
70	0x3c1be11e	0.009514121
71	0x3c138435	0.009003689
72	0x3d89fb97	0.0673744
73	0xbcfe0002	-0.031005863
74	0x3d3fe022	0.04684461
75	0xbbb03920	-0.0053779036
76	0x3c972137	0.018448455
77	0xbd8bd380	-0.0682745
78	0xbcd6cc99	-0.026220607
79	0xbd9f5407	-0.07779699
80	0xbcb144e9	-0.021639304
81	0x3d8f810a	0.07007034
82	0x3d2c9e4d	0.042143155
83	0x3dd26a39	0.102741666
84	0xbd5fa2dc	-0.054598674
85	0x3d5a6b8f	0.053325232
86	0x3dc51e3b	0.09624907
87	0xbd962e92	-0.07333101
88	0xbbca62cd	-0.0061763288
89	0x3c8c8967	0.017155362
90	0x3d5c8c4f	0.053844746
91	0xbd3e0411	-0.046390597
92	0x3cb94f1d	0.022620732
93	0xbd3be0ed	-0.045868803
94	0xbd33ffe0	-0.043945193
95	0xbd72d7e2	-0.059287913
96	0xbd9aeb7c	-0.07564446
97	0x3d8c0eb3	0.06838741
98	0x3dc4e4b4	0.09613934
99	0xbcb9f7e1	-0.022701206
100	0x3d9178b8	0.071031034
101	0x3d6f900d	0.058486987
102	0xbc93f1f0	-0.0180597
103	0xbd6200b4	-0.05517645
104	0xbd9af347	-0.07565933
105	0xbc42f21d	-0.011898545
106	0x3d8f92da	0.070104316
107	0x3dad4016	0.08459489
108	0xbd0cbefd	-0.034361828
109	0x3d255b69	0.04037038
110	0x3b000c93	0.0019538745
111	0xbda0eec2	-0.078580394
112	0xbd69c1c8	-0.05706957
113	0xbd082584	-0.033238903
114	0x3d6d251b	0.057896715
115	0xb8170683	-3.600727e-05
116	0xbd8028cf	-0.062577836
117	0x3c8887ee	0.016666379
118	0x3cdac4a8	0.026705101
119	0x3d5e6132	0.05429191
120	0x3d00afc2	0.031417616
121	0x3dc52468	0.096260846
122	0x3d36a274	0.04458852
123	0x3ce90b31	0.02844772
124	0x3d119677	0.035543885
125	0xbd413a13	-0.047174525
126	0xbd898484	-0.067147285
127	0x3d58fd37	0.05297586
128	0xbd09ef17	-0.03367528
129	0xbcc7bad6	-0.024381083
130	0x3cae3243	0.021264201
131	0xbdaa6a56	-0.08321063
132	0xbd9ac813	-0.075576924
133	0x3c08991d	0.008337286
134	0x3d91a1b8	0.071109235
135	0x3d12a0a2	0.035797723
136	0x3d79fb80	0.061030865
137	0xbdd14683	-0.10218527
138	0x3d05a60a	0.03262905
139	0xbd687ce1	-0.05675972
140	0x3d7ea057	0.06216463
141	0xbd2ba238	-0.04190275
142	0x3d44de00	0.04806328
143	0xbd1691de	-0.036760204
144	0xbdc0fc5a	-0.09423132
145	0x3c067399	0.008206272
146	0xbdb0b77a	-0.086287454
147	0xbd3e8738	-0.046515673
148	0xbc91066d	-0.01770326
149	0xbdc7ffcd	-0.09765587
150	0x3db0f2d7	0.08640068
151	0x3ad2b84d	0.0016076654
152	0xbd047b6c	-0.032344267
153	0xbdcc63f6	-0.099800035
154	0x3d979894	0.07402149
155	0xbc36f74a	-0.011167357
156	0xbd8083b8	-0.06275123
157	0xbd33685c	-0.043800697
158	0x3a8e3cd7	0.0010851872
159	0xbd3be863	-0.045875918
160	0xbd804e4b	-0.06264933
161	0xbd4e3288	-0.05034116
162	0x3d16d55c	0.03682457
163	0xbcc58549	-0.024111407
164	0xbc52f767	-0.012876368
165	0x3d273899	0.04082546
166	0x3da4debd	0.080502965
167	0xbd1690cd	-0.036759187
168	0x3d013357	0.031543102
169	0x3d9f4fe9	0.077789135
170	0x3c798637	0.015229753
171	0xbd8d4257	-0.06897419
172	0xbd3b3a46	-0.04570987
173	0x3ba048c4	0.004891487
174	0xbdb453da	-0.08805056
175	0x3c941bd6	0.01807968
176	0xbc0e573b	-0.00868779
177	0x3c96d040	0.018409848
178	0x3bcd50b3	0.0062657236
179	0x3dae6f03	0.085172676
180	0x3d5be206	0.05368235
181	0x3cc72523	0.0243097
182	0xbd4d7dbd	-0.05016874
183	0x3a39887a	0.00070775265
184	0xbd22515e	-0.03962838
185	0x3d65f512	0.05614192
186	0x3d230c37	0.03980657
187	0x3d5fcf8b	0.054641288
188	0x3d72a59a	0.05923996
189	0xbd89b7dd	-0.06724522
190	0xbd60723b	-0.05479644
191	0xbd29d85b	-0.0414661
192	0x3c784a43	0.015154424
193	0xbd53b81c	-0.051689252
194	0x3d8bd207	0.06827169
195	0x3865d290	5.4793956e-05
196	0x3cf0b5ba	0.029383529
197	0x3c21c8bb	0.009874518
198	0xbd8ecc1d	-0.06972525
199	0x3d28a77d	0.041175354
200	0x3d35a0df	0.04434287
201	0x3d144b82	0.036204822
202	0xbc20052d	-0.009766859
203	0x3d9f6ec5	0.077847995
204	0xbd93350a	-0.07187851
205	0x3d443327	0.047900345
206	0xbd68274a	-0.056678094
207	0xbd7f51de	-0.062333934
208	0xbbb33d6e	-0.0054699695
209	0xbd8c347d	-0.06845949
210	0x3cbd05ae	0.023073997
211	0xbd35fed6	-0.044432484
212	0xbccc99a9	-0.024975615
213	0xbd710275	-0.058840234
214	0x3d1dd63d	0.03853439
215	0x3bb03d9d	0.0053784386
216	0x3c6396a3	0.013890895
217	0xbcca8118	-0.02471976
218	0xbdc5451a	-0.09632321
219	0x3bfa1791	0.007632204
220	0x3d94ad2b	0.07259592
221	0x3da9de48	0.0829435
222	0xbb14685a	-0.0022645206
223	0xbd91bec6	-0.07116465
224	0xbbe0d448	-0.0068612434
225	0x3d20ed94	0.039289072
226	0x3b9ea882	0.004841865
227	0xbd4b71f8	-0.049669236
228	0xbd840eb3	-0.06448116
229	0x3d4430ed	0.04789822
230	0xbca15c8b	-0.019697448
231	0x3d89b9d8	0.067249
232	0x3d2110a6	0.039322518
233	0x3db048af	0.08607613
234	0xbdb38b4d	-0.08766804
235	0xbcdcf375	-0.026971558
236	0x3d8efc9f	0.069817774
237	0x3d1fdbdb	0.03902803
238	0x3d96a8a2	0.07356383
239	0xbc4f0434	-0.012635279
240	0x3d408c18	0.047008604
241	0x3d8548a5	0.065079965
242	0xbdaaf285	-0.08347038
243	0xbde91479	-0.11380858
244	0x3d9dc6dd	0.07703946
245	0x3ce7b6d4	0.028285421
246	0x3d8bcfa1	0.068267114
247	0x3cdcf44a	0.026971955
248	0xbd777695	-0.060415823
249	0xbca7e2a7	-0.020493818
250	0x3d63819d	0.05554353
251	0xbd8704dc	-0.06592724
252	0x3d3357ca	0.043784894
253	0x3d8b0818	0.06788653
254	0x3c75167f	0.014958977
255	0xbcb2f445	-0.021844992

bias_hh_l0 f4 [512]
0	0xbd8cbe18	-0.06872195
1	0xbc50230b	-0.012703667
2	0xbd81b4bc	-0.063333005
3	0x3def73e4	0.11692026
4	0xbcd2ff5d	-0.025756532
5	0x3e1bb276	0.15204796
6	0x3d25f738	0.04051897
7	0xbd45eaf2	-0.048319764
8	0xbd1e17b6	-0.03859683
9	0x3ca76754	0.020435013
10	0x3cb20b8b	0.02173402
11	0x3d7e2fef	0.06205743
12	0xbd6a6dff	-0.057233807
13	0x3de690a4	0.11258057
14	0x3e28dba2	0.16490033
15	0xbd8f4a2d	-0.0699657
16	0x3bb5c1c1	0.005546779
17	0xbd77963c	-0.06044601
18	0xbd90c07e	-0.07067965
19	0xbc05776c	-0.008146148
20	0x3d184649	0.037176404
21	0xbd2ca0a8	-0.0421454
22	0xbd4fc4ec	-0.05072491
23	0x3d92e98c	0.07173452
24	0x3d73c8e0	0.05951774
25	0xbcb27ac0	-0.021787047
26	0xbd03068a	-0.031988658
27	0x3db4ecb2	0.088342085
28	0x3cbdf1e9	0.02318664
29	0x3d297a21	0.041376237
30	0xbc9dd4dc	-0.019266538
31	0xba7110fe	-0.00091959524
32	0xbc8f3ede	-0.017486032
33	0x3cae7868	0.021297649
34	0xbd478df2	-0.048719354
35	0x3cc98e3c	0.024603955
36	0x3da12e0b	0.0787011
37	0x3da788bf	0.08180379
38	0x3d6584ba	0.05603478
39	0xbcda7884	-0.026668794
40	0xbd509486	-0.050922893
41	0xbd3125d1	-0.043248955
42	0x3cb4eb9f	0.02208501
43	0x3dae7746	0.08518843
44	0x3d3ee3ca	0.046603955
45	0x3cd0e966	0.025501918
46	0x3cc829e4	0.024434038
47	0x3ca53553	0.020167029
48	0xbd1d5a20	-0.038416028
49	0x3d36aacb	0.044596475
50	0x3d52e387	0.05148652
51	0x3c69ab0f	0.014261975
52	0xbcab1a0f	-0.02088645
53	0xbb949ea8	-0.004535515
54	0xbd89ad95	-0.06722561
55	0xb9fed079	-0.0004860198
56	0x3df9373e	0.1216874
57	0x3c888dcc	0.016669177
58	0x3dfacf7a	0.12246604
59	0x3dac3623	0.08408763
60	0xbc9b8598	-0.0189846
61	0xbb82d3a6	-0.0039925156
62	0x3cc8f73d	0.024531955
63	0x3d2650d8	0.040604442
64	0xbd0ddf9a	-0.03463707
65	0x3d349609	0.044088397
66	0x3da2fcf6	0.07958405
67	0x3d9f8181	0.07788373
68	0x3d9fcc4e	0.0780264
69	0x3d3b12bb	0.04567216
70	0x3dc199db	0.09453174
71	0xbcba1d15	-0.022718946
72	0x3dc76ef3	0.09737959
73	0xbcb74907	-0.02237369
74	0xbd98ace1	-0.07454849
75	0x3dd5abe3	0.104331754
76	0xbd89dea9	-0.06731922
77	0xbd0b9f0c	-0.034087226
78	0x3dc2b935	0.09507982
79	0xbd02524b	-0.031816762
80	0x3dc0de41	0.094173916
81	0xbb6aacf1	-0.0035808648
82	0x3de81c3f	0.113335125
83	0xbd3dff78	-0.046386212
84	0xbd846e6d	-0.064663745
85	0x3db6fefd	0.08935354
86	0xbd48ab9e	-0.048991792
87	0x3d8d2c55	0.06893221
88	0xbd7f41c7	-0.06231859
89	0x3dae2400	0.0850296
90	0xbd1eb9bf	-0.03875136
91	0x3d5fd73b	0.05464862
92	0x3d13a145	0.03604247
93	0x3d8bd9c8	0.06828648
94	0x3d0d40a4	0.034485474
95	0xbcd0f3fe	-0.02550697
96	0x3d51b4c4	0.051197782
97	0x3dc81ebe	0.097714886
98	0x3aa8b693	0.0012871794
99	0xbd36e5a4	-0.044652596
100	0x3bdb91b3	0.0067007183
101	0xbd5a8b08	-0.053355247
102	0x3db11be0	0.08647895
103	0x3d15acdb	0.0365418
104	0x3d805803	0.06266787
105	0x3cdd3229	0.027001457
106	0x3daadb8a	0.08342655
107	0x3d679716	0.05654057
108	0x3d7f14a7	0.062275555
109	0x3bfab876	0.007651384
110	0xbcd23e03	-0.025664335
111	0x3c3496f5	0.011022319
112	0x3d4d3882	0.05010272
113	0x3c96821f	0.018372593
114	0xbd46dbdb	-0.048549514
115	0x3d4369a6	0.047708176
116	0xbcd84e8e	-0.026404645
117	0x3c07553a	0.008260066
118	0x3d620a17	0.055185404
119	0xbd1e9210	-0.038713515
120	0x39f58977	0.0004683246
121	0x3da1dbad	0.07903228
122	0x3d844a49	0.06459481
123	0x3dc5c63b	0.0965695
124	0x3db46451	0.08808196
125	0x3d9c9003	0.076446556
126	0xbd51af60	-0.05119264
127	0x3cd259d1	0.025677593
128	0x3cf1b7b1	0.029506536
129	0x3d847752	0.06468071
130	0xbc3bc110	-0.011459604
131	0x3d4a4861	0.049385432
132	0xbdac16e7	-0.08402806
133	0x3d81d1eb	0.06338867
134	0xbd40a5f4	-0.047033265
135	0x3cb44103	0.022003656
136	0x3d943d50	0.07238257
137	0xbd94aea3	-0.07259872
138	0xbd3d0ba6	-0.046153687
139	0x3d4a01dd	0.049318183
140	0x3d7d10b5	0.06178351
141	0xbd8559bc	-0.06511256
142	0x3846d897	4.7408594e-05
143	0x3d435c5f	0.047695514
144	0xbdf55f6e	-0.119810924
145	0xbdb77945	-0.08958677
146	0x3cdba50b	0.026812097
147	0x3d9ac495	0.07557026
148	0x3a772602	0.0009427966
149	0xbda75f01	-0.081724174
150	0x3d8a0351	0.06738914
151	0x3ce6d152	0.028175984
152	0x3d208892	0.039192744
153	0x3d505a56	0.0508674
154	0x3d97d4fe	0.07413672
155	0xbd359a1c	-0.044336423
156	0x3d99ce51	0.07510055
157	0x3d83f9d0	0.06444132
158	0xbcedd997	-0.029034419
159	0xbd9eb09f	-0.077485316
160	0xbab5d9c3	-0.0013874102
161	0x3d085a20	0.033289075
162	0xbd8f7e2d	-0.07006488
163	0xbc82c32b	-0.015962204
164	0x3cbc4958	0.022984192
165	0x3cfbc9d0	0.03073588
166	0x3c852062	0.016250793
167	0xbd4ffb2e	-0.050776653
168	0x3d684af0	0.05671209
169	0x3d8a07b7	0.06739753
170	0xbd970919	-0.07374782
171	0xbc069b27	-0.008215702
172	0xbca683bb	-0.020326486
173	0xbcf5412f	-0.029938309
174	0x3d78be50	0.06072837
175	0xbd9c4ee2	-0.07632233
176	0x3d90f0a7	0.07077151
177	0xbcd3bc9e	-0.025846776
178	0xbd33ff94	-0.04394491
179	0xbd35e190	-0.044404566
180	0xbc1fbfc8	-0.009750314
181	0x3d0615a7	0.032735493
182	0xbb96eee0	-0.004606113
183	0xbd5739d8	-0.0525454
184	0xbd9f4815	-0.077774204
185	0x3d9c9eee	0.07647501
186	0xbd4f522d	-0.05061548
187	0x3d1647c5	0.03668954
188	0xbd0360e1	-0.032074813
189	0x3ad8731e	0.00165138
190	0xbd95943b	-0.07303663
191	0xbd518b9b	-0.05115853
192	0xbd8f3a06	-0.06993489
193	0x3d28e2fc	0.041232094
194	0xbc835bc4	-0.016034968
195	0xbd9d1c85	-0.07671455
196	0xbd4e1b9a	-0.05031929
197	0x3d5a5047	0.053299215
198	0x3b530e43	0.0032204546
199	0xbdc2c817	-0.0951082
200	0xbcc09e92	-0.023513112
201	0x3cd29a1b	0.025708249
202	0x3d48d539	0.04903147
203	0x3d4dc6db	0.05023847
204	0x3d87ef07	0.06637388
205	0x3bb7e883	0.0056124344
206	0xbd350029	-0.044189606
207	0x3d86cb4d	0.06581745
208	0xbc30f8f5	-0.0108015435
209	0x3a22e9ab	0.0006214629
210	0xbd97dc7a	-0.074150994
211	0x3d8dc0bf	0.06921529
212	0x3cb4936a	0.022042949
213	0x3da853aa	0.08219083
214	0x3d73ba4a	0.05950383
215	0xbd900135	-0.0703148
216	0xbcadbba7	-0.021207644
217	0x3d894c15	0.067039646
218	0xbcfce05e	-0.030868705
219	0xbd50c2dd	-0.050967086
220	0xbd0d4525	-0.03448977
221	0xbd75a314	-0.059969977
222	0x3c35a3e2	0.011086436
223	0x3d6e40a1	0.058167104
224	0x3c359215	0.011082192
225	0xbd24c733	-0.040229034
226	0x3c74102c	0.014896434
227	0x3d80be90	0.06286347
228	0x3d9a760a	0.075420454
229	0x3d580b23	0.052744996
230	0x3b89621e	0.0041926047
231	0x3cce46e5	0.02518029
232	0xbd56517b	-0.0523238
233	0xbda0e6b4	-0.07856503
234	0x3ca31622	0.019908015
235	0x3dc0f438	0.09421581
236	0x3d9903f3	0.074714564
237	0xbcddd51d	-0.02707916
238	0x3a20098d	0.0006104939
239	0xbd7c1761	-0.061545733
240	0x3d017862	0.031608947
241	0xbd3f6c15	-0.046733934
242	0x3c7f3289	0.015576013
243	0x3d501c09	0.050807986
244	0x3bcfef74	0.0063456837
245	0x3c15d719	0.009145522
246	0xbcdde4f0	-0.027086705
247	0xbda2ba02	-0.079456344
248	0xbd269c94	-0.04067667
249	0x3d51aa5d	0.05118786
250	0x3d06d486	0.032917522
251	0xba3715c7	-0.0006984141
252	0xbd835d01	-0.064142235
253	0x3d01052a	0.031499065
254	0xbd489e7c	-0.048979267
255	0xbd541bc3	-0.05178429

weight_ih_l1 f4 [512, 128]
0	0xbabc96c5	-0.0014388195
1	0x3c7302c4	0.014832202
2	0xbd66eae1	-0.05637634
3	0x38a563b8	7.886387e-05
4	0xbd8df7dc	-0.06932041
5	0x3d4b8897	0.04969081
6	0x3d804f6c	0.062651485
7	0x3a225968	0.0006193132
8	0xbd6e2d43	-0.058148634
9	0xba4fbe9e	-0.00079248275
10	0xbdb3b127	-0.087740235
11	0xbd691eda	-0.056914188
12	0x3c94d123	0.01816613
13	0x3d8f2b7a	0.06990714
14	0xbd3e6b32	-0.04648895
15	0xbd3f63ce	-0.04672604
16	0xbcd253e6	-0.025674772
17	0x3d2bdb74	0.041957334
18	0xbd2b662e	-0.041845493
19	0xbd0406f0	-0.03223318
20	0x3c13b217	0.009014628
21	0x3cdf2a10	0.027241737
22	0x3ad4f94a	0.001624861
23	0x3d00541f	0.031330224
24	0xbd97b5c6	-0.074077174
25	0xbccb04f0	-0.024782628
26	0x3d8abc1c	0.0677416
27	0xbd26aadd	-0.04069029
28	0x3d900fbf	0.07034253
29	0x3d3925eb	0.045202177
30	0x3c23e77f	0.010003923
31	0xbc875e4d	-0.016524458
32	0x3d0a1f16	0.033721052
33	0xbdae9e39	-0.08526272
34	0xbd8fae19	-0.07015628
35	0xbdad1a4b	-0.084522806
36	0x3d974e23	0.0738795
37	0x3d02b5a8	0.031911522
38	0x3bd09b7d	0.006366192
39	0x3cec9b2f	0.028882591
40	0x3d9889ea	0.0744818
41	0xbd9b64b4	-0.07587567
42	0x3d5bfada	0.053706028
43	0x3cfc48cd	0.030796433
44	0x3d5c36eb	0.05376331
45	0x3c6cd135	0.014454176
46	0x3d67e71d	0.05661689
47	0x3aa4a67a	0.0012561821
48	0x3c5efb78	0.0136097595
49	0xbd1fbd8f	-0.038999137
50	0x3d9c2d0c	0.076257795
51	0x3d661f94	0.05618246
52	0xbc16e98e	-0.009210957
53	0xbbd87039	-0.006605175
54	0x3d7b2232	0.061311908
55	0xbd896aec	-0.06709847
56	0x3cb4998c	0.022045873
57	0xbdc540a2	-0.09631468
58	0xbcdf4628	-0.027255133
59	0xbcc231a2	-0.023705307
60	0x3d65e60a	0.056127585
61	0x3cbf0e78	0.023322329
62	0x3cb5bcec	0.022184812
63	0x3d5f1d1a	0.054471113
64	0x3a076e6f	0.0005166297
65	0x3c88f7d4	0.016719736
66	0x3dd162dc	0.10223934
67	0x3c55eed8	0.013057433
68	0x3d161c9e	0.036648385
69	0x3c069162	0.008213373
70	0xbd13b25b	-0.036058765
71	0xbd55ac66	-0.052166365
72	0xbdbb3ee0	-0.09142852
73	0x3c8af1ed	0.016961062
74	0x3db7366b	0.08945926
75	0x3d35954a	0.044331826
76	0x3d5b624b	0.053560536
77	0xbdb9f47b	-0.09079834
78	0xbd25276a	-0.04032079
79	0x3c878498	0.016542718
80	0xbdc8998c	-0.09794912
81	0x3d83af67	0.0642994
82	0xbd35b8a2	-0.044365533
83	0xbdb0b170	-0.086275935
84	0x3da25fb7	0.079284124
85	0x3d44555f	0.04793298
86	0xbdb6874f	-0.08912527
87	0x3d6d5de2	0.05795086
88	0xbd292f44	-0.04130484
89	0xbd86bd29	-0.06579048
90	0x3d985ae4	0.07439211
91	0x3cb2adca	0.021811385
92	0x3d8322b8	0.064031065
93	0x3c854f7d	0.016273255
94	0xbd24b23e	-0.040209047
95	0x3d7def36	0.061995707
96	0x3d9e1ca9	0.0772031
97	0x3d639e80	0.05557108
98	0xbd38b92e	-0.045098476
99	0x3c844e2d	0.016150558
100	0x3d2af630	0.04173869
101	0xbb6ea12d	-0.0036411986
102	0xbd2b2a0a	-0.04178814
103	0xbdcd6085	-0.10028175
104	0x3d275a6e	0.040857725
105	0x3a045c76	0.0005049178
106	0x3cf95fb3	0.03044114
107	0xbda36c1e	-0.07979606
108	0xbcaa06f7	-0.020755274
109	0xbd9a3096	-0.07528798
110	0xbcaf4bf4	-0.021398522
111	0x3c2a1fda	0.010383571
112	0x3da43b09	0.080190726
113	0x3dbd1599	0.09232635
114	0x3d96f301	0.07370568
115	0x3dadb114	0.084810406
116	0x3bc9d7a9	0.006159742
117	0xbbdb2931	-0.00668826
118	0xbdb0ff22	-0.08642413
119	0xbdb791e5	-0.08963374
120	0xbd66c681	-0.05634165
121	0xbc9990b7	-0.018745763
122	0x3d88ef13	0.06686225
123	0xbd04bf7d	-0.03240918
124	0x3c30a107	0.010780579
125	0x3c34102a	0.010990182
126	0xbcee7ecc	-0.029113196
127	0x3bbfce1f	0.005853429
128	0xbdac2851	-0.08406127
129	0xbd3a7666	-0.04552307
130	0x3c475623	0.012166533
131	0x3c7b063a	0.015321309
132	0x3d95d928	0.0731681
133	0xbd9349b4	-0.07191792
134	0x3d4e81d2	0.050416775
135	0x3d376dff	0.044782635
136	0xbdac37d6	-0.08409087
137	0xbc9a9e59	-0.018874334
138	0x3d8dce2b	0.06924089
139	0xbda42519	-0.08014888
140	0xbb401f60	-0.0029315576
141	0x3c4399ba	0.011938507
142	0xbd637965	-0.055535693
143	0xbd26a2b7	-0.04068252
144	0x3cc45518	0.023966357
145	0x3d951bba	0.07280679
146	0xbd92ce5a	-0.07168265
147	0x3ce17628	0.027522162
148	0x3be40803	0.006958963
149	0x3c8c2c78	0.017111048
150	0xbdd20853	-0.10255494
151	0xbba853f0	-0.0051369593
152	0xbcbeb72e	-0.023280706
153	0x3c4a6373	0.012352812
154	0x3c6ed565	0.014577244
155	0x3c5a4885	0.013322954
156	0x3ad571fa	0.0016284578
157	0xbc7ef3a3	-0.015561017
158	0xbd348689	-0.044073615
159	0xbb603b21	-0.003421493
160	0x3dba1857	0.09086674
161	0x3c82ee60	0.015982807
162	0x3d868a33	0.06569328
163	0xbdddc0cf	-0.10827791
164	0x3d670040	0.056396723
165	0xbd1954b3	-0.03743429
166	0x3d27e5de	0.040990703
167	0x3dbe7ad2	0.0930077
168	0x3d2e4b37	0.0425522
169	0xbce15ab3	-0.02750907
170	0xbd239cd5	-0.03994449
171	0x3c5c3743	0.01344091
172	0x3d7d8481	0.061893944
173	0x3d98d214	0.07461944
174	0x3d4f4de1	0.05061138
175	0x3d9a4f3e	0.075346455
176	0xbd7a901d	-0.061172593
177	0xbd19812d	-0.037476707
178	0xbcde3e5d	-0.027129347
179	0x3d83556e	0.06412779
180	0x3cc8a770	0.024493903
181	0xbd2e9dda	-0.042631008
182	0x3d976625	0.073925294
183	0x3bfbf8c6	0.007689568
184	0xbcd2037d	-0.025636429
185	0xbd2f9ce2	-0.042874224
186	0xbd8bb182	-0.06820966
187	0xbd311a97	-0.04323825
188	0x3d68d39b	0.056842428
189	0xbd3c7b3f	-0.046015974
190	0xbd85687f	-0.06514072
191	0xbdb0065d	-0.08594964
192	0xbd94d13d	-0.072664715
193	0xbd47a669	-0.048742685
194	0xbd70ef96	-0.058822237
195	0x3d05cbb5	0.032664973
196	0xbd9d5cd3	-0.076837204
197	0x3d4a5691	0.049398962
198	0x3d14ee68	0.036360174
199	0xbd96f3a0	-0.073706865
200	0xbd2f2cfa	-0.042767502
201	0xbbb8c78f	-0.0056390236
202	0x3d7c3400	0.06157303
203	0xbb73cde5	-0.003720158
204	0x3d2e1076	0.042496167
205	0xbdac41f5	-0.08411018
206	0x3d98474c	0.07435474
207	0x3d5b0ece	0.053480916
208	0x3d14d2ee	0.03633397
209	0x3cdc09f5	0.026860217
210	0x3cdc972b	0.026927551
211	0xbdbc093f	-0.09181451
212	0xbdb7f04d	-0.089813806
213	0x3cde90f7	0.027168734
214	0x3cfb1eef	0.030654399
215	0xbd31a227	-0.04336753
216	0x3d90a2ac	0.07062277
217	0xbcc28eea	-0.023749787
218	0x3ca5df87	0.020248188
219	0x3cb2078b	0.021732112
220	0x3d404f8e	0.04695087
221	0x3c0e8365	0.008698319
222	0x3db6bbf0	0.08922565
223	0xbcbbf8a7	-0.022945715
224	0x3cfe6f4c	0.03105893
225	0x3da16fa5	0.07882623
226	0xbca84067	-0.020538522
227	0x3d6676df	0.056265708
228	0x3d1f2df8	0.0388622
229	0xbd32b743	-0.043631803
230	0x3d4218cb	0.047386926
231	0x3d5bfc4e	0.053707413
232	0x3d450a9f	0.048105832
233	0x3da7be86	0.08190636
234	0xbd52dbc9	-0.051479135
235	0xbd05db63	-0.032679927
236	0x3d7113ae	0.05885666
237	0x3cfc1b10	0.030774623
238	0x3dc377b7	0.09544318
239	0x3cb89b0a	0.022534866
240	0xbcb4d7a0	-0.022075474
241	0x3dbc31ce	0.09189187
242	0x3d32a580	0.043614864
243	0x3da1b4c8	0.078958094
244	0x3d85a94e	0.06526433
245	0xbd0e5f61	-0.03475893
246	0xbdb36873	-0.087601565
247	0x3d8dd199	0.06924743
248	0xbd5e9f64	-0.054351225
249	0xbc6cc9e6	-0.014452433
250	0xbc1cc1df	-0.009567707
251	0xbd338fd2	-0.04383833
252	0x3cdbd6d2	0.026835833
253	0x3d7442e7	0.059634116
254	0x3c987804	0.018611915
255	0xbd627eec	-0.055296823

weight_hh_l1 f4 [512, 128]
0	0x3cba95ae	0.022776451
1	0x3cb4083b	0.02197658
2	0xbd7c070a	-0.06153015
3	0xbd56c1d6	-0.05243095
4	0xbcf479e6	-0.029843282
5	0x3d3f1fb8	0.04666111
6	0xbd1e6b72	-0.038676687
7	0x3d89b529	0.06724007
8	0xba874ad9	-0.0010321989
9	0xbcc660a9	-0.024216013
10	0xbb24bfaf	-0.0025138666
11	0xbd2f75b3	-0.042836856
12	0xbd043833	-0.03228016
13	0x3c97e2bf	0.018540738
14	0x3d949bd4	0.07256284
15	0xbd8122be	-0.06305455
16	0x3d8affe5	0.06787089
17	0xbcaa7bc0	-0.020810962
18	0x3caa5e06	0.020796787
19	0xbd843d58	-0.06457013
20	0x3c0c41ef	0.008560642
21	0xbcd5ddfa	-0.026106823
22	0x3ca98f94	0.020698346
23	0x3d5d8c75	0.05408903
24	0x3ca9c809	0.020725267
25	0x3d1dfd0f	0.038571414
26	0x3cc0c6de	0.023532327
27	0xbcf41ee6	-0.02979989
28	0x3d05b45b	0.032642704
29	0xbd9528b0	-0.07283151
30	0x3d3a371b	0.04546271
31	0x3d2122fa	0.039339997
32	0xbd8d77ba	-0.06907602
33	0x3c464269	0.012100794
34	0x3c83d173	0.016091084
35	0x3d3312a5	0.043718953
36	0x3c1da267	0.009621239
37	0xbd6cbe10	-0.057798445
38	0x3c07fadb	0.008299555
39	0x3d96bc07	0.07360082
40	0xbba8e6c8	-0.0051544644
41	0x3d937dca	0.07201727
42	0xbd93b168	-0.07211572
43	0x3cc6a534	0.024248697
44	0xbd3526c1	-0.04422641
45	0x3d02698d	0.031838942
46	0x3d3108e4	0.04322137
47	0xbceeae83	-0.029135948
48	0x3bee2aff	0.007268309
49	0xbc7072e9	-0.014675834
50	0xbd9f3789	-0.07774264
51	0xbcf941d4	-0.030426897
52	0xbc7f8eb7	-0.015597991
53	0xbcaa86a2	-0.020816151
54	0xbcf7ae7b	-0.030234566
55	0xbd9e4ec8	-0.0772987
56	0x3c85580c	0.016277336
57	0xba83cfcd	-0.0010056436
58	0x3ca5669f	0.020190535
59	0x3a697d66	0.00089069305
60	0x3d08c2ed	0.03338902
61	0x3d0cdd71	0.03439087
62	0x3c3db4b7	0.01157873
63	0x3d0368b5	0.03208228
64	0xbd792d14	-0.060834005
65	0xbd3b19a3	-0.045678746
66	0xbd8283db	-0.06372806
67	0x3cad85f6	0.021182042
68	0xbd99423c	-0.07483336
69	0xbd197dc8	-0.03747347
70	0xbd5095e7	-0.050924208
71	0x3a6949a0	0.00088992156
72	0x3d90da13	0.07072844
73	0xbd83f6ec	-0.06443581
74	0x3cfebe58	0.031096622
75	0xbcfabf6c	-0.030608855
76	0xbda48f87	-0.08035188
77	0xbd2ebd03	-0.042660724
78	0xbd8d92e5	-0.069127835
79	0xbdbcd89c	-0.092210025
80	0x3d8b157d	0.06791208
81	0x3d2e0dc9	0.042493615
82	0xb9e39ff2	-0.00043415983
83	0x3a0d7142	0.00053956
84	0x3d705399	0.058673475
85	0x3cac1a63	0.021008676
86	0x3dcba125	0.09942845
87	0x3c11b491	0.008893148
88	0xbd054445	-0.03253581
89	0xbcbb7ef5	-0.022887686
90	0xbc88ccab	-0.016699156
91	0x3c8f287a	0.017475355
92	0x3d5b0b5f	0.05347764
93	0xbd53e9fc	-0.051736817
94	0x3cf3cbb6	0.029760223
95	0x3c15b1cb	0.009136627
96	0xbd58e4bc	-0.052952513
97	0x3a84e389	0.0010138612
98	0xbce53514	-0.027979411
99	0x3bf9f2ae	0.0076278066
100	0xbd8eb526	-0.06968145
101	0xbb10a46c	-0.002207066
102	0x3d66109e	0.05616819
103	0xbdab04c2	-0.08350517
104	0x3d6aae22	0.057294972
105	0x3c5cf34c	0.013485741
106	0x3dbdabd2	0.09261288
107	0x3d9c0b9a	0.076194
108	0xbcd04b52	-0.02542654
109	0xbda39566	-0.0798748
110	0x3d300fae	0.042983703
111	0xbc8f8261	-0.017518224
112	0x3c5509c0	0.013002813
113	0x3db6af3f	0.08920144
114	0x3d11c280	0.03558588
115	0x3cc9ab30	0.024617761
116	0x3d443f3f	0.04791188
117	0xbc509128	-0.01272992
118	0xbd9568f3	-0.07295408
119	0xbd3a8f96	-0.04554709
120	0x3d60578e	0.054771
121	0xbd043da5	-0.03228535
122	0x3c8b90c5	0.017036805
123	0x3d2323b7	0.039828982
124	0x3d99b9ce	0.075061426
125	0x3c93828c	0.018006586
126	0xbd72d63c	-0.05928634
127	0x3d8065ab	0.062693916
128	0x3d8e5f6f	0.06951796
129	0xbc83a087	-0.016067756
130	0x3d5bcd7f	0.053662773
131	0x3c92a670	0.01790163
132	0x3da0ec89	0.078576155
133	0x3cafc38c	0.021455549
134	0x3be3326c	0.006933501
135	0x3db97865	0.090561666
136	0xbc0d7e90	-0.008636132
137	0xbb7a5b8b	-0.0038201537
138	0x3c96fc46	0.01843084
139	0xbbe45e6b	-0.0069692633
140	0x3da9267b	0.08259293
141	0xbb4fedd2	-0.0031727445
142	0x3c9c3f3b	0.01907312
143	0x3c9a8f98	0.018867299
144	0x3c376845	0.011194293
145	0x3ad079fc	0.0015905495
146	0x3beba1e6	0.0071909307
147	0xbda1400b	-0.07873543
148	0x3d4e1545	0.050313253
149	0xbb8336dc	-0.0040043425
150	0x3d987d8d	0.07445822
151	0x3cfb629a	0.030686665
152	0x3d887d3d	0.06664512
153	0xbda679f4	-0.081287295
154	0x3c993162	0.018700305
155	0xbd831549	-0.06400544
156	0xbc8f87cc	-0.017520808
157	0x3cf14389	0.029451149
158	0xbd99277c	-0.07478234
159	0xb99c870c	-0.00029855256
160	0xbd283faf	-0.04107636
161	0x3d0a4c49	0.033764157
162	0x3dc139d0	0.09434855
163	0x3d9a9f23	0.07549884
164	0xbd8231cb	-0.063571535
165	0xbd1d17d8	-0.038352817
166	0x3cbfc16e	0.023407664
167	0xbdc5d1fc	-0.09659192
168	0xbda88c27	-0.08229857
169	0xbd17ab25	-0.03702845
170	0xbd2f6910	-0.042824805
171	0xbd6e3ffd	-0.058166493
172	0x3ba5fd10	0.005065568
173	0x3cfe5e1d	0.031050736
174	0x3c9642ed	0.01834246
175	0xbd4b9cf9	-0.049710248
176	0x3d91364e	0.07090436
177	0x3d840c0a	0.06447609
178	0xbc7a431c	-0.015274789
179	0xbd8f3a33	-0.069935225
180	0xbb76a389	-0.0037634096
181	0x3c68ac23	0.014201197
182	0x3c869f4b	0.016433379
183	0x3cb6fa7e	0.02233624
184	0x3d7d82b6	0.061892234
185	0xbdbd03c0	-0.09229231
186	0xbd3cbfeb	-0.046081465
187	0xbcf1f57a	-0.029535998
188	0xbd3f30c5	-0.04667737
189	0x3d274bbd	0.040843714
190	0xbd0b0bb4	-0.033946708
191	0xbd9f9ec4	-0.07793954
192	0x3d541869	0.05178109
193	0xbd9c7c98	-0.07640952
194	0x3d631a9b	0.055445295
195	0x3d8ea0ac	0.069642395
196	0x3d15b2e0	0.03654754
197	0x3c5acc62	0.013354393
198	0xbca6ad23	-0.02034623
199	0xbd9662bb	-0.0734305
200	0xbd66083c	-0.056160197
201	0x3da0bac4	0.07848123
202	0x3d9943e2	0.07483651
203	0x3da69587	0.08133989
204	0xbbbe5aa1	-0.0058091437
205	0xbbe186eb	-0.0068825386
206	0xbd3d61e6	-0.04623594
207	0x3d9188bb	0.071061574
208	0xbbdfac91	-0.0068259914
209	0xbdcc91c9	-0.09988744
210	0x3db51467	0.08841782
211	0x3d15ef48	0.03660515
212	0x3d535937	0.051598754
213	0xbd158c38	-0.036510676
214	0x3d265b35	0.040614326
215	0xbcb25604	-0.021769531
216	0xbcf05002	-0.029335026
217	0x3d45cf14	0.04829319
218	0x3daf0b0c	0.08547029
219	0xbc5d2cba	-0.013499433
220	0xbda75499	-0.081704326
221	0xbcc8b810	-0.02450183
222	0xbc87841a	-0.016542483
223	0x3d517031	0.051132385
224	0x3d0a9ea8	0.033842713
225	0x3c6f74d5	0.014615257
226	0xbc87c315	-0.016572515
227	0xbd2167ef	-0.03940576
228	0x3d07abb1	0.033122722
229	0x3c275849	0.01021392
230	0xbd41f71c	-0.047354802
231	0xbc9c78fc	-0.019100659
232	0x3d2fa0e5	0.04287805
233	0x3d062ffa	0.032760598
234	0x3d9120a4	0.07086304
235	0x3ca1ebf1	0.019765826
236	0x3d18fea7	0.03735223
237	0xbd673705	-0.056448955
238	0x3c0b24e8	0.008492686
239	0xbcd19497	-0.025583548
240	0xbd1bb250	-0.03801185
241	0xbc8c022e	-0.017090883
242	0x3db363ac	0.08759245
243	0xbcbb005a	-0.022827316
244	0x3d0f69b1	0.035012905
245	0xbcd29386	-0.02570511
246	0xbdd39a7b	-0.10332199
247	0xbd43da2d	-0.04781549
248	0x3c86d39c	0.016458325
249	0x3bfd1769	0.007723738
250	0x3cf8323a	0.030297387
251	0x3d24a192	0.040193148
252	0x3d940ecd	0.072293855
253	0x3c1e5f51	0.00966628
254	0x3da008cc	0.07814178
255	0xbd933094	-0.07187

bias_ih_l1 f4 [512]
0	0xbc0f9b3c	-0.008765038
1	0xbc07407b	-0.008255119
2	0xbd4a6641	-0.049413923
3	0x3da61ead	0.0811132
4	0x3d49eeb8	0.049299926
5	0x3d0c7ea1	0.03430045
6	0xbb5ad61e	-0.0033391784
7	0x3cf7e42f	0.030260174
8	0x3d81d6c0	0.063397884
9	0x3d8cebc6	0.06880908
10	0xbc5935b4	-0.013257433
11	0x3db25067	0.08706742
12	0x3da0edca	0.07857855
13	0xbc172dad	-0.009227199
14	0x3dd7535c	0.105139464
15	0x3c7dae6c	0.01548348
16	0xbd24a691	-0.040197913
17	0xbcfa2f2f	-0.030540077
18	0x3d62f368	0.05540791
19	0x3d94f822	0.0727389
20	0x3d202637	0.039098945
21	0x3cfe55bf	0.031046746
22	0xbbf59d0a	-0.007495527
23	0xbd28f6f7	-0.04125115
24	0x3e1f8c18	0.15580785
25	0xbd169d31	-0.036771003
26	0x3d87d08c	0.06631574
27	0xbb48a28c	-0.0030614464
28	0x3c976250	0.018479496
29	0x3d0c2651	0.03421623
30	0x3da7c6b0	0.081921935
31	0x3e1bf2ac	0.1522929
32	0x3dd3048a	0.103036
33	0xbcf402b7	-0.02978645
34	0x3dfa0b00	0.12209129
35	0x3de64f42	0.11245586
36	0x3d4652eb	0.04841892
37	0xbb8d3d20	-0.004310265
38	0x3ceb3559	0.028711962
39	0x3ca581af	0.02020344
40	0x3c664859	0.014055335
41	0xbc979d03	-0.018507486
42	0xbd63cae7	-0.055613425
43	0x3ca82acb	0.020528218
44	0xbd8486e8	-0.06471044
45	0xbd22d09e	-0.039749734
46	0xbc9654bf	-0.018350957
47	0x3dce160e	0.100628
48	0xbce6574c	-0.028117798
49	0x3db8ddb2	0.0902666
50	0x3cdab669	0.026698308
51	0xbc5f4e90	-0.013629571
52	0xbb95ef0f	-0.004575617
53	0x3c8a2731	0.016864391
54	0x3db80442	0.08985187
55	0xba25ce20	-0.00063249655
56	0x3d5e1d3e	0.054227106
57	0x3c83e592	0.016100679
58	0x3db5e393	0.08881297
59	0x3d1001f8	0.035158128
60	0xbce0f144	-0.027458794
61	0x3d0897a7	0.033347752
62	0x3dc6df1e	0.09710525
63	0x3cd50bd9	0.026006626
64	0x3d8f6938	0.07002491
65	0x3ba0c294	0.004906008
66	0xbd032446	-0.032017015
67	0x3d4a2d14	0.049359396
68	0x3c511a4c	0.012762617
69	0x3d149efe	0.03628444
70	0x3d04e75c	0.032447204
71	0x3ca54263	0.020173257
72	0x3d18eddc	0.037336215
73	0xbcbf138e	-0.023324754
74	0x3a882978	0.0010388335
75	0xbb9ab019	-0.0047206995
76	0x3cd1946e	0.025583472
77	0x3d6f40d9	0.058411453
78	0xbd09fadd	-0.033686507
79	0x3d68f479	0.056873772
80	0x3df327cb	0.11872824
81	0xbc23a6b9	-0.00998848
82	0x3d30d988	0.043176204
83	0x3cb2a38f	0.021806506
84	0x3d3bec1a	0.04587946
85	0x3df56043	0.11981251
86	0xbd243f7e	-0.040099613
87	0x3d2235f3	0.03960223
88	0x3d947218	0.07248324
89	0xbd488d1e	-0.048962705
90	0x3d3048da	0.043038227
91	0x3d442d11	0.04789454
92	0xbbc8872c	-0.0061196294
93	0xbce74691	-0.02823189
94	0x3d6613e8	0.056171328
95	0x3da1a12e	0.07892071
96	0x3c8ae8e5	0.016956756
97	0xbd20d7d5	-0.039268333
98	0xbbce8f9d	-0.006303741
99	0x3d97297f	0.073809616
100	0xbd1d74b6	-0.038441382
101	0x3ba04584	0.0048910994
102	0xbcbd512d	-0.023109997
103	0xbd02c176	-0.03192278
104	0x3c62938a	0.013829121
105	0x3dd70959	0.1049983
106	0x3d80deef	0.06292521
107	0xbd54179f	-0.05178034
108	0x3bf01113	0.007326254
109	0x3def3568	0.11680108
110	0xbd4641aa	-0.048402466
111	0xbd66f3cf	-0.056384858
112	0x3caa12d6	0.020760935
113	0x3d3d2ddc	0.046186313
114	0xbd8131eb	-0.06308349
115	0xbcbc5738	-0.022990808
116	0x3e25cfac	0.16192502
117	0xbd68fa55	-0.05687936
118	0x3cac013e	0.020996686
119	0xbc658060	-0.014007658
120	0x3d7759b6	0.06038829
121	0xbcea99e7	-0.02863784
122	0x3dacc0ac	0.08435187
123	0x3d6b9b03	0.057520878
124	0x3d94235a	0.07233305
125	0x3c9b2acb	0.018941304
126	0x3dc18e35	0.09450952
127	0xbcbe8271	-0.023255559
128	0x3d967938	0.073473394
129	0x3db03dfa	0.08605571
130	0x3ceecfc8	0.029151812
131	0x3d4e2cbf	0.050335642
132	0xbda249a9	-0.07924206
133	0x3bcbf8a0	0.006224707
134	0x3c2898eb	0.010290365
135	0xbd93c564	-0.07215384
136	0xbb95791b	-0.004561556
137	0x3d4be94c	0.049783036
138	0xbc938e7d	-0.01801228
139	0xbd33829e	-0.043825738
140	0xbd5c185a	-0.05373416
141	0xbd4768ca	-0.04868392
142	0xbddde622	-0.1083491
143	0x3aa032e9	0.0012222204
144	0xbd80c7bb	-0.062880956
145	0x3d802963	0.06257894
146	0x3d4d51fa	0.050127007
147	0xbd394e50	-0.0452407
148	0xbc41f4f8	-0.01183819
149	0x3db0cd73	0.08632936
150	0x3d65a7aa	0.0560681
151	0x3cf437ae	0.029811706
152	0xbdf49422	-0.119423166
153	0x3d15fafe	0.036616318
154	0x3d9706ad	0.0737432
155	0xbd9d62d9	-0.07684869
156	0xbd74cf9f	-0.059768315
157	0xbd467371	-0.048449937
158	0xbdc27c40	-0.09496355
159	0xbd5ff4cb	-0.054676812
160	0xbc70df02	-0.014701607
161	0xbd91b21a	-0.07114048
162	0xbd77aae4	-0.06046571
163	0xbd89847b	-0.06714722
164	0xbc148331	-0.009064482
165	0xbdb200ac	-0.086915344
166	0x3c954752	0.018222485
167	0xbd09336b	-0.0334963
168	0x3d668eee	0.056288652
169	0x3c93f585	0.018061409
170	0xbce63e4b	-0.028105875
171	0x3d800f89	0.06252963
172	0x3d3b3ec4	0.045714155
173	0x3d9c7f45	0.07641462
174	0xbdbfaf2d	-0.09359584
175	0x3da57213	0.080783986
176	0x3c95fbd9	0.018308567
177	0xbd18ce24	-0.037305966
178	0xbd4a2738	-0.04935381
179	0x3d18affe	0.037277214
180	0x3d9dd3b7	0.07706397
181	0xbd8853d2	-0.066566125
182	0x3d856a7a	0.065144494
183	0x3d676bdf	0.05649936
184	0x3d5c2e1a	0.053754903
185	0xbd63605c	-0.055511817
186	0x3c3789c6	0.011202281
187	0xbd18c783	-0.037299644
188	0x3d8453b5	0.06461278
189	0xbd602692	-0.054724284
190	0x3d2278b2	0.039665885
191	0x3ca6ab9a	0.020345498
192	0x3d558359	0.052127216
193	0xbd02c7e3	-0.031928908
194	0x3d79fac2	0.061030157
195	0xbd900f8c	-0.07034215
196	0x3ca9c3bf	0.020723222
197	0xbd17e17c	-0.037080273
198	0xbd952a9f	-0.0728352
199	0xbd551929	-0.052025948
200	0x3d756256	0.059908234
201	0xbc865e08	-0.01640226
202	0xbd5d64e2	-0.054051287
203	0x3a96851e	0.0011483764
204	0xbd9817b5	-0.07426397
205	0x3d2b7696	0.04186114
206	0x3d4c661e	0.049902074
207	0xbd4357d2	-0.047691174
208	0xbc514832	-0.01277356
209	0xbd7288e1	-0.05921257
210	0x3ccc4ce2	0.024939004
211	0x3d8282b7	0.06372588
212	0x3d8632e8	0.06552678
213	0xbd070318	-0.032961935
214	0x3d052c7a	0.03251312
215	0x3d144e18	0.03620729
216	0xbd238b18	-0.039927572
217	0xbdae37a0	-0.085067034
218	0x3bb2c6ea	0.0054558413
219	0xbd9b8563	-0.07593801
220	0x3c68fda3	0.014220628
221	0xbc5dc5cd	-0.013535929
222	0x3d96aaaf	0.07356774
223	0x3d212de0	0.03935039
224	0xbd630e0b	-0.055433314
225	0xbdacc917	-0.08436792
226	0xbd1e636e	-0.038669042
227	0x3c562952	0.013071375
228	0xbd11d1b5	-0.035600383
229	0x3d91353d	0.070902325
230	0xbd2e8db8	-0.042615622
231	0x3b9a999c	0.0047180187
232	0xbd1ea25f	-0.038729068
233	0xbbe1eaab	-0.0068944297
234	0xbd58b140	-0.052903414
235	0xbdb188df	-0.08668684
236	0xbd0174bf	-0.03160548
237	0x3ce076c8	0.02740039
238	0x3d18db08	0.03731826
239	0x3d824801	0.0636139
240	0x3d0f7be7	0.03503027
241	0xbaf47b8c	-0.0018652542
242	0xbd326ae3	-0.043558966
243	0x3d04b7a5	0.0324017
244	0x3c31c836	0.010850957
245	0x3d2131cd	0.039354134
246	0x3d809403	0.06278231
247	0x3d75a773	0.059974145
248	0x3d659620	0.056051373
249	0x3c80531d	0.015664632
250	0x3cc7ccdb	0.024389675
251	0xbd4852fe	-0.048907273
252	0x3c973cc0	0.018461585
253	0xbbbcb6fe	-0.005759119
254	0xbc89483f	-0.016758082
255	0xbd853314	-0.06503883
