stockforecasting/688157_model.pkl (torch, 858496 bytes, 14 tensors)

weight_ih_l0 f4 [512, 4]
0.027991785 -0.061582502 0.024447009 -0.06582533 -0.031200236 0.100297965 -0.034421746 -0.044980507
-0.046356846 -0.024979815 -0.028444875 0.085835226 0.08629612 -0.02009372 0.08494462 0.1391246
0.076803915 -0.0077038174 0.06298491 -0.022539545 -0.022635011 0.002702208 0.003648508 0.05166836
0.07671537 -0.07467598 -0.013672422 0.015503537 0.05168945 -0.06054785 -0.0011001315 -0.033635896
-0.044727214 0.0074655944 -0.053539313 0.07465072 -0.040896684 0.03725863 0.0022793626 0.020895619
-0.0078975465 0.02932579 -0.017352339 -0.083813205 0.06674129 -0.056966566 0.06969186 -0.092146896
-0.0813731 0.054393087 0.07838854 -0.041887254 0.06445979 0.07378073 -0.0102736885 -0.073125765
0.062289428 0.014837913 0.069107994 0.009733304 -0.015965544 0.07101271 -0.035027787 0.026037667
-0.0126666445 0.06723041 0.078245625 0.031023812 -0.10005887 -0.018271988 -0.011919168 -0.019450927
-0.049329594 -0.006350538 -0.02353791 0.016050262 -0.07542705 -0.0319652 -0.036292866 -0.06689198
0.039039887 -0.0741876 -0.043843843 -0.07247547 -0.039830375 -0.0033495233 0.07855041 -0.024824528
-0.024311364 0.095192164 0.05173874 0.096688084 -0.00089990994 -0.05373461 0.0069773966 0.06188085
-0.01906558 0.028277066 -0.0791944 -0.037439108 0.0042658327 0.042132918 -0.013849162 0.112778544
0.083683364 -0.019489478 -0.05234848 0.030944362 0.01332686 -0.033015113 0.059737045 0.03738109
-0.04224063 -0.08179085 -0.052697647 -0.09346977 -0.019232513 -0.048784226 0.05388625 -0.05480689
0.04472423 -0.006413468 0.04968153 -0.014526892 -0.0033387903 0.014315458 0.054311093 -0.007866516
0.009944271 -0.019248707 0.06044293 -0.058291916 -0.034479056 0.06656601 0.06277624 0.005044895
-0.05355712 0.045112476 0.08734856 -0.055793222 -0.053651962 -0.059010644 0.03359905 -0.032571144
-0.09744405 -0.064568944 -0.02088948 0.065690584 0.052286938 0.03343209 0.01687677 0.06265864
0.046788603 0.010223294 -0.03582122 -0.05008468 -0.077736236 0.067130566 0.018288475 -0.031085547
0.10012315 -0.029686956 0.029012775 -0.008666171 0.017993804 -0.021586766 0.068119265 -0.02113488
-0.07551773 -0.07642531 -0.025438983 0.07839083 -0.0026517918 0.08754226 0.057837117 0.010951827
0.030300219 -0.08071955 -0.07748415 0.043930657 -0.05393897 -0.054571737 -0.018262189 0.05185347
-0.079599686 -0.06554972 -0.09010924 0.0575058 -0.044029973 -0.007168878 0.049447663 0.028507244
-0.076589316 -0.07595741 -0.04259079 -0.012927746 0.059590016 0.007879387 0.035403654 -0.02008767
0.0048529557 -0.08791476 -0.017177144 -0.0069205263 -0.060159642 -0.011405101 0.034013305 -0.0016533154
0.02638338 0.0848728 -0.05860764 0.09952683 0.0045758784 0.053573962 -0.037879907 0.02167785
0.061608188 0.028204363 0.041926973 -0.039138295 -0.08715018 0.060163982 -0.028635653 -0.0072462256
0.008461145 -0.058300823 0.059365332 -0.05276864 -0.011816664 0.0012057283 -0.051312294 0.08290599
-0.028306656 -0.058506016 0.0154196145 0.010246992 -0.03736464 -0.050996386 -0.060134284 -0.016880473
0.012982253 0.041621655 -0.099095844 0.05558239 0.006348201 -0.06263103 -0.060160723 0.038227122
-0.05672539 0.042338897 -0.038939204 0.039251603 0.06235327 0.0018645357 0.085086845 0.043490626
00000000: 074f e53c ef3d 7cbd 1845 c83c 6ecf 86bd
00000010: a397 ffbc 0569 cd3d d1fd 0cbd 7b3d 38bd
00000020: ade0 3dbd 78a2 ccbc 3a05 e9bc 61ca af3d
00000030: 05bc b03d 969b a4bc 72f7 ad3d ae76 0e3e
00000040: 5f4b 9d3d 4e70 fcbb 3cfe 803d daa4 b8bc
00000050: 0f6d b9bc 8717 313b cf1b 6f3b 34a2 533d
00000060: f31c 9d3d b8ef 98bd 4b02 60bc 8c02 7e3c
00000070: 51b8 533d 0601 78bd 4a32 90ba cbc5 09bd
00000080: e233 37bd f2a1 f43b 0a4c 5bbd 7ae2 983d
00000090: 4883 27bd 819c 183d 5c61 153b 4a2d ab3c
000000a0: b664 01bc a43c f03c 7e26 8ebc 42a6 abbd
000000b0: a8af 883d c655 69bd 9bba 8e3d 83b7 bcbd
000000c0: f1a6 a6bd 49cb 5e3d 2c8a a03d f891 2bbd
000000d0: 7f03 843d 5a1a 973d f952 28bc f6c2 95bd
000000e0: 3323 7f3d b81a 733c 7e88 8d3d 7078 1f3c
000000f0: 2cca 82bc 1d6f 913d 4c79 0fbd f24c d53c
00000100: c287 4fbc 19b0 893d 3e3f a03d a625 fe3c
00000110: aaeb ccbd 23af 95bc 9d48 43bc 8d57 9fbc
00000120: d40d 4abd 2d18 d0bb 93d2 c0bc d77b 833c
00000130: 7f79 9abd f1ed 02bd d4a7 14bd aafe 88bd
00000140: 4ae8 1f3d abef 97bd 9a95 33bd 056e 94bd
00000150: 2d25 23bd ad83 5bbb 0adf a03d cf5c cbbc
00000160: a028 c7bc 1cf4 c23d 00ec 533d 6704 c63d
00000170: efe7 6bba d318 5cbd a5a2 e43b c676 7d3d
00000180: 6b2f 9cbc 4ea5 e73c ac30 a2bd c059 19bd
00000190: 66c8 8b3b 9193 2c3d 98e7 62bc 70f8 e63d
000001a0: 2f62 ab3d 66a8 9fbc 5c6b 56bd 087f fd3c
000001b0: e758 5a3c db3a 07bd d5ae 743d ea1c 193d
000001c0: 8304 2dbd f681 a7bd 7dd9 57bd 146d bfbd
000001d0: 818d 9dbc f8d1 47bd d4b7 5c3d 317d 60bd
000001e0: c130 373d 1228 d2bb dc7e 4b3d 3402 6ebc
000001f0: 9bcf 5abb 628b 6a3c 4f75 5e3d 8fe2 00bc
00000200: 4ced 223c 77af 9dbc 0193 773d 81c3 6ebd
00000210: e939 0dbd c353 883d d490 803d a64f a53b
00000220: b65e 5bbd dcc7 383d cde3 b23d 6f87 64bd
00000230: 29c2 5bbd 25b5 71bd 289f 093d 5269 05bd
00000240: bf90 c7bd b93c 84bd 6a20 abbc c988 863d
00000250: d42a 563d 16f0 083d 2741 8a3c 2c53 803d
00000260: 68a5 3f3d 9a7f 273c 46b9 12bd 9825 4dbd
00000270: 2d34 9fbd c07b 893d b6d1 953c 1ea7 febc
00000280: 5e0d cd3d 0f32 f3bc 33ac ed3c 8efc 0dbc
00000290: be67 933c bbd6 b0bc 1d82 8b3d 0e23 adbc
000002a0: 0aa9 9abd df84 9cbd 6a65 d0bc 5f8b a03d
000002b0: afc9 2dbb 5b49 b33d 9de6 6c3d 4b6f 333c
000002c0: 2a38 f83c 4b50 a5bd 03b0 9ebd a2f0 333d
000002d0: 1cef 5cbd 9d86 5fbd 969a 95bc 4e64 543d
000002e0: 2905 a3bd ee3e 86bd 318b b8bd 348b 6b3d
000002f0: c658 34bd e8e8 eabb a289 4a3d 0688 e93c
00000300: dcda 9cbd 8f8f 9bbd ae73 2ebd e6ce 53bc
00000310: a914 743d 8b18 013c 6c03 113d e68e a4bc
00000320: 8b05 9f3b a70c b4bd 15b7 8cbc 95c5 e2bb
00000330: f569 76bd 76dc 3abc 8951 0b3d 0fb4 d8ba
00000340: f521 d83c cad1 ad3d 910e 70bd b9d4 cb3d
00000350: 40f1 953b 5f70 5b3d f627 1bbd bf95 b13c
00000360: de58 7c3d d60c e73c 9ebb 2b3d 7a4f 20bd
00000370: cb7b b2bd 826e 763d 5195 eabc bf71 edbb
00000380: 9da0 0a3c d8cc 6ebd 1029 733d ee23 58bd
00000390: ae9a 41bc 8709 9e3a d72c 52bd 9eca a93d
000003a0: 5ce3 e7bc 01a4 6fbd 8da2 7c3c 00e3 273c
000003b0: aa0b 19bd 96e1 50bd 5e4f 76bd eb48 8abc
000003c0: 84b3 543c 787b 2a3d c3f2 cabd 5caa 633d
000003d0: 9204 d03b b344 80bd 176b 76bd 0b94 1c3d
000003e0: e258 68bd 8d6b 2d3d b77e 1fbd 4ac6 203d
000003f0: 2466 7f3d 7063 f43a 0342 ae3d 3a23 323d

weight_hh_l0 f4 [512, 128]
-0.024011087 -0.029374413 0.010999049 -0.026312022 0.09466481 0.06994981 -0.035925806 -0.060781058
-0.015872164 0.064701736 -0.05732624 0.042036045 0.08492065 0.031241523 -0.09282259 -0.06908208
0.0773586 0.03945873 0.039150022 -0.027249517 0.044036314 0.09188827 0.06601299 -0.04663037
-0.071133986 0.0852863 0.030768763 0.01840324 -0.033497065 -0.058652185 -0.021348936 0.003694442
-0.0024354346 0.073667035 -0.047072258 -0.020270985 0.035756752 0.008101917 -0.030652486 0.08644383
-0.028975364 0.035884865 -0.033996306 -0.07404832 0.10193703 0.080566175 0.024128966 0.042068176
0.028159408 0.020442005 0.09099512 0.03499548 -0.040437374 0.015234671 -0.088550396 0.09424699
0.048875168 0.0705149 -0.0036555491 -0.006860288 0.04068328 0.013422948 0.031952336 0.016958006
-0.053748373 0.011260932 0.058994107 0.013120466 -0.059239928 0.0056465464 -0.003969452 0.027617421
0.05094636 -0.06355787 -0.037705034 0.014998008 0.027549779 -0.043952666 0.021398071 -0.0748871
-0.07170429 -0.06359817 0.064365335 0.003326886 0.043397773 0.06353512 0.06545987 0.005326362
-0.08300375 0.0086373845 0.03134359 0.030441774 -0.078900434 0.064468734 0.04738582 0.014888914
-0.046218947 -0.020131277 -0.058301557 0.0461003 -0.015267725 -0.023943966 0.0033530453 0.062851265
-0.0085097095 0.096877836 0.04153595 -0.007957476 0.027334984 0.08688772 0.06366707 0.043358598
-0.06030083 0.048942022 -0.0025082587 -0.011932235 -0.08627952 -0.05882089 -0.03901395 -0.052830104
0.08508152 0.06115198 -0.06550216 0.053451136 0.07971881 0.0061535705 -0.06654478 -0.07425552
0.024788398 -0.079736985 0.060890485 -0.07755569 -0.032111354 -0.051437534 0.07465395 -0.06178528
-0.03479828 0.038007382 -0.052581184 -0.026994077 -0.03587956 0.061464574 -0.06516668 -0.0026203857
0.01619552 0.024076184 0.076948315 0.03783441 -0.023638284 -0.0140397865 0.081210665 0.022089202
0.013416352 -0.09135389 -0.037040997 -0.009574823 0.008202754 0.03560961 0.058985032 0.007840862
-0.03677239 0.057983134 -0.019386895 -0.026697746 0.070963345 0.020373397 0.019775277 -0.02664386
-0.04146667 0.019485176 -0.0053978874 -0.08911782 -0.038095545 -0.08778556 -0.00079301297 0.020978289
0.011371881 0.032609157 0.038672034 0.072753 -0.05128838 -0.07725445 0.0337587 -0.033831574
-0.06035661 -0.021975704 -0.00018230914 0.04729239 0.0093801925 -0.05986714 -0.037973385 -0.06203943
0.011061061 0.02239142 0.026532557 -0.0102463635 0.06890674 0.11810411 0.044730593 0.019007904
-0.0047512115 -0.070258416 -0.01778936 0.04385626 0.01001755 -0.06353586 0.028820656 0.021542652
-0.07885281 0.053088464 -0.058426782 0.038403466 0.003642151 0.035784367 0.040130988 -0.08155143
0.07518107 0.09860032 -0.0777369 -0.0641315 0.032206014 0.082932636 0.08486816 -0.08779937
-0.035140168 -0.05045048 -0.06653075 -0.042589862 -0.0016177091 0.011942095 -0.032396838 -0.02680225
-0.056136433 0.023961969 0.081887655 0.06281248 0.07518742 0.0701056 0.01741785 -0.053925715
0.042767458 0.049005684 0.059579294 0.03547039 0.07822063 0.024724651 -0.04899386 0.03128686
0.04618978 0.06207451 -0.026778003 0.07888688 0.060200818 0.018098475 0.04043546 0.02562883
00000000: e6b2 c4bc 9ca2 f0bc 5b35 343c 4f8c d7bc
00000010: a0df c13d d941 8f3d f026 13bd 8ff5 78bd
00000020: 5706 82bc 5882 843d ebce 6abd fd2d 2c3d
00000030: e1ea ad3d 39ee ff3c c519 bebd e87a 8dbd
00000040: 306e 9e3d 7a9f 213d c65b 203d 613a dfbc
00000050: 6c5f 343d eb2f bc3d d231 873d 7dff 3ebd
00000060: b2ae 91bd 95aa ae3d c60e fc3c 64c2 963c
00000070: 3834 09bd 463d 70bd f7e3 aebc 741e 723b
00000080: d09b 1fbb bede 963d d7ce 40bd 560f a6bc
00000090: ac75 123d e7bd 043c ec1a fbbc 7609 b13d
000000a0: be5d edbc 02fc 123d b63f 0bbd a5a6 97bd
000000b0: 5dc4 d03d e1ff a43d 1caa c53c ae4f 2c3d
000000c0: 8fae e63c fe75 a73c a65b ba3d 6c57 0f3d
000000d0: a9a1 25bd d79a 793c e959 b5bd 9104 c13d
000000e0: 5431 483d 1e6a 903d f091 6fbb 44cc e0bb
000000f0: 83a3 263d edeb 5b3c 74e0 023d 84eb 8a3c
00000100: 4127 5cbd c67f 383c cea3 713d 39f7 563c
00000110: 91a5 72bd aa06 b93b 2d12 82bb ee3d e23c
00000120: 21ad 503d a12a 82bd 9870 1abd 34ba 753c
00000130: 13b0 e13c b607 34bd 024b af3c 685e 99bd
00000140: b3d9 92bd c23f 82bd f9d1 833d e307 5a3b
00000150: ddc1 313d b31e 823d d30f 863d c388 ae3b
00000160: dffd a9bd d183 0d3c 2362 003d 0761 f93c
00000170: 8d96 a1bd 2f08 843d a217 423d a2f0 733c
00000180: 1450 3dbd 59ea a4bc 9dcd 6ebd abd3 3c3d
00000190: 7b25 7abc 2326 c4bc c4be 5b3b 2ab8 803d
000001a0: 4f6c 0bbc e367 c63d 9a21 2a3d 1360 02bc
000001b0: 9eed df3c 30f2 b13d e163 823d c998 313d
000001c0: 01fe 76bd 6e77 483d 9961 24bb 6c7f 43bc
000001d0: 51b3 b0bd 2cee 70bd 17cd 1fbd 6164 58bd
000001e0: 383f ae3d 807a 7a3d ff25 86bd 94ef 5a3d
000001f0: 9e43 a33d e4a3 c93b a148 88bd 4713 98bd
00000200: 0a11 cb3c 254d a3bd 4d68 793d 85d5 9ebd
00000210: 3287 03bd 2ab0 52bd 2ce4 983d 9012 7dbd
00000220: a488 0ebd a1ad 1b3d 5e5f 57bd af22 ddbc
00000230: 72f6 12bd 47c2 7b3d 1c76 85bd c7ba 2bbb
00000240: 78ac 843c 6b3b c53c 1497 9d3d 41f8 1a3d
00000250: 13a5 c1bc 2207 66bc c751 a63d 6af4 b43c
00000260: 42d0 5b3c c017 bbbd 4db8 17bd b8df 1cbc
00000270: d864 063c 62db 113d 4a9a 713d f576 003c
00000280: a59e 16bd b97f 6d3d 44d1 9ebc 3bb5 dabc
00000290: 3b55 913d 1ce6 a63c c3ff a13c 3944 dabc
000002a0: f4d8 29bd 609f 9f3c c3e0 b0bb 6783 b6bd
000002b0: 130a 1cbd eac8 b3bd 33e2 4fba a9da ab3c
000002c0: 2051 3a3c 2e91 053d 9166 1e3d 86ff 943d
000002d0: c413 52bd 9537 9ebd 9046 0a3d fa92 0abd
000002e0: 7e38 77bd 6406 b4bc 3d2a 3fb9 aab5 413d
000002f0: 61af 193c 3f37 75bd fb89 1bbd 0f1d 7ebd
00000300: 7439 353c 366e b73c ce5a d93c 5de0 27bc
00000310: fa1e 8d3d 91e0 f13d 6d37 373d 77b6 9b3c
00000320: 0db0 9bbb a5e3 8fbd feba 91bc 9fa2 333d
00000330: a620 243c 171f 82bd 4c19 ec3c 377a b03c
00000340: 957d a1bd 4a73 593d ec50 6fbd f44c 1d3d
00000350: 27b1 6e3b a192 123d 6460 243d 7004 a7bd
00000360: 88f8 993d f7ee c93d 8634 9fbd 6057 83bd
00000370: 74ea 033d 96d8 a93d 5ccf ad3d 28d0 b3bd
00000380: 23ef 0fbd 2aa5 4ebd 4641 88bd b572 2ebd
00000390: 4f09 d4ba c7a8 433c 8cb2 04bd 6490 dbbc
000003a0: 51ef 65bd e44b c43c b7b4 a73d d4a3 803d
000003b0: ddfb 993d 8693 8f3d e1af 8e3c 36e1 5cbd
000003c0: ee2c 2f3d 2fba 483d 6b09 743d 6649 113d
000003d0: 2332 a03d 5a8b ca3c c9ad 48bd a726 003d
000003e0: 7f31 3d3d d741 7e3d 8b5d dbbc 728f a13d
000003f0: 2295 763d 4143 943c a79f 253d 8df3 d13c

bias_ih_l0 f4 [512]
0.101044334 -0.038682636 -0.02355291 0.077593856 -0.05004368 0.025382204 0.026031138 0.0577411
-0.011026723 0.0025018428 0.093199044 -0.024764648 -0.038049225 -0.03090697 0.07042323 -0.003394964
0.027482579 -0.020565644 -0.049734578 -0.028870499 -0.018295167 -0.040963005 0.02861608 0.061683353
0.13235638 0.026960395 0.01862179 0.038209338 -0.01143218 0.012331764 0.029361356 0.0677847
-0.054492842 -0.017868381 0.03458395 0.010476599 0.020117853 0.056253325 -0.0256868 0.029300941
0.1033835 0.07483094 -0.04612401 -0.017230684 0.07829358 0.051873293 -0.051156808 0.12220895
-0.033752892 0.04345069 -0.008203857 0.10395496 0.047396522 0.085129105 0.039352983 0.05286726
-0.03135287 -0.04809937 0.0040181275 0.048264824 0.026300361 0.09490999 0.083814085 -0.031646363
0.016400902 -0.06108784 0.06443059 -0.0026395218 0.039902538 0.13649102 0.027026022 0.08395463
0.031670842 0.02772938 -0.008705245 0.002962994 0.06476604 -0.031045673 -0.02282772 0.081877336
0.083284564 -0.011670759 -0.034428183 -0.06920869 0.04569165 0.028700447 -0.011072528 0.06364756
-0.049836095 0.103291884 0.00074799004 0.1450932 0.082244314 0.0010101807 0.09519011 -0.017441379
0.058302652 0.0029320219 0.06681193 0.04729804 0.073798075 0.007531112 0.087887734 0.03568611
-0.02312425 0.050718106 -0.016113065 -0.025580078 0.09141434 -0.015917607 -0.024888206 -0.058277823
-0.08174073 -0.07070593 0.09002343 -0.017163752 -0.013722842 0.058631454 -0.069654286 0.025611026
-0.058054127 -0.045107692 0.009326213 -0.076609686 0.020666853 0.0654368 0.06828731 -0.0027018408
0.009047672 -0.04444388 -0.080780335 0.066647075 0.057305105 -0.07371526 0.037763547 -0.06129571
-0.04965084 0.03855051 -0.02251304 -0.035381977 -0.07207208 0.08148473 -0.008831449 0.07413599
-0.019226272 -0.032490183 -0.052564353 -0.069621705 -0.05861219 -0.05606359 -0.059982568 0.011284916
-0.03773476 -0.010254569 0.07512876 -0.021239623 -0.057052553 0.032337576 0.07493138 -0.086397566
0.055983517 -0.047725704 0.05978879 -0.054016735 -0.012136243 -0.049359757 -0.01561281 -0.05620741
0.03326085 -0.071469285 -0.014231818 -0.019010179 -0.037356056 -0.061153624 0.07806885 0.03486121
-0.036461964 -0.019437077 0.052581593 0.08031985 0.0086055305 0.027017415 0.03886738 0.004016745
-0.027756613 0.048083387 0.04864321 0.03806516 0.07483347 -0.025326168 0.05034971 0.008940095
0.02693602 0.062545516 -0.033362463 -0.052079134 0.03704563 -0.011024131 0.0083159115 0.030687928
-0.02314012 0.005581545 0.046965998 -0.050649013 -0.043521747 -0.073568635 -0.0048130658 0.014174497
0.03697102 -0.06843085 -0.06980634 -0.0041469038 0.0178166 -0.07344769 0.0060350155 0.008234614
0.04368142 0.044024557 -0.031237815 -0.07554019 0.015178162 0.07612473 -0.006365466 0.021546578
-0.062655166 -0.0034003723 0.026004225 -0.023452235 -0.07506285 0.044862207 -0.016745292 -0.05857389
0.086928606 -0.028765058 -0.08884304 -0.0147247035 0.034760255 -0.08778444 -0.025969863 -0.04210641
-0.011282343 0.016640013 -0.044079453 0.050308324 -0.010454675 0.008716887 0.032374598 -0.03631175
0.072759576 -0.067310624 -0.065198615 -0.0672328 -0.05634839 0.004436867 -0.071614854 -0.023535382
00000000: 55f0 ce3d af71 1ebd 08f2 c0bc 87e9 9e3d
00000010: 9afa 4cbd 57ee cf3c 413f d53c ef81 6c3d
00000020: 6ea9 34bc f5f5 233b 24df be3d 3bdf cabc
00000030: 81d9 1bbd 9d30 fdbc 0e3a 903d 0b7e 5ebb
00000040: 2523 e13c 4879 a8bc 7cb6 4bbd d381 ecbc
00000050: bfdf 95bc d3c8 27bd 456c ea3c afa7 7c3d
00000060: 6e88 073e 0cdc dc3c b98c 983c 6581 1c3d
00000070: 0a4e 3bbc 2b0b 4a3c 3a87 f03c b4d2 8a3d
00000080: e333 5fbd b660 92bc e6a7 0d3d 0ba6 2b3c
00000090: 32ce a43c e369 663d 206d d2bc 8708 f03c
000000a0: baba d33d f740 993d 88ec 3cbd 5d27 8dbc
000000b0: 6258 a03d 1779 543d cd89 51bd b048 fa3d
000000c0: 7940 0abd 5af9 313d 7869 06bc 57e6 d43d
000000d0: db22 423d 2b58 ae3d 9830 213d 578b 583d
000000e0: de6b 00bd d803 45bd 7faa 833b 56b1 453d
000000f0: db73 d73c 2b60 c23d b8a6 ab3d 9e9f 01bd
00000100: 2f5b 863c 3e37 7abd 2ff4 833d d4fb 2cbb
00000110: d870 233d 4dc4 0b3e ad65 dd3c 68f0 ab3d
00000120: 49b9 013d ba28 e33c 72a0 0ebc ca2e 423b
00000130: 0fa4 843d 7f53 febc 3301 bbbc 4eaf a73d
00000140: 1991 aa3d b636 3fbc 9104 0dbd 49bd 8dbd
00000150: 2b27 3b3d 331d eb3c 8c69 35bc a759 823d
00000160: ef20 4cbd b28a d33d c314 443a 5093 143e
00000170: b56f a83d 0a68 843a 08f3 c23d 39e1 8ebc
00000180: c3ce 6e3d 2a27 403b b1d4 883d 97bb 413d
00000190: 7223 973d 8cc7 f63b 7cfe b33d 992b 123d
000001a0: 116f bdbc cabd 4f3d 8cff 83bc 508d d1bc
000001b0: 7137 bb3d a465 82bc 5ae2 cbbc bab4 6ebd
000001c0: af67 a7bd 45ce 90bd 345e b83d ff9a 8cbc
000001d0: c5d5 60bc 8927 703d e8a6 8ebd 37ce d13c
000001e0: 2aca 6dbd d8c2 38bd f9cc 183c 8ae5 9cbd
000001f0: 884d a93c bb03 863d 38da 8b3d 5e11 31bb
00000200: b03c 143c c90a 36bd 2970 a5bd 437e 883d
00000210: c2b8 6a3d 07f8 96bd f3ad 1a3d 3611 7bbd
00000220: ae5e 4bbd 24e7 1d3d 446d b8bc b1ec 10bd
00000230: 879a 93bd 77e1 a63d c8b1 10bc 9cd4 973d
00000240: 6a80 9dbc 6d14 05bd b84d 57bd d395 8ebd
00000250: 5613 70bd efa2 65bd 48b0 75bd 5ee4 383c
00000260: c48f 1abd c802 28bc 1bdd 993d b8fe adbc
00000270: f0af 69bd 6874 043d a075 993d 35f1 b0bd
00000280: f94e 653d 077c 43bd 17e5 743d a740 5dbd
00000290: 18d7 46bc 752d 4abd dfcc 7fbc be39 66bd
000002a0: 873c 083d 7d5e 92bd 922c 69bc 3cbb 9bbc
000002b0: aa02 19bd 397c 7abd 90e2 9f3d a1ca 0e3d
000002c0: 2459 15bd 813a 9fbc cc5f 573d bc7e a43d
000002d0: 36fe 0c3c a053 dd3c 6733 1f3d e69e 833b
000002e0: d661 e3bc 16f3 443d 1a3e 473d 37ea 1b3d
000002f0: 4a42 993d d378 cfbc 7f3b 4e3d 7a79 123c
00000300: eea8 dc3c dd17 803d 14a7 08bd ee50 55bd
00000310: 29bd 173d 8f9e 34bc 763f 083c 4065 fb3c
00000320: 5990 bdbc 65e5 b63b 6b5f 403d 5775 4fbd
00000330: dc43 32bd 27ab 96bd ecb6 9dbb 263c 683c
00000340: ed6e 173d 7925 8cbd a0f6 8ebd c0e2 87bb
00000350: 1ef4 913c be6b 96bd 61c1 c53b 79ea 063c
00000360: 4aeb 323d 1853 343d 72e6 ffbc d1b4 9abd
00000370: d3ad 783c 48e7 9b3d 6695 d0bb 7382 b03c
00000380: 5a51 80bd c8d8 5ebb d006 d53c e71e c0bc
00000390: 8dba 99bd 6fc1 373d 6c2d 89bc 2deb 6fbd
000003a0: a007 b23d b3a4 ebbc 57f3 b5bd e23f 71bc
000003b0: c560 0e3d 54c8 b3bd c0be d4bc c577 2cbd
000003c0: 94d9 38bc a350 883c a88c 34bd 1a10 4e3d
000003d0: 164a 2bbc 46d1 0e3c 3a9b 043d a1bb 14bd
000003e0: f902 953d 27da 89bd da86 85bd 5ab1 89bd
000003f0: 92cd 66bd 2363 913b cfaa 92bd 46cd c0bc

bias_hh_l0 f4 [512]
0.035653874 0.059407696 0.037116077 -0.06249552 0.10203898 0.06619665 0.010427385 0.083892114
0.06970919 -0.02140614 -0.05124882 -0.006888496 0.0006362916 0.091946654 -0.036985278 -0.024445789
-0.04200978 0.055900507 0.07915233 0.0037000617 0.01997592 0.026831167 -0.06165444 -0.011422358
0.06638804 -0.035239395 -0.022932671 0.097269714 0.028334659 0.09129074 0.02438865 0.028586276
-0.01788551 -0.02340722 -0.069781415 -0.040164422 0.053744655 0.09579574 -0.014125085 0.065637134
0.1539858 -0.033120673 0.037685726 0.052764717 -0.028765032 0.057519432 -0.081580505 0.115227774
-0.0039623883 0.057232372 0.10417681 0.07312212 -0.009380698 0.064046495 0.06659308 -0.0034439992
0.06672192 -0.021225577 0.08337312 0.01939169 -0.06949037 0.06834376 0.05527292 0.036281053
0.07566282 0.047866322 0.07111265 -0.02546637 -0.004755926 0.13633907 0.07335617 -0.0001975074
0.06692098 0.053060047 0.065008014 0.028089136 0.04842499 0.08629487 0.09113616 -0.024170626
-0.03760799 0.0056879423 0.012910595 0.060394812 -0.06659737 -0.047248393 -0.040908616 -0.016027521
0.086929195 0.003985912 0.019068068 0.15929452 -0.032277897 -0.05782691 0.04858661 0.10726725
0.03765706 0.13092929 -0.029107777 0.008713791 0.03273659 0.08662363 0.08574878 -0.03203818
0.10251004 -0.026753502 0.075589985 0.09650518 -0.022928318 -0.0106491055 0.014856089 -0.008607218
0.022916935 -0.045088463 -0.07169136 -0.04427136 0.05347451 -0.04811794 0.03905321 0.02634576
-0.057712756 0.09838496 0.028662968 0.036386907 0.09008785 0.09716168 0.08261579 0.028644567
0.01055975 -0.03327581 0.07030466 -0.04016332 -0.07050293 0.04504869 0.06365315 0.04616806
-0.03396782 -0.020500038 -0.06292642 -0.056257643 -0.024510784 0.059460443 -0.049268324 -0.04862669
0.012171688 -0.015872147 -0.013708253 0.078600846 0.060380418 0.05691718 -0.0009558864 -0.03742457
-0.083592765 -0.03608685 -0.05140822 -0.002630625 0.00523966 0.022807734 0.06532943 0.020114219
-0.048684314 -0.05233896 -0.040036947 -0.08197246 0.068363845 0.018900812 -0.01982102 -0.08508177
0.04584699 0.06617463 0.06129033 -0.04842016 -0.028372834 0.044088554 0.06873971 -0.07931337
-0.0012560972 0.019336551 -0.052703787 -0.015805917 -0.02579412 0.049877293 0.06658349 -0.06245633
-0.040966943 -0.075079374 0.039479133 -0.077772774 -0.0003267502 0.07557822 0.00149399 0.0069977827
-0.03642684 -0.07578174 -0.077762686 -0.013545305 0.042795014 -0.11001456 -0.06584954 0.07502945
0.06335998 -0.033018637 0.044145007 0.02989775 -0.024972806 -0.012382401 0.056206536 -0.024788296
0.08203191 0.03385509 -0.006898894 -0.01420738 0.022164963 -0.067231104 0.07851338 0.050120786
0.014904241 0.050285265 -0.011083052 -0.017478274 0.026426038 0.085299745 -0.07475693 -0.090362564
0.047659874 0.0141478535 0.04147419 -0.062421057 0.05149738 0.022070982 0.0217969 -0.02965642
0.018485652 -0.05523057 -0.039462317 -0.04765367 0.0683768 0.06740979 -0.0696194 0.049653795
-0.08121167 -0.013458655 -0.0036782704 -0.032901395 -0.09294343 -0.0019418362 0.051792715 -0.075569466
0.050478168 -0.008730449 0.028863776 0.07313244 -0.082123 -0.03540804 -0.014714285 0.06679741
00000000: cc09 123d 7c55 733d 0707 183d 4dfb 7fbd
00000010: d0f9 d03d 1c92 873d 9fd7 2a3c a1cf ab3d
00000020: b1c3 8e3d ee5b afbc 48ea 51bd e5b8 e1bb
00000030: cecc 263a 874e bc3d e07d 17bd 8942 c8bc
00000040: 7212 2cbd eef7 643d 9e1a a23d bc7c 723b
00000050: 8aa4 a33c 09cd db3c 5e89 7cbd d824 3bbc
00000060: 74f6 873d 2f57 10bd 4cdd bbbc 5835 c73d
00000070: 161e e83c a4f6 ba3d b5ca c73c c42d ea3c
00000080: a284 92bc 80c0 bfbc 8fe9 8ebd 7383 24bd
00000090: 5b23 5c3d 8f30 c43d e76c 67bc c36c 863d
000000a0: 74ae 1d3e 8ba9 07bd 595c 1a3d d11f 583d
000000b0: a5a4 ebbc 7f99 6b3d ae13 a7bd 8afc eb3d
000000c0: ecd6 81bb 7e6c 6a3d a75a d53d 0dc1 953d
000000d0: 80b1 19bc cf2a 833d f461 883d b8b4 61bb
000000e0: 81a5 883d 43e1 adbc 87bf aa3d 52db 9e3c
000000f0: f850 8ebd d0f7 8b3d db65 623d 719b 143d
00000100: 1cf5 9a3d 7a0f 443d 82a3 913d d99e d0bc
00000110: 99d7 9bbb 789c 0b3e c23b 963d fd19 4fb9
00000120: de0d 893d 7e55 593d ec22 853d 301b e63c
00000130: 4859 463d 5dbb b03d 98a5 ba3d 7a01 c6bc
00000140: d60a 1abd eb61 ba3b f686 533c 8d60 773d
00000150: 3464 88bd 8887 41bd cb8f 27bd 264c 83bc
00000160: ef07 b23d 419c 823b a334 9c3c 1a1e 233e
00000170: d435 04bd e9db 6cbd c102 473d efae db3d
00000180: 4a3e 1a3d 5412 063e 6f73 eebc 4ac4 0e3c
00000190: cd16 063d bb67 b13d 0e9d af3d 773a 03bd
000001a0: c9f0 d13d 292a dbbc ecce 9a3d 82a4 c53d
000001b0: 2bd4 bbbc 9679 2ebc f466 733c 4a05 0dbc
000001c0: 4cbc bb3c aeae 38bd ebd2 92bd e355 35bd
000001d0: 1608 5b3d 5117 45bd 42f6 1f3d 10d3 d73c
000001e0: 3664 6cbd 0e7e c93d 9ace ea3c 700a 153d
000001f0: fb7f b83d b4fc c63d 7832 a93d 03a8 ea3c
00000200: cd02 2d3c 374c 08bd e4fb 8f3d 4b82 24bd
00000210: d763 90bd fa84 383d 955c 823d b81a 3d3d
00000220: d721 0bbd b2ef a7bc 91df 80bd 6a6e 66bd
00000230: d7ca c8bc cb8c 733d 95cd 49bd c82c 47bd
00000240: c26b 473c 4e06 82bc 9598 60bc 7bf9 a03d
00000250: 7551 773d fd21 693d 7394 7aba 824a 19bd
00000260: af32 abbd cecf 13bd 6d91 52bd 9066 2cbb
00000270: 74b1 ab3b 49d7 ba3c 70cb 853d 93c6 a43c
00000280: 3469 47bd 6161 56bd c8fd 23bd 2de1 a7bd
00000290: 5802 8c3d e0d5 9a3c b15f a2bc 5a3f aebd
000002a0: 0eca 3b3d 9086 873d 920b 7b3d 3854 46bd
000002b0: 256e e8bc 3396 343d 68c7 8c3d 0c6f a2bd
000002c0: a1a3 a4ba b067 9e3c eddf 57bd 697b 81bc
000002d0: 314e d3bc 224c 4c3d ed5c 883d 35d2 7fbd
000002e0: f4cc 27bd 37c3 99bd dfb4 213d 5547 9fbd
000002f0: ab4f abb9 c1c8 9a3d fcd1 c33a a84d e53b
00000300: 4f34 15bd 7533 9bbd 0b42 9fbd 20ed 5dbc
00000310: d349 2f3d 504f e1bd 20dc 86bd 0aa9 993d
00000320: e1c2 813d 8d3e 07bd 65d1 343d 20ec f43c
00000330: c593 ccbc 8edf 4abc d338 663d d310 cbbc
00000340: 5900 a83d a3ab 0a3d 1e10 e2bb 12c6 68bc
00000350: 4c93 b53c 76b0 89bd 9fcb a03d 744b 4d3d
00000360: eb30 743c ecf7 4d3d b095 35bc 992e 8fbc
00000370: 6b7b d83c a2b1 ae3d 291a 99bd 0210 b9bd
00000380: 0037 433d 66cc 673c d7e0 293d 39ad 7fbd
00000390: ebee 523d 34ce b43c 6a8f b23c 05f2 f2bc
000003a0: 396f 973c 7339 62bd 3da3 21bd 7f30 43bd
000003b0: 2309 8c3d 250e 8a3d 9e94 8ebd c761 4b3d
000003c0: 4e52 a6bd b181 5cbc 230f 71bb 9dc3 06bd
000003d0: 2059 bebd 3685 feba 9924 543d 2ac4 9abd
000003e0: 32c2 4e3d 280a 0fbc ba73 ec3c 76c6 953d
000003f0: 1a30 a8bd 0508 11bd 2f14 71bc 15cd 883d

weight_ih_l1 f4 [512, 128]
-0.012154952 -0.037315007 -0.007633493 -0.030140433 0.010558698 0.065814614 -0.048560668 -0.004972095
0.07538182 0.029104132 0.008143199 0.03794848 -0.022777252 -0.04674305 0.04608719 0.011351847
-0.08697285 0.09703791 0.046335198 0.061650008 0.08285937 0.030566575 -0.036335524 0.08808495
-0.024231387 -0.0139967 -0.0020829649 0.059256554 -0.06644608 0.01342982 -0.08455569 -0.094133765
-0.042748615 -0.007862065 0.082258046 0.02231521 -0.035081826 -0.01998187 0.016655838 -0.0067352047
-0.022547273 0.05389107 0.05831024 -0.07321078 -0.06605481 -0.011421935 0.02403825 0.051787548
0.10094059 0.008796635 0.0905453 0.023877278 0.081176035 -0.0648533 0.017184008 0.010292193
-0.047193486 0.005424183 -0.008747123 -0.036549166 0.026565287 -0.043383066 -0.026571197 -0.015671572
-0.06218999 0.013183527 -0.04780231 0.08759123 -0.08767081 -0.034997858 0.008279915 -0.06820907
-0.049238212 -0.08430146 -0.048023414 0.053077165 0.0018997068 0.06049807 -0.03019147 0.07210583
-0.06345076 -0.072805926 -0.050076075 0.04868509 -0.016547192 -0.08724998 0.09170655 -0.046175737
-0.007509015 -0.026429715 0.0571825 0.030899407 0.042670965 0.048047606 0.08643708 0.08486811
0.01683606 -0.053358186 0.070762955 -0.063766584 -0.07328612 0.038037755 0.010824305 -0.06473626
0.039911382 0.038259428 -0.032248113 -0.0041529546 -0.013369671 -0.04860374 -0.061797947 0.08173709
-0.0024840839 0.075023405 -0.00650871 -0.06938371 0.0020804328 -0.005992884 -0.046091963 0.01477259
0.08471705 0.014037229 0.090094514 -0.031879213 -0.07291045 0.062235065 -0.027388059 0.054660156
-0.0055166455 0.024819903 -0.086066335 -0.11219864 -0.030570308 0.07533391 0.034959804 -0.04589351
0.086876914 -0.020121524 0.030121868 0.08150903 0.07576204 -0.074756086 0.0036090342 0.05568234
-0.018428508 0.0024844904 -0.032532606 0.027601821 -0.061359502 -0.049890082 -0.012170576 -0.0066977483
0.045659162 0.020954592 -0.053818922 0.031131057 0.027281165 -0.04420609 0.021604469 0.053942546
0.052862592 0.027023569 -0.06636581 -0.0827291 -0.054221056 -0.0909281 -0.053623684 -0.003462078
-0.030860132 -0.017366968 -0.041341238 -0.055764973 0.018996263 -0.040709257 -0.019493166 -0.0507556
-0.038757503 0.045740116 0.024535248 -0.016041491 0.08353995 -0.09887982 -0.021415686 -0.032055024
-0.03910708 -0.06543898 0.06357141 -0.061914958 0.016708761 -0.09345924 0.02222968 -0.08542003
0.026549045 -0.062373355 0.015648786 0.056029424 0.05722404 0.034232073 -0.036325637 0.10522265
0.08815753 -0.052828677 0.0008141047 0.08215327 0.018701084 -0.03356201 -0.008664839 -0.088133715
-0.014059088 -0.02787629 0.08202019 -0.0011837501 -0.07981393 -0.05803423 0.06260327 0.04304733
0.0048007094 0.04674407 -0.026018145 -0.05604501 -0.003137984 -0.07044916 -0.07988256 -0.08106159
-0.026236407 -0.012541517 -0.07952311 0.030523011 0.0025198753 0.0029653504 0.00993119 0.04151594
0.076041006 0.083046965 0.039858032 0.06373782 -0.058887463 0.04307713 0.0704287 0.0072926767
0.052105974 -0.024485288 -0.045422018 -0.016902035 0.047421843 0.060334027 -0.051623456 -0.011484895
0.06719504 0.065420896 0.050605826 0.081365064 -0.0047018095 -0.026181735 0.0062963706 0.0039584935
00000000: 9025 47bc 9fd7 18bd 6122 fabb 12e9 f6bc
00000010: 64fe 2c3c d0c9 863d 8de7 46bd f5ec a2bb
00000020: c961 9a3d ca6b ee3c 0d6b 053c de6f 1b3d
00000030: 5c97 babc a475 3fbd ecc5 3c3d 19fd 393c
00000040: d21e b2bd d0bb c63d fac9 3d3d b884 7c3d
00000050: 2cb2 a93d c166 fa3c 8fd4 14bd e265 b43d
00000060: e780 c6bc 6a52 65bc 5a82 08bb 00b7 723d
00000070: e214 88bd bf08 5c3c 892b adbd 34c9 c0bd
00000080: 2c19 2fbd e4cf 00bc e876 a83d 63ce b63c
00000090: f6b1 0fbd 05b1 a3bc d371 883c feb2 dcbb
000000a0: 0fb5 b8bc e2bc 5c3d b8d6 6e3d 89ef 95bd
000000b0: bf47 87bd 1123 3bbc ddeb c43c 2e1f 543d
000000c0: f1b9 ce3d c31f 103c d06f b93d 489a c33c
000000d0: 9f3f a63d cfd1 84bd 7ac5 8c3c 96a0 283c
000000e0: f54d 41bd 58bd b13b 1850 0fbc 94b4 15bd
000000f0: 729f d93c 71b2 31bd d7ab d9bc ab61 80bc
00000100: eeba 7ebd b8ff 573c 5bcc 43bd 0863 b33d
00000110: c18c b3bd ea59 0fbd 7ba8 073c 32b1 8bbd
00000120: 02ae 49bd 3ea6 acbd 33b4 44bd 7167 593d
00000130: 95ff f83a d3cc 773d 1a54 f7bc 39ac 933d
00000140: 79f2 81bd 461b 95bd 921c 4dbd 046a 473d
00000150: fa8d 87bc 1eb0 b2bd a5d0 bb3d c522 3dbd
00000160: 2f0e f6bb 2183 d8bc 3238 6a3d c120 fd3c
00000170: c0c7 2e3d 91cd 443d ec05 b13d 55cf ad3d
00000180: c7eb 893c 1d8e 5abd 2bec 903d 0e98 82bd
00000190: 0917 96bd 7acd 1b3d 6d58 313c 7294 84bd
000001a0: 1e7a 233d ebb5 1c3d 9916 04bd 8215 88bb
000001b0: 770c 5bbc b714 47bd d81f 7dbd c765 a73d
000001c0: 03cc 22bb dfa5 993d 0447 d5bb 0c19 8ebd
000001d0: df57 083b f45f c4bb edca 3cbd bc08 723c
000001e0: 2280 ad3d 68fc 653c 7983 b83d c793 02bd
000001f0: 1352 95bd 32ea 7e3d ec5c e0bc 54e3 5f3d
00000200: fac4 b4bb 1c53 cb3c 8c43 b0bd 67c8 e5bd
00000210: 956e fabc aa48 9a3d 0332 0f3d d5fa 3bbd
00000220: 86ec b13d e5d5 a4bc 23c2 f63c 35ee a63d
00000230: 2129 9b3d b819 99bd 8c85 6c3b 2a13 643d
00000240: 62f7 96bc d5d2 223b e940 05bd 371d e23c
00000250: 1a54 7bbd 8b59 4cbd 1867 47bc c978 dbbb
00000260: 1a05 3b3d f7a8 ab3c 3b71 5cbd 8f06 ff3c
00000270: c07c df3c 7211 35bd dbfb b03c dcf2 5c3d
00000280: 7286 583d 8860 dd3c ccea 87bd e06d a9bd
00000290: e616 5ebd 8338 babd 82a4 5bbd 08e4 62bb
000002a0: 63ce fcbc 2c45 8ebc 6e55 29bd d069 64bd
000002b0: 0d9e 9b3c c0be 26bd 22b0 9fbc 1be5 4fbd
000002c0: 30c0 1ebd fd59 3b3d 25fe c83c 7269 83bc
000002d0: fe16 ab3d 8181 cabd f36f afbc 214c 03bd
000002e0: bf2e 20bd df04 86bd ba31 823d 8a9a 7dbd
000002f0: d0e0 883c 8f67 bfbd 051b b63c b2f0 aebd
00000300: 627d d93c 347b 7fbd e231 803c 1c7f 653d
00000310: c163 6a3d ee36 0c3d 31ca 14bd f97e d73d
00000320: ef8b b43d e262 58bd a469 553a f93f a83d
00000330: 0433 993c 5178 09bd f8f6 0dbc 737f b4bd
00000340: 1758 66bc d15c e4bc 34fa a73d 1028 9bba
00000350: 7c75 a3bd 4db5 6dbd 2536 803d 6652 303d
00000360: 454f 9d3b b676 3f3d 0124 d5bc 748f 65bd
00000370: a3a6 4dbb a647 90bd 7899 a3bd 9e03 a6bd
00000380: bced d6bc ef7a 4dbc 03dd a2bd 650b fa3c
00000390: 7e24 253b 5356 423b 6eb6 223c 9e0c 2a3d
000003a0: 63bb 9b3d 8714 aa3d 2d42 233d f988 823d
000003b0: fb33 71bd a571 303d ec3c 903d 68f7 ee3b
000003c0: 136d 553d 5f95 c8bc 700c 3abd 2376 8abc
000003d0: 683d 423d d020 773d 1e73 53bd 242b 3cbc
000003e0: 8e9d 893d 64fb 853d 0e48 4f3d baa2 a63d
000003f0: a311 9abb 147b d6bc c951 ce3b 40b6 813b

weight_hh_l1 f4 [512, 128]
0.017703094 0.01903942 -0.06276725 0.09401961 0.040687926 -0.01863686 0.08721878 0.08425758
-0.039959718 0.011917307 -0.0075764037 0.00055861566 0.078343585 0.07424713 0.06935007 0.0011375857
0.0788284 -0.08009335 0.03615753 0.04480416 0.025030999 -0.09236321 -0.0237565 -0.027016347
-0.03397837 -0.05834351 -0.07932956 -0.09454843 -0.018786017 -0.008381748 0.05250583 -0.061300617
-0.054022904 0.0012306665 0.00885798 -0.003503083 0.010639662 -0.014244797 0.046555046 0.04221801
-0.03199933 0.020126354 -0.023421716 -0.036016535 0.057975538 -0.07913067 0.056001175 0.021283448
-0.04686387 -0.062303446 0.08696853 -0.07818051 0.06295622 -0.0876279 -0.04422123 0.06093366
-0.09590867 0.046745103 0.060248613 0.032829817 -0.025559219 -0.04274297 -0.079025686 -0.052604426
0.00236454 0.02603379 0.039645962 0.05872487 0.064237945 -0.041857105 -0.03770824 0.031087803
0.045094784 0.08351633 0.06122094 0.03112958 -0.040177524 0.07367894 -0.03233633 -0.025424363
0.067303516 0.100375526 -0.009321884 -0.067291036 -0.063115045 0.0634237 0.06635222 0.060220208
0.016019495 -0.071875304 0.056004554 -0.025479792 -0.035497792 -0.017500525 0.06839345 0.011619856
-0.015062035 -0.05653785 0.037035074 -0.01640266 0.07744992 -0.04148384 -0.059713434 -0.07565065
0.04404743 -0.04415353 0.08253756 0.020521887 0.052829705 -0.065917596 0.06744622 -0.060945265
-0.02470333 -0.054865554 -0.052101195 -0.029787939 -0.04173773 -0.0651815 0.021686314 0.0924841
-0.002570677 -0.078277946 -0.07829786 0.044601195 -0.026137646 0.06933837 0.07570785 -0.07127194
-0.02104857 -0.028979821 -0.080372125 -0.035784036 -0.0409944 -0.013876581 0.11933372 -0.025638083
0.10305253 -0.004967558 0.078817315 -0.07099734 0.035903525 -0.025317304 0.10080238 0.058361527
-0.021028658 0.07237587 -0.022393122 0.03057526 -0.06612262 0.023793463 0.0017653616 -0.047992676
-0.03151639 -0.04566791 0.013966779 0.07290249 0.040097676 0.022644594 0.05990425 -0.02989991
-0.01673709 -0.03589135 0.067044206 -0.01874267 -0.09921588 -0.065426975 0.04023805 -0.024343828
-0.06663794 0.02574509 -0.024389312 0.015470253 -0.050370764 0.04455319 0.05323315 -0.055161994
0.096754864 0.06647844 0.08482681 0.045571227 -0.043839376 0.011231442 -0.008422278 0.0018904753
-0.09315277 -0.08951543 0.0723063 0.064299524 -0.056792248 0.023110807 0.047453877 -0.0056832028
-0.023057051 0.07713743 -0.0158121 0.077039436 0.053288694 -0.099289834 0.030640809 0.020738065
-0.08590703 0.012168645 0.026329184 0.08615172 0.021786928 -0.035009474 0.05280885 -0.019254234
0.038552444 0.07873073 -0.09403961 -0.060275093 0.029143227 -0.033249043 0.06736586 0.06491894
-0.056373384 0.08985081 -0.0031403513 0.036581494 -0.019382928 0.042540867 0.010216894 0.019699773
0.0015491493 -0.031045768 0.037196837 0.087257184 -0.06900073 -0.04881421 -0.07880972 -0.040376935
-0.0557634 0.061982386 0.030428503 -0.0016214843 0.006334781 0.07786013 -0.040875025 0.045885034
0.04107859 0.08464978 0.00902265 -0.030679263 0.09908458 -0.00889962 -0.049865637 -0.004807008
-0.022903088 0.03417355 -0.032962695 0.061114084 0.014516265 -0.03544454 0.024034897 0.05334379
00000000: 1406 913c 8ff8 9b3c 1e8c 80bd 5a8d c03d
00000010: 62a8 263d 54ac 98bc c29f b23d 3d8f ac3d
00000020: cdac 23bd cf40 433c 7b43 f8bb 1070 123a
00000030: 9a72 a03d e10e 983d 6907 8e3d 0b1b 953a
00000040: c970 a13d fb07 a4bd eb19 143d 9184 373d
00000050: cf0d cd3c ec28 bdbd fe9c c2bc 6351 ddbc
00000060: e72c 0bbd 9bf9 6ebd 8977 a2bd 9ba2 c1bd
00000070: 22e5 99bc 9953 09bc 5a10 573d 5b16 7bbd
00000080: 1f47 5dbd 514e a13a 1021 113c fb93 65bb
00000090: fa51 2e3c 0263 69bc 81b0 3e3d cbec 2c3d
000000a0: bb11 03bd 06e0 a43c e6de bfbc 1386 13bd
000000b0: c277 6d3d 430f a2bd 7d61 653d a05a ae3c
000000c0: 54f4 3fbd e631 7fbd 8f1c b23d 1a1d a0bd
000000d0: 31ef 803d 4276 b3bd 5221 35bd 9395 793d
000000e0: c46b c4bd cb77 3f3d 40c7 763d 8f78 063d
000000f0: 9161 d1bc 4113 2fbd 38d8 a1bd bd77 57bd
00000100: 66f6 1a3b d144 d53c ce63 223d 7d89 703d
00000110: 2f8f 833d 5b72 2bbd f573 1abd d9ab fe3c
00000120: 4fb5 383d 9c0a ab3d cfc2 7a3d 7603 ff3c
00000130: 3091 24bd fce4 963d 1973 04bd c146 d0bc
00000140: 6dd6 893d af91 cd3d d1ba 18bc e2cf 89bd
00000150: 7642 81bd 49e4 813d ace3 873d 77a9 763d
00000160: 513b 833c 5c33 93bd 0865 653d ffba d0bc
00000170: 2266 11bd 435d 8fbc dd11 8c3d 3561 3e3c
00000180: c1c6 76bc 3c94 67bd 17b2 173d df5e 86bc
00000190: 109e 9e3d f6ea 29bd 1396 74bd baee 9abd
000001a0: 146b 343d 55da 34bd 7409 a93d 841d a83c
000001b0: f663 583d ceff 86bd 3e21 8a3d bea1 79bd
000001c0: a35e cabc b4ba 60bd 1068 55bd d605 f4bc
000001d0: 2ff5 2abd e17d 85bd 7fa7 b13c 4e68 bd3d
000001e0: ce78 28bb 3050 a0bd a15a a0bd beaf 363d
000001f0: 9e1e d6bc 4601 8e3d b80c 9b3d 06f7 91bd
00000200: 0d6e acbc 1767 edbc 249a a4bd 4892 12bd
00000210: bee9 27bd 995a 63bc 3d65 f43d f506 d2bc
00000220: 340d d33d e6c6 a2bb f96a a13d 0e67 91bd
00000230: 930f 133d 3c66 cfbc 7a71 ce3d 7f0c 6f3d
00000240: 4b44 acbc cd39 943d c871 b7bc f878 fa3c
00000250: 4c6b 87bd 82ea c23c b563 e73a f893 44bd
00000260: 5517 01bd 460e 3bbd ebd4 643c e74d 953d
00000270: 763d 243d 2881 b93c 295e 753d a8f0 f4bc
00000280: 391c 89bc cf02 13bd 794e 893d 3a8a 99bc
00000290: b231 cbbd 94fe 85bd a7d0 243d b56c c7bc
000002a0: 7979 88bd 5ee7 d23c 18cc c7bc f276 7d3c
000002b0: 9351 4ebd 687d 363d 010b 5a3d 8bf1 61bd
000002c0: 6a27 c63d d925 883d aeb9 ad3d e5a8 3a3d
000002d0: eb90 33bd 1504 383c 98fd 09bc d3c9 f73a
000002e0: e1c6 bebd de53 b7bd 5315 943d 78af 833d
000002f0: fd9e 68bd e052 bd3c ff5e 423d 293a babb
00000300: 24e2 bcbc 3bfa 9d3d 6188 81bc dac6 9d3d
00000310: 3f45 5a3d 7858 cbbd 6f02 fb3c e0e2 a93c
00000320: 06f0 afbd ff5e 473c 4db0 d73c 5070 b03d
00000330: 807a b23c 1866 0fbd 184e 583d 0ebb 9dbc
00000340: 2be9 1d3d 943d a13d d797 c0bd 04e3 76bd
00000350: c7bd ee3c 2630 08bd 1df7 893d 39f4 843d
00000360: c7e7 66bd b403 b83d 5ace 4dbb 7ad6 153d
00000370: f2c8 9ebc 553f 2e3d c264 273c 6b61 a13c
00000380: d30c cb3a b253 febc b65b 183d e5b3 b23d
00000390: 4150 8dbd 69f1 47bd fe66 a1bd 4962 25bd
000003a0: 2a68 64bd 3ee1 7d3d 3245 f93c fc87 d4ba
000003b0: ff93 cf3b 2275 9f3d 926c 27bd f2f1 3b3d
000003c0: 0642 283d dd5c ad3d bdd3 133c 1453 fbbc
000003d0: dbec ca3d b6cf 11bc e93f 4cbd 1b84 9dbb
000003e0: 429f bbbc 90f9 0b3d e403 07bd c352 7a3d
000003f0: a1d5 6d3c 4b2e 11bd d5e4 c43c 057f 5a3d

bias_ih_l1 f4 [512]
-0.007437477 -0.02030163 0.041623622 0.010550857 0.09523081 0.083125636 -0.034557924 0.09273059
0.06373613 -0.05139546 0.07051208 0.07297011 -0.06845281 0.08935218 -0.055247184 -0.060636286
-0.044603594 -0.033735614 0.15721597 -0.0030019248 0.077787004 0.063656986 0.11168709 0.07111284
-0.027873294 0.07460426 0.05781845 0.071023665 0.08436499 -0.040181506 0.008001037 -0.05194049
-0.005653755 0.13604492 0.06419142 0.069784276 -0.03990912 0.10646282 0.035340607 0.049119014
0.043498315 -0.015480651 -0.05403773 0.023573939 0.09036941 -0.047966238 0.0952397 0.062163044
0.03226966 0.028895011 -0.02207634 -0.03455578 0.09899452 -0.007168557 0.07779803 0.11402835
0.08618904 -0.046522252 0.01754132 0.030463004 0.13252549 -0.0055261273 0.11379997 0.020421706
-0.0042283586 0.051000435 0.048497982 0.10786503 0.10086652 0.09686252 0.03331404 0.07706406
0.05639432 -0.010779555 0.06787692 0.094755545 -0.009758806 0.07312511 0.06962769 -0.0120053245
0.019236047 0.04474758 0.026241696 -0.04393722 0.105668396 0.120922886 -0.08077911 0.06929482
-0.06712748 -0.010430314 -0.048435826 0.018836102 0.003448728 0.092123695 0.048542805 0.09967167
0.0064972774 0.032778226 0.02827442 0.016136447 -0.014691369 -0.052553553 0.06253201 -0.011595767
0.062531814 0.083660394 -0.013241165 0.047378954 0.052619077 0.061445322 0.0693121 0.020165464
0.01791425 -0.006717975 0.061798416 0.04229505 -0.070527025 0.020204855 0.11148531 0.004838237
0.01825704 0.042814054 0.06671348 -0.010275404 0.08958634 0.10357043 0.046730872 0.047377456
-0.064425424 -0.0050597503 0.08242911 -0.0460614 0.009289918 0.049690478 0.058074284 0.0023235944
-0.006831248 -0.05084769 0.066004284 0.028146897 -0.0004712492 0.0005708771 0.04289286 -0.008325677
0.027629726 0.07445207 -0.016865246 -0.031685382 -0.06607196 -0.07072101 -0.027406126 -0.04879442
0.06588344 0.027667433 0.008772575 -0.019807532 -0.046835523 -0.03658182 -0.05285125 0.042028736
0.065179355 -0.108916186 -0.04434154 -0.02722676 -0.057650313 0.056752756 0.05269991 0.014079585
0.050788905 -0.049943026 -0.04850147 -0.06014366 -0.037340328 0.039174426 0.04818383 0.063200265
0.061284795 -0.05776564 -0.06389714 -0.062051512 -0.07373478 -0.018153885 -0.040602513 -0.028034097
0.029270623 0.052534115 -0.092811376 0.054262668 -0.026395792 0.06708158 0.029800873 -0.049727097
0.06402648 0.007790632 -0.05589689 0.011823277 0.061999932 0.022484453 -0.082596645 0.041802544
-0.054194845 0.0140609555 0.036577877 0.028076926 0.046759732 0.012846012 -0.0061894394 -0.04468728
-0.069890596 0.05007377 -0.06874712 -0.08655056 -0.008830032 -0.036310777 0.064077415 0.08152948
0.028340349 -0.036858812 0.06506534 -0.06913677 -0.07426683 -0.053326692 0.073369004 0.054128468
-0.0048023537 -0.06919068 0.013373742 -0.015975414 -0.08078281 0.047877643 -0.030582912 -0.04494672
-0.06364408 -0.070921235 0.062018383 -0.026969636 -0.05313314 0.061836805 -0.009522518 -0.06142357
-0.027619407 0.011878275 0.069290414 -0.05456028 -0.05866121 -0.026708273 -0.011297639 -0.032623768
-0.062728755 0.053046767 -0.0949594 -0.093707405 -0.06262352 0.06308216 -0.07282642 0.05337631
00000000: 14b6 f3bb 9b4f a6bc 887d 2a3d 80dd 2c3c
00000010: 5f08 c33d c63d aa3d 9c8c 0dbd 89e9 bd3d
00000020: 1788 823d 0c84 52bd a368 903d 5a71 953d
00000030: fd30 8cbd 47fe b63d df4a 62bd c15d 78bd
00000040: 42b2 36bd 5b2e 0abd 39fd 203e f1bb 44bb
00000050: cb4e 9f3d 985e 823d 33bc e43d 9ca3 913d
00000060: 8956 e4bc 1eca 983d 0ad3 6c3d db74 913d
00000070: 8dc7 ac3d 5d95 24bd c816 033c 8dbf 54bd
00000080: 2243 b9bb 5c4f 0b3e cb76 833d 0feb 8e3d
00000090: bf77 23bd 2e09 da3d 50c1 103d 0531 493d
000000a0: 4a2b 323d 8ea2 7dbc ab56 5dbd 221e c13c
000000b0: 9913 b93d 3f78 44bd 080d c33d ad9e 7e3d
000000c0: 312d 043d 3bb5 ec3c 71d9 b4bc 5d8a 0dbd
000000d0: a4bd ca3d 37e6 eabb 9354 9f3d b287 e93d
000000e0: e183 b03d 1e8e 3ebd d0b2 8f3c 8d8d f93c
000000f0: c3b4 073e 8414 b5bb f50f e93d 6c4b a73c
00000100: 0b8e 8abb d5e5 503d d2a5 463d 57e8 dc3d
00000110: 1b93 ce3d db5f c63d 4e74 083d c3d3 9d3d
00000120: bbfd 663d bb9c 30bc 0e03 8b3d 320f c23d
00000130: 66e3 1fbc 9ec2 953d f698 8e3d fbb1 44bc
00000140: ea94 9d3c 3d49 373d d3f8 d63c 84f7 33bd
00000150: ac68 d83d 6ba6 f73d 856f a5bd 71ea 8d3d
00000160: 227a 89bd e8e3 2abc a564 46bd 2b4e 9a3c
00000170: 0e04 623b 59ab bc3d d2d4 463d a920 cc3d
00000180: 1de7 d43b 7642 063d c29f e73c 9530 843c
00000190: 11b4 70bc 6542 57bd c810 803d 2cfc 3dbc
000001a0: ae10 803d 2456 ab3d 79f1 58bc 6f10 423d
000001b0: 1a87 573d 17ae 7b3d 81f3 8d3d 0b32 a53c
000001c0: e8c0 923c 7522 dcbb 5620 7d3d 933d 2d3d
000001d0: 7970 90bd a784 a53c 6952 e43d 138a 9e3b
000001e0: ca8f 953c ca5d 2f3d 14a1 883d 2b5a 28bc
000001f0: 0b79 b73d bc1c d43d df68 3f3d dd0e 423d
00000200: 7af1 83bd 43cc a5bb 98d0 a83d e1aa 3cbd
00000210: bd34 183c 3e88 4b3d 4ddf 6d3d 7247 183b
00000220: a9d8 dfbb ab45 50bd 412d 873d 5294 e63c
00000230: ff11 f7b9 eaa6 153a 6cb0 2f3d 6c68 08bc
00000240: bc57 e23c 547a 983d fc28 8abc 88c8 01bd
00000250: bc50 87bd 2dd6 90bd d082 e0bc a8dc 47bd
00000260: e6ed 863d d0a6 e23c d9ba 0f3c 6843 a2bc
00000270: 9bd6 3fbd d2d6 15bd 8d7a 58bd 5326 2c3d
00000280: c17c 853d 730f dfbd 7a9f 35bd a70a dfbc
00000290: bc22 6cbd 9475 683d dcdb 573d 0fae 663c
000002a0: 0708 503d 0f91 4cbd 7aa9 46bd 3359 76bd
000002b0: 2cf2 18bd 5d75 203d 685c 453d 246f 813d
000002c0: c405 7b3d aa9b 6cbd 81dc 82bd ba29 7ebd
000002d0: 4302 97bd 75b7 94bc d24e 26bd c3a7 e5bc
000002e0: f2c8 ef3c 032e 573d e413 bebd 8842 5e3d
000002f0: fd3b d8bc 1162 893d f620 f43c a4ae 4bbd
00000300: 5120 833d 8f48 ff3b 23f4 64bd 6bb6 413c
00000310: a4f3 7d3d 5131 b83c 6e28 a9bd 2539 2b3d
00000320: 6afb 5dbd ec5f 663c afd2 153d 9501 e63c
00000330: 2287 3f3d 1478 523c c8d0 cabb 020a 37bd
00000340: cd22 8fbd 271a 4d3d 4acb 8cbd 6c41 b1bd
00000350: d7ab 10bc 9cba 14bd 053b 833d eef8 a63d
00000360: 052a e83c 44f9 16bd fa40 853d 9497 8dbd
00000370: 3519 98bd 176d 5abd 7d42 963d d0b5 5d3d
00000380: 105d 9dbb d8b3 8dbd 8a1d 5b3c dfde 82bc
00000390: 7571 a5bd 591b 443d 0489 fabc 0d1a 38bd
000003a0: d457 82bd 273f 91bd fd06 7e3d 6def dcbc
000003b0: 23a2 59bd 9748 7d3d 5604 1cbc 4897 7bbd
000003c0: 1842 e2bc 199d 423c 22e8 8d3d 9a7a 5fbd
000003d0: bd46 70bd 4fcb dabc bc19 39bc 80a0 05bd
000003e0: ef77 80bd 9147 593d 137a c2bd abe9 bfbd
000003f0: c340 80bd 3831 813d 0526 95bd 1ea1 5a3d
