stockforecasting/688348_model.pkl (torch, 858496 bytes, 14 tensors)

weight_ih_l0 f4 [512, 4]
00000000: 6f95 703d 5e45 87bc 5201 01bd 5595 b33d
00000010: b9e3 733c 07cb 6cbd 1b49 5c3b 1371 14bd
00000020: 51f8 993d 8dea 85bd 4023 2bbd b136 d13c
00000030: fea7 6dbd 76f6 873d fc64 03bd 36a2 f3bc
00000040: 408e 66bd 50e0 4ebd 4363 60bd c8bf 4f3d
00000050: 4e87 0f3c 362b 61bd d8d9 2cbd 47f3 253b
00000060: 0006 f93c b14c 453d 4ff5 be3b 0454 5cbd
00000070: 0fca 203d 8fd9 b9bd b478 0d3d d5d3 173c
00000080: 2330 89bd df25 ccbc 9e72 30bd 5de2 8dbc
00000090: c70d 26bc af79 92bd f3d5 863d f5da 07bd
000000a0: b7b5 24bc f15c 66bd b430 c8bc 21ac 09bd
000000b0: ea37 63bc 58e8 013d d78e a03d d18a 013d
000000c0: 313a 4bbd 5a2f b0bd 0511 8abc 7f0c 3d3d
000000d0: 9603 13bc 7ab3 50bc 77f9 13bc 437f 5f3c
000000e0: 86fe d43c 0b50 d73d 9ba5 97bc 6bea 81bc
000000f0: 9e47 993d 40ed 103d b8a6 60bc 13f4 84bc
00000100: 17ca 163d 01eb b8bc bf85 2f3c a112 1e3d
00000110: 7b2e aabd 9605 05bd 3088 963d 99f5 c0bc
00000120: 6576 8c3d c8d1 123d dfcb 903d 13e6 873d
00000130: d997 f83c b969 6bbc 3dab ac3d ec8e 8c3d
00000140: e510 2b3d c2d9 8dbd e791 84bd ef1c 533d
00000150: e359 ba3a d5f0 26bd f1f4 36bd 4e70 953c
00000160: f101 93bc 2505 21bd 6a4d 473d f6e6 21bc
00000170: f5fa 6dbc c112 5ebb 5a30 d23d d9d0 f03d
00000180: 9b89 8bbc b214 b9bc 4c09 50bd b376 9f3d
00000190: 1dce b4bd bc39 813d 3b5f d1b8 b1ab 643d
000001a0: 68d3 31bd d6cb 573c 8ea3 a83d f041 943d
000001b0: 7640 8f3d 4280 5cbc 02bd c63d 0ff8 dc3d
000001c0: 7ebc c53d b597 ba3d 04e5 c53d f317 71bc
000001d0: 2a70 a33d e7ff 24bd 673c e73c 1e20 023d
000001e0: f6c8 a73c cbe2 b9bb 1d3f e63d f8f4 833d
000001f0: 38b8 16bd fd2c b13d 73a8 893d c137 503d
00000200: 93a0 a3bd 367d 1a3d c696 103c afd9 be3d
00000210: 9567 b6bc ee20 8b3d 339b a43d 312f 013d
00000220: 339d 2bbd 8cac 1fbd abb3 86bc 8290 ba3d
00000230: a3d2 863d 5713 96bd c20e 74bd 99c6 3f3a
00000240: dba6 09bb 673d 653d ee96 133c c5a3 833d
00000250: d9b9 cc3c 043b 9e3d bfd7 59bd 1673 e73d
00000260: 5af8 783c bde1 643c 3bb3 863d 5955 9f3d
00000270: b6d7 c0bc dfe2 74bd 2792 88bd 27ac a53d
00000280: dd20 673d 5d72 4ebd 9009 af3d d477 e53d
00000290: 9926 033e 8b8b 983c dd9d be3d b47b e83d
000002a0: 3180 0f3d 94f4 83bd cbc0 8cbd d49d be3d
000002b0: c34f 81bc 27ff db3d ba95 7d3d e650 f13d
000002c0: 10db 413d 1a36 6fbd 6490 f63c d206 8abd
000002d0: 88e4 13bd 3cda b43d d560 6c3d 7f86 873d
000002e0: ae40 1a3c 9ab1 423d ceff 68bd 341a 2abc
000002f0: c230 903d 3b1c 563d d644 31bd 2ab8 25bd
00000300: 9e87 6c3c afe5 b33c ef4c 963d 55c6 e1bc
00000310: fe92 813c 9aa2 8d3d 3cbb 26bc 7791 723d
00000320: 4325 8f3d a50f 903d b4a2 003c 8659 bd3d
00000330: 0476 ad3d f58e 9d3c ad8a c9bc 4aec d73c
00000340: 655f 143d 07b6 303d c7bd 2abd 76ea ab3d
00000350: 9b3d 9a3a 34b9 e43d 4d15 063e befc e53d
00000360: 5698 eb3b 5680 42bd 5cd6 a6bd 10ed 90bd
00000370: b252 a13c 2107 043d 2e74 3cbd 42ff d73d
00000380: 8399 373d 8e71 cc3c 0784 823d 0c16 863d
00000390: f730 94bc e968 d2bc 4c28 53bc f5e4 35bc
000003a0: 184b e0bc 0c93 afbd f00e a03d 14ca 84bd
000003b0: 7908 49bd 273e 1d3d a60e a13c 1033 013d
000003c0: 93aa c0bc 34e5 70bd b2dc 88bb a608 523d
000003d0: bf59 8c3d aefc 1bbd 06d1 c0bc 7c1a 8f3c
000003e0: 741e a43d 1eac 423d 2748 debc c4d1 57bd
000003f0: 7c5f bf3d 99ed 6b3d d86a cd3d 273a 263d
0.05873626 -0.016512569 -0.0314954 0.08768717 0.014885836 -0.05781081 0.003361291 -0.03624065
0.07518066 -0.06538878 -0.041781664 0.025538774 -0.058021538 0.066388056 -0.032078728 -0.029740434
-0.056288004 -0.05050689 -0.054782163 0.050720006 0.0087602865 -0.05497285 -0.04219994 0.0025322007
0.030398369 0.04816884 0.005827583 -0.05379106 0.039255198 -0.09074699 0.03453894 0.009266813
-0.066986345 -0.024920402 -0.043078057 -0.017319852 -0.010135121 -0.071521156 0.06583776 -0.033167798
-0.01005309 -0.05624098 -0.024437286 -0.03361142 -0.013868311 0.03171572 0.078397445 0.031626526
-0.049616043 -0.086027816 -0.016853819 0.046154495 -0.008973023 -0.012738103 -0.009031645 0.013641181
0.026000272 0.10513314 -0.018511584 -0.01585885 0.07484363 0.03538251 -0.013711624 -0.016229665
0.03681382 -0.022572996 0.01071304 0.038591985 -0.08309647 -0.03247603 0.073501945 -0.02355461
0.068585195 0.035844594 0.07070135 0.0663568 0.030345844 -0.014368468 0.084310986 0.06863198
0.04176416 -0.069263 -0.06473141 0.051541265 0.0014217462 -0.04075702 -0.044667188 0.018242028
-0.017945262 -0.039311547 0.048657812 -0.009881726 -0.014525165 -0.003388569 0.102631286 0.117585845
-0.017033389 -0.022592876 -0.050790116 0.07786312 -0.088283755 0.0630984 -9.983635e-05 0.0558278
-0.043414503 0.013171157 0.082343206 0.07239139 0.06994717 -0.013458313 0.09704019 0.10789501
0.09655093 0.09110967 0.09662822 -0.014715183 0.07980378 -0.04028311 0.028227044 0.03176891
0.020481568 -0.005672788 0.11242507 0.064432085 -0.03679678 0.08651159 0.06721582 0.05083442
-0.079896115 0.037717067 0.00882501 0.093188636 -0.022266189 0.0679339 0.080374144 0.031539146
-0.041897964 -0.038982913 -0.016443094 0.09109594 0.065831445 -0.073279075 -0.059584387 0.0007315665
-0.0021003995 0.05596676 0.009008152 0.06427721 0.024990963 0.077261 -0.053184267 0.11301248
0.01519593 0.013969836 0.06577154 0.07779951 -0.023540359 -0.059786674 -0.06668501 0.08089476
0.056427825 -0.050402034 0.08546746 0.11204496 0.12807693 0.018621227 0.09307454 0.113517195
0.035034362 -0.06443134 -0.0687271 0.09307447 -0.015785104 0.10742026 0.06191037 0.11783008
0.047328055 -0.058401205 0.030098148 -0.06739582 -0.036106616 0.088306874 0.057709534 0.0661745
0.009414835 0.047532655 -0.05688458 -0.010382224 0.0704055 0.052273016 -0.043278538 -0.040458836
0.0144366305 0.021960108 0.07338893 -0.027560392 0.015817162 0.069157794 -0.010176476 0.059220757
0.06989529 0.07034234 0.007851291 0.09245591 0.08469775 0.019233206 -0.024602259 0.026357789
0.036223788 0.043142345 -0.041684892 0.08394329 0.0011767627 0.11168137 0.13094063 0.11229847
0.0071897907 -0.047485672 -0.081463546 -0.07076466 0.019692753 0.03223336 -0.046009235 0.105467334
0.044824135 0.02495649 0.063728385 0.06547174 -0.018089755 -0.02568479 -0.0128880255 -0.011101951
-0.027379557 -0.08572969 0.07815349 -0.06483856 -0.049080346 0.03838935 0.019660305 0.031542838
-0.023518836 -0.058812335 -0.0041766996 0.05127778 0.06853055 -0.03808277 -0.02353717 0.017468683
0.08013621 0.047527425 -0.027134014 -0.052690282 0.09344384 0.057599638 0.100301445 0.040582802

weight_hh_l0 f4 [512, 128]
00000000: e4fc a9bd 3721 41bd 6d0a 473c 9875 d23c
00000010: f536 77bd 48f6 813d 7e53 523d 7271 5b3d
00000020: 2bab 67bd c780 07bc 0988 9f3d 37a2 c0bd
00000030: 26ec 4cbc 686f 313d 00c8 3fbc 2799 98bd
00000040: 34f6 76bc d625 10bd 9431 e6bc 164a c6bc
00000050: dc13 ac3c 8f09 90bd 629d 1ebd de42 1e3d
00000060: 03ec 2ebd d3e1 33bd 4890 9e3c bc1d 69bd
00000070: 36b7 8c3d 244a bb3d d02f 84ba 7eaa 06bc
00000080: 9328 a6bc 1bbe 56bc f754 ba3d 5931 863d
00000090: 4b1b 62bd adac 8a3b 7e85 9bbd d20c 923d
000000a0: 9011 9cbd aeca 043d 1eb5 63bd 5777 afbd
000000b0: a786 6a3d 34c3 2cbd 53d4 38bd b330 c73d
000000c0: 4ecf 1abc 6b0b 91bd 2108 593d bd7b 1fbc
000000d0: 19da fab9 364b b0bc 5a47 8c3d 414d 2e3d
000000e0: 6110 c6bc 56e1 963d 9141 1e3d f0df 33bd
000000f0: ab90 b1bd e998 883d 467a 463d ed85 f13c
00000100: 8b0c 973d ba56 adbd e1fd 783d ab22 e4bc
00000110: 0d1f 9c3d 1e5a a53d a317 65bb 0c1c 1ebd
00000120: cd3d c4bd 7b8f 9f3b b516 acbd aad7 73bd
00000130: 51d5 c0bc ac18 7dbd acf0 bd3d 3bfc 093b
00000140: 8668 833d 008b 01bc 30e2 f23c 37d7 1ebd
00000150: d43c 93bd 1db4 8d3c 5a77 743d 9083 313d
00000160: 85b9 303d 3b8f 803d a057 433c 50f0 cc3c
00000170: 7fcc a1bc ee9c 79bd df7a b93d 6d17 88bd
00000180: d766 f639 15ee d33d 4b91 b3bc f251 bf3b
00000190: 9ae3 933d dc40 0b3d 2ef2 57bd 6984 863d
000001a0: 8791 0ebd ab83 af3d 2563 153d ef1e a23d
000001b0: d675 853b d1a0 b83c 9175 53bd 009b 4dbc
000001c0: ebff 653c 2f86 013d 6020 743b 7e04 4e3d
000001d0: 0a1c 7a3d 157b 833d a383 933d 05cd f83c
000001e0: 500c 943c 222c ff3c d588 783d 2c18 6e3d
000001f0: d606 95bd 7f5a 99bd 9b5c 54bd 1554 3f3c
00000200: f636 4ebc cf57 a23d 49b3 35bd c459 84bd
00000210: 2bb8 22bc 5ae9 c7bd 61a2 083d ec54 383d
00000220: c44c 193d a6af 7bbd 1e12 62bd 34e5 103d
00000230: d642 363c c557 443d b11b 9f3d 60d7 f03c
00000240: 7735 a2b9 6841 96bd 892e 883d 4977 f53c
00000250: 5ca9 d83c 5df2 cbbc e2b6 afbd fd43 2dbd
00000260: 6cf6 1d3d ae1f 793d 153f 51bd 47ce 3dbd
00000270: fb0e cf3a 720c eabc 101d 573b 203b 3e39
00000280: 43a8 7a3d cf27 8f3c 183b 0cbd b3f2 a23d
00000290: 0a7b 903d a509 e9bc dcf1 9fbb 2770 aabd
000002a0: da9d 5ebd 65f1 35bd 9d54 a2bc 1e8f 90bd
000002b0: ac5e 56bd 4724 8bbd 377b f43c bcaa 7f3d
000002c0: fd07 35bc 398d 79bd 63d6 e8bc 1751 433d
000002d0: ab48 7ebd cd49 9e3d 7be0 1dbd a405 623d
000002e0: 8fc7 9fbc 99b1 c6bc 2cfa 48bd e5b9 403d
000002f0: 212f 443d b5d9 a23d 5304 393c d008 8d3d
00000300: 2171 8c3d db72 b03d 0810 9fbc d00c cb3c
00000310: 40e5 a23c 3bc1 3f3d 9083 b63d 7fe5 783c
00000320: b714 423d 1881 35ba 6f03 483c 8245 773d
00000330: ac27 9a3d d5c2 45bd 61ea 913d afdd 38bc
00000340: 6d11 03bd 7935 7c3d aafe 4abd 61de 423c
00000350: 3382 783c 6681 55bd ad99 a9bd 3173 9bbd
00000360: 93e0 9c3b a21f 42bd 61ae 95bd a1c8 d33c
00000370: fad5 d03c 916f 7dbd f8a2 803d 2e3a 743d
00000380: 975b b73c be62 ab3d e34d 8cbd f3e6 b43d
00000390: 2f8f a33d 1438 2ebd f33c 113d fc14 0e3d
000003a0: e4f0 acbd d06b 3dbd bcb6 fe3c d737 533d
000003b0: d111 febc 4c6e d73c 59f9 fd3b 9e46 41bd
000003c0: ca96 f1bc 9f8a 803d 6091 b3bd 1efa 24bd
000003d0: a069 763d 6c2f 223d 812c f03b 76d6 f7bc
000003e0: c951 95bd 34ec 5e3d 1fd0 53bd 304a 34bc
000003f0: ae62 963d c1d1 b4bd 9910 743d 6715 18bd
-0.08300188 -0.047150817 0.012148482 0.025690839 -0.060355145 0.063458025 0.051349156 0.053574987
-0.056559723 -0.008270449 0.077896185 -0.0940594 -0.012507474 0.043319136 -0.011705399 -0.074510865
-0.015073348 -0.035192333 -0.028099813 -0.024205249 0.021005563 -0.07033073 -0.03872431 0.03863799
-0.042705547 -0.043916535 0.019355908 -0.056913123 0.06870882 0.091450006 -0.001008505 -0.008219359
-0.02028302 -0.013106848 0.09098237 0.06552381 -0.05520181 0.0042320103 -0.07593821 0.071313515
-0.07620537 0.032419853 -0.05559265 -0.08567684 0.05725732 -0.042178348 -0.045124363 0.097260855
-0.009448839 -0.07082256 0.052986268 -0.009734091 -0.0004784621 -0.021520238 0.06849547 0.042554144
-0.024177732 0.07367198 0.038636748 -0.043914735 -0.08670171 0.0666979 0.048456453 0.029482806
0.07375439 -0.084638074 0.060788993 -0.027848562 0.0762311 0.08073829 -0.0034956716 -0.038600966
-0.095821 0.004869399 -0.084027685 -0.059531845 -0.023539217 -0.061791107 0.0927442 0.0021054882
0.06416421 -0.007906675 0.02964887 -0.038779464 -0.071893364 0.017297799 0.059684135 0.04333836
0.043145675 0.06277319 0.011922747 0.025016934 -0.019750832 -0.060940675 0.09056639 -0.06645093
0.00046997398 0.10348145 -0.021919867 0.005838626 0.07221146 0.0339974 -0.052721195 0.06568224
-0.034806754 0.085700355 0.036471505 0.07916056 0.004072885 0.02253762 -0.051625792 -0.012549162
0.014038066 0.031622108 0.0037250742 0.050297253 0.061061896 0.064199604 0.07202842 0.030371198
0.018072277 0.031148974 0.06067737 0.05812852 -0.072766945 -0.07487964 -0.051846128 0.011677762
-0.012586346 0.079269044 -0.044360433 -0.06462434 -0.009931604 -0.09761305 0.03335798 0.045002863
0.037426725 -0.06144681 -0.05519306 0.035374835 0.011124333 0.047935266 0.077689536 0.029399574
-0.00030938882 -0.07336694 0.06649501 0.029964106 0.026447944 -0.024895841 -0.08579804 -0.042301167
0.038565084 0.060821228 -0.05108555 -0.0463393 0.0015797311 -0.028570388 0.003282372 0.00018141838
0.061195623 0.017475037 -0.034236044 0.079564475 0.07054718 -0.028446982 -0.004881127 -0.083221726
-0.054349758 -0.044419665 -0.019815737 -0.070585474 -0.05233638 -0.06794029 0.02984391 0.062418684
-0.011049268 -0.060925696 -0.02842254 0.047684755 -0.06208102 0.0772892 -0.03854416 0.05518116
-0.019504337 -0.024254607 -0.049066707 0.047052283 0.047896508 0.079516806 0.011292535 0.068864465
0.06857515 0.08615657 -0.019416824 0.024786383 0.019884706 0.04681514 0.08911812 0.015191435
0.047383036 -0.00069238385 0.01220785 0.060369022 0.07527098 -0.04828151 0.07124782 -0.011283322
-0.03199904 0.061574433 -0.049559273 0.01189384 0.015167761 -0.052125357 -0.082812645 -0.075903304
0.0047875135 -0.04739345 -0.07308651 0.025852503 0.025492657 -0.061873976 0.06281084 0.059625797
0.02238254 0.08368443 -0.06850793 0.088331126 0.079862945 -0.04253395 0.035458516 0.03468798
-0.08444384 -0.046245396 0.031092994 0.051566925 -0.031014355 0.02629771 0.007750672 -0.047186486
-0.029490847 0.0627644 -0.087679625 -0.040277593 0.060159326 0.039596006 0.007329524 -0.03025363
-0.0729099 0.05442448 -0.05171215 -0.011004016 0.073430404 -0.0882907 0.05958614 -0.037129786

bias_ih_l0 f4 [512]
00000000: 414e e7bc 752e db3b 033a 22bd 53ff 473b
00000010: b419 bf3d 16de 973d af26 003d d516 ac3d
00000020: 4660 21bd 48f2 40bd 1061 bd3d bfbb 93bc
00000030: abc8 7a3d 194e 933c 7a83 e93c 0c84 87bd
00000040: bfaf 19bd e517 0bbd 671d 60bd b146 1e3e
00000050: eca6 993d 888f 57bd dbf0 c2bc 6dbf 033d
00000060: 51d1 8bbc 367e b1bd 9809 21bd ac48 923d
00000070: e3c6 843d a23c 21bd 2b7f 4ebd c556 693d
00000080: 60c9 f3bb 5b7e 20bd 5286 9f3d a100 bc3d
00000090: 09e9 afbd 9df7 5f3d 8f84 50bd 4488 9a3d
000000a0: c765 8f3d f6f8 48bd fe83 393d 8c20 6c3d
000000b0: 67a4 a03c 03ac 873c c8c0 56bd d5b5 3a3d
000000c0: 2e4d 833d 6bef 863c f223 443d b0a1 c9bc
000000d0: 3377 e23b 99db 11bd 2313 9c3d 380b 9e3b
000000e0: 76ac a2bd f135 9d3d d62d 4ebc 7a83 a53d
000000f0: a014 bb3d 0826 3cbd 43d5 4c3c c547 40bd
00000100: c998 31bd 66a7 473d da16 f53b 346e 56bd
00000110: cc14 e33d 71c1 833b 0a3c 523d a8d1 3d3d
00000120: d254 bd3d 4822 8d3d f8a4 9c3c f986 6bbc
00000130: b2d3 9a3d 5092 98bc 5168 4f3d 97eb fa3b
00000140: 0e41 363d 1bda 253d 4ba3 88bc 9ee3 85bb
00000150: f72f 54bd 790f a63d 4a99 d13c 2af0 813d
00000160: 1725 da3d 5fc7 10bd 4004 423d 7f71 eebc
00000170: ee65 a63d 644c a2bd 60c2 a13d a11e 88bc
00000180: 7fe4 dfbc b394 003e f33a 133d 63d4 483d
00000190: 5da3 86bd 6cb8 73bd 109e 453d ee04 c53d
000001a0: 6163 b33d 10d7 42bd 7e1c 0ebd 1251 633d
000001b0: c563 683c 3ed9 7f3d de88 e13a c825 8c3d
000001c0: 8243 b23d 7339 2cbd 69bd 23bd 9357 83bd
000001d0: a717 ea3c 11de 33bd 9268 003d d131 77bc
000001e0: 87ed 913d 6411 a63d 9023 83bc 5749 9c3d
000001f0: 6376 a83b 3922 79bd c419 873d 06ae cc3d
00000200: c97d 69bc 9508 a3bb b7b1 67bd fc24 933d
00000210: acf0 603c d66c 3dbd cde2 ad3d a918 c2bb
00000220: e1a6 043d 8f03 b23d 67c1 473d 6f88 993d
00000230: ef4d 9abd dfb0 0f3d 0797 2e3d 0d33 4e3d
00000240: 0ffb a43d e011 5f3d 0f4e d43c 89dc 38bd
00000250: c36b c0bc 3d7e d1bc 7c46 9c3d 6b34 a8bd
00000260: 254a f6bc 2dde 863d 1690 7f3d 20d8 0a3d
00000270: 0809 3ebc ce84 0abc 5893 0ebd e3c2 1e3d
00000280: c53e c7bc fc42 a3bd e001 89bc f1de 09bd
00000290: d430 793d e4f5 8abd 572f 983b 1bc7 bd3c
000002a0: 61d1 c93c 768a f9bc dda1 bbbd 4a3d 89bd
000002b0: dbe6 a1bd 9f0f 1ebd d447 8c3c 561f 8e3d
000002c0: 5324 aabc d14c f03b 53a0 88bd 17a0 a53d
000002d0: 3394 5cbd 024d 183d 76a9 873d 395b abbd
000002e0: 0605 993d e7c7 0f3d fc8f 4f3d f050 6f3d
000002f0: 3c82 ac3d e88e 133d 70a0 5f3d 18be 2c3d
00000300: a613 1c3b efc3 543d 30e2 b93d 68f4 89b9
00000310: 2e28 95bd d8f6 22bd 9044 54bd 3c74 a5bd
00000320: ae6f 9ebb f0f4 533d b3fb 7f3d 9362 bdbc
00000330: 1096 993d c5ba 96bd 58cd 643d 9775 82bc
00000340: f49c 523d 4ec5 953d 66fb 11bd 42f9 643a
00000350: 78c5 2dbd d26a a4bd ad2d 643c c3b6 48bd
00000360: aab7 8e3c 3878 633d 3a69 763d 6519 ab3d
00000370: 2de6 9dbd 4fa7 8ebd 004f 423d 46a7 18bd
00000380: 6326 cdbd 8241 26bd 1c28 31bc e292 473d
00000390: b26c 443d baa8 143d 5477 1abd 3d18 76bd
000003a0: 4b45 b23d d09d 1bbd 7217 70bc a6fa af3d
000003b0: 1073 2aba 3ef0 b5bd 2b2e 513c 2526 92bd
000003c0: 6ba3 c1bc d2bb a53d 080e 1a3c b5f5 b53d
000003d0: 8be0 9fbd d8f1 9bbd af16 a33d f823 a5bd
000003e0: e9f2 21bd d657 92bd bc55 02bd 8de5 793d
000003f0: a18f 91bd d196 633d bbc5 4ebd a42e 64bd
-0.028235557 0.0066888877 -0.039606106 0.0030517175 0.09331074 0.074154064 0.03128689 0.08402792
-0.039398454 -0.047106057 0.09247029 -0.01803386 0.06122653 0.017981576 0.028505076 -0.06616983
-0.03752112 -0.033958334 -0.05471554 0.15456654 0.07502541 -0.052627116 -0.02379649 0.03216498
-0.017067583 -0.08666651 -0.03931579 0.07142767 0.06483247 -0.039364465 -0.050414246 0.056967515
-0.0074397773 -0.039183002 0.077892914 0.091798075 -0.0858937 0.0546795 -0.050907668 0.07545522
0.07001834 -0.049065553 0.045291893 0.057648227 0.019609643 0.016561514 -0.052429944 0.045583565
0.06411205 0.016471585 0.047885843 -0.024613231 0.0069111823 -0.035609815 0.076208375 0.0048231147
-0.079430506 0.07676304 -0.01258417 0.08081718 0.09134793 -0.045934707 0.012502017 -0.046943445
-0.043358598 0.048743628 0.0074795308 -0.05235119 0.11087951 0.0040208627 0.05132679 0.046342522
0.09244694 0.06891304 0.019121632 -0.014375442 0.07559909 -0.018624455 0.050636593 0.007657479
0.044495635 0.040491205 -0.016679427 -0.004085972 -0.051803555 0.0810842 0.02558579 0.06344636
0.106516056 -0.035346385 0.047367334 -0.029106854 0.0812491 -0.079247266 0.07898402 -0.016616168
-0.027330635 0.12556724 0.03594489 0.049030673 -0.06574128 -0.05950205 0.048246443 0.09620081
0.087591894 -0.04756838 -0.03469514 0.055497237 0.014183943 0.062463038 0.0017206927 0.06843144
0.08704282 -0.042046975 -0.039975557 -0.06413188 0.028575731 -0.04391295 0.031349726 -0.015087561
0.07125383 0.08108786 -0.016008168 0.07631176 0.005141066 -0.060823653 0.06596711 0.0999413
-0.014251181 -0.0049753883 -0.056565966 0.071847886 0.013729256 -0.046246372 0.084905244 -0.00592335
0.03238571 0.08692085 0.048768427 0.07496726 -0.07534396 0.035080787 0.0426245 0.050341655
0.08055698 0.054460406 0.025916127 -0.045132194 -0.023488885 -0.02557289 0.07630631 -0.08213123
-0.030064652 0.065853454 0.06239327 0.03389752 -0.011598833 -0.008454515 -0.034808487 0.038760077
-0.024321923 -0.07971761 -0.016724527 -0.03365988 0.06083758 -0.06785181 0.004644315 0.02316623
0.024635972 -0.030461531 -0.09161732 -0.06701143 -0.0790536 -0.038589116 0.017124094 0.069395706
-0.020769274 0.007333376 -0.066712044 0.08087175 -0.05385227 0.037182815 0.06624119 -0.08367009
0.07471661 0.03510275 0.050674424 0.058426797 0.08423278 0.036024958 0.054596364 0.042173475
0.0023815422 0.05194467 0.09076345 -0.00026312773 -0.07283054 -0.03978619 -0.0518232 -0.080788106
-0.0048350906 0.051747262 0.0624959 -0.023118293 0.07499325 -0.07359842 0.055859894 -0.015925212
0.051419213 0.073130235 -0.035640143 0.0008734652 -0.04242465 -0.08028187 0.013926906 -0.04900242
0.017421562 0.05553457 0.060158946 0.08354453 -0.07709918 -0.06965505 0.04743862 -0.0372689
-0.10017087 -0.040589817 -0.0108127855 0.048724063 0.047955222 0.036293723 -0.037711456 -0.06008171
0.08704623 -0.0379923 -0.014654027 0.08592729 -0.0006502131 -0.08883713 0.012767355 -0.07136182
-0.023637494 0.080924645 0.009402759 0.088847555 -0.078065 -0.076144874 0.07963311 -0.08063501
-0.039538298 -0.071456596 -0.031820044 0.061009932 -0.07107473 0.05556375 -0.05048154 -0.055708542

bias_hh_l0 f4 [512]
00000000: d1e7 d8bc e979 8fbd e42f 13bd ec02 48bd
00000010: 1f86 88bd 082b 15bc e9e8 5fbd 43ef 87bc
00000020: 44e5 bc3c c105 823d b3fd 1d3d 09ea bc3d
00000030: ef06 fb3b 8d48 663a 32ee ae3d cff4 40bd
00000040: aae5 98bd 11b7 d53c e619 23bd 5a1c 003e
00000050: 116d b8bc 648f 8fbd b326 12bd 7df9 81bd
00000060: b200 05bb 15f6 e0bb 5fbd 183d 86d3 a33b
00000070: 44ba f7bc d932 0bbc 2295 2f3d 5206 ac3d
00000080: d0af f13c c5f8 edbc 0e4e 563d dd9a 113d
00000090: c428 34bd bd9e 863d e70c 1ebd 83ef f7bc
000000a0: a7a5 51bd e9c6 45bd 7e17 313d e175 0ebd
000000b0: 4eb7 5bba 7fa3 3fbd 6d7e f03c 5e75 b5bc
000000c0: e361 86bc 78b0 c7bc 26c0 2bbd 7893 5b3b
000000d0: ccde 6e3c a04e 60bd 6cde 723b f3a2 c23d
000000e0: 2da9 f23c c992 b13d 3a28 52bd eb0d 4bbd
000000f0: 2e50 86bb e549 88bd 4c55 ab3d 8e65 95bd
00000100: 4b70 6739 9861 2f3d 20c3 83bd e8dc 06bc
00000110: 29da 303d 6671 59bd eb51 793d ca82 813d
00000120: 2785 2abc 9723 a4bd e6c6 89bc 05a9 40bd
00000130: d479 0a3c 3b2d 113d 61f7 423d 3c8f 7d3b
00000140: 4e2d 99bd 88ec ca3d 10b8 05ba 2437 b63b
00000150: 9b02 d73d 6ea7 3abd 4ed4 63bd abba 86bd
00000160: 938b b0bc d0f9 873c b9c2 3abd 3c73 843d
00000170: 603e 66bd 1ead a83d c325 5f3d c37a 02bd
00000180: f364 ba3d 34bf e53a afb8 ab3c 7d63 95bc
00000190: 1ef5 c33d 2c04 14bc ce7d c53d 5c6e c13d
000001a0: 02e5 303c 1137 8dbd 9580 4dbd 3104 2f3d
000001b0: e4f5 81bd f238 d63a 0d75 0cbd 0518 5b3d
000001c0: 4ab1 a03d a56a cf3c fb70 303c 87e6 71bd
000001d0: 3ed2 063d 99ac 433d de82 e9bc 0eb5 813d
000001e0: 0ac2 18bd 2577 b2bc 3beb 9b3d 51f7 523d
000001f0: c543 74bd 4104 00bd aaaf 313d 842e 26bd
00000200: 8715 3a3d 5508 aabc c283 9cbd ed12 1bbd
00000210: f70a 00bd ad20 74bd 2d11 8f3c 7540 42bd
00000220: 2768 be3d 6a04 2f3c 17b2 263d 2037 833d
00000230: a8c7 c43c ca74 a0bd 2bb3 6e3d dc5d 3f3d
00000240: 55b5 74bd fd70 a83d 1a62 c73c 0ca8 4f3b
00000250: 4b56 77bc f34c f73c 7229 a73d a101 37bc
00000260: 27f8 73bd 32ea 64bd 87cf 4ebc 7c53 443d
00000270: fdb0 103d e980 5cbd 9120 b43d 5e1c 36bd
00000280: 8a9b 81bd 073c 67bc aa9d c03b a34f cd3a
00000290: ce23 4abd 72ab 8a3d 70a5 d53c 7c6a 543d
000002a0: a6e6 aebd 066a ebbb ed6f 963c a0cb f0bc
000002b0: 1a8d 913d cab8 5b3d 8245 94bd 65fd 493d
000002c0: b972 ce3c e977 323d 2814 263d 6d65 683d
000002d0: e0d0 a33d ebf2 a3bc 3fc7 8e3c 5af9 8a3c
000002e0: 448a 8d3d d3d6 a63d 545c 383d 6b75 eaba
000002f0: fbf0 a83c 1a86 d93c 3681 933b 062b 7cbc
00000300: 2ed6 3c3d 6825 773d e745 643d b5eb a03d
00000310: 8c86 1ebd c3cb 87bc c009 b33c b4b6 8f3c
00000320: 5402 633d f511 1b3d 1daa 4fbd d35c ca3c
00000330: 163c 053d 07f2 c13d 5433 0bbd 80e6 7abd
00000340: 3a60 603d f72a bcbd 5955 3fbd 948f 833d
00000350: 8e1b f5bb ba92 89bd f64c 8fbd 949c 9dbd
00000360: 5188 08bd a882 84bc 1bce 183c 7b40 833d
00000370: 3767 7fbd 1215 9bbd 7455 5d3d 65dd 2b3d
00000380: 6da5 b7bd d06d 87bd 689e 9abd 163d 943d
00000390: 6817 8dbd 985f ad3d 8918 423c ff4a 363c
000003a0: f9da 7e3b 216a 643c a04b 303d ff05 87bd
000003b0: 7287 5e3d 80d0 723d b3ee e13c ceeb 6fbd
000003c0: c03d 993d dab6 883c 71d1 9ebd 92a5 a73c
000003d0: 37ea 0ebd 68c5 98bd bb5d 453c 6e38 8f3d
000003e0: b21d 8c3d 5ea0 6d3d 9016 ac3d 6a2d ad3c
000003f0: f8a8 6b3d 4ff2 adbc b850 b03d d9c5 783d
-0.026477726 -0.070056744 -0.035934344 -0.04883091 -0.066662066 -0.009104498 -0.05466548 -0.016593581
0.023058541 0.06348754 0.038572025 0.09224326 0.0076607387 0.00087846146 0.08541526 -0.047108468
-0.0746568 0.02608827 -0.03981962 0.12510815 -0.022512944 -0.070097715 -0.035681438 -0.06346414
-0.0020294604 -0.0068652728 0.037289973 0.004999581 -0.030240186 -0.00849601 0.042866834 0.08399643
0.02950278 -0.029049287 0.052320533 0.03554808 -0.04398419 0.06573246 -0.038586523 -0.030265575
-0.05118337 -0.0482854 0.043235295 -0.034780387 -0.00083815015 -0.04678678 0.02935716 -0.022150692
-0.016404098 -0.024376139 -0.041931294 0.0033504646 0.014579486 -0.054762483 0.0037058843 0.09503736
0.029621685 0.08670575 -0.051307894 -0.04957382 -0.0040989136 -0.06654719 0.083658785 -0.07294761
0.00022071709 0.042817682 -0.064337015 -0.008231379 0.043176804 -0.05308666 0.06086914 0.06323774
-0.010407723 -0.08014601 -0.016818475 -0.04703619 0.008451898 0.035443526 0.0475992 0.003869011
-0.07479344 0.09908396 -0.0005100975 0.0055607725 0.10498544 -0.04556983 -0.05562239 -0.06578573
-0.02155093 0.016598612 -0.04559586 0.06467292 -0.05621183 0.082361445 0.05447937 -0.031855356
0.09101286 0.0017528296 0.020962087 -0.018235916 0.09568237 -0.009034198 0.09643136 0.094448775
0.010796787 -0.06895269 -0.050171454 0.042728607 -0.06345728 0.0016343875 -0.034291316 0.053489704
0.07846315 0.025319407 0.010769124 -0.05905774 0.032915346 0.047772024 -0.028504785 0.063333616
-0.037294425 -0.021785328 0.07613226 0.05150539 -0.059634943 -0.031254057 0.043380417 -0.040571705
0.045430686 -0.020755926 -0.07642318 -0.037859846 -0.031260457 -0.059601475 0.017464245 -0.047424752
0.09297209 0.010682205 0.040697183 0.06406999 0.024020985 -0.07834776 0.058276337 0.04672037
-0.059743244 0.08224676 0.02433877 0.0031685857 -0.015096257 0.03018806 0.08162202 -0.011169822
-0.05956283 -0.05588741 -0.012622721 0.04793118 0.03532504 -0.053833876 0.08795274 -0.044460647
-0.06328495 -0.014113433 0.00587817 0.0015663992 -0.049350552 0.06770982 0.026079863 0.051859364
-0.085400864 -0.00718427 0.018363917 -0.029393971 0.07106991 0.053643025 -0.0723982 0.04931392
0.025201188 0.043571386 0.040546566 0.056737352 0.07998824 -0.020013293 0.017428992 0.016964603
0.06911138 0.08146443 0.045009926 -0.0017887776 0.020622721 0.026553202 0.004501487 -0.015391117
0.046102695 0.060338408 0.055730727 0.078574575 -0.038702533 -0.016576653 0.021855235 0.017543174
0.055422142 0.037858922 -0.050699342 0.024702465 0.032528006 0.09469991 -0.033984497 -0.06125498
0.05477927 -0.091878824 -0.046712253 0.0642387 -0.0074800914 -0.06717439 -0.06997101 -0.076958805
-0.033333126 -0.016175583 0.009326483 0.06408783 -0.062354293 -0.07572378 0.054036573 0.041959185
-0.08967099 -0.06612742 -0.07549745 0.07238214 -0.0688923 0.08465499 0.01184667 0.011126279
0.0038887842 0.013941319 0.04304087 -0.065929405 0.05432839 0.059280872 0.027579641 -0.05857449
0.07482481 0.016688753 -0.077547915 0.020464692 -0.034891333 -0.07459527 0.012046273 0.06993185
0.068416014 0.058014266 0.08402741 0.02113982 0.057534188 -0.021233706 0.08609146 0.060735557

weight_ih_l1 f4 [512, 128]
00000000: 6a65 acbd a618 253d 7d6e a4bb ef71 a7bc
00000010: 6194 af3d 0061 3e3c 4a2c 8dbc 0d69 633d
00000020: 39ee 303d 1bb3 b73d c16b 99bd 139f 83bd
00000030: 9fd8 963c 3146 2e3c 8901 99bc fad1 183d
00000040: eb79 693d 5576 2bbc 2b5f 4e3c 9654 9f3d
00000050: 0169 0b3c b412 90bd 811d aabd a8a0 5c3d
00000060: cd1f 503c 4655 cabc 4a48 cc3c 7375 683d
00000070: bba3 823d f0d3 cd3c 1ab9 5f3b d8f0 8cbd
00000080: 33c2 6ebc 0900 a3bd 87ad 853c f2d5 d1bb
00000090: bf59 81bc ab5d 9f3c 8ccf 19bd 61f5 3abd
000000a0: fe03 0d3d 4961 adbd c6c9 933d 5615 c6bc
000000b0: 4910 c9bc c895 30bc 3c7e 20bc 72bb b9bd
000000c0: b2f0 0ab9 b791 9cbd a9e6 6abd 2bd9 46bc
000000d0: 4a59 4ebd c790 5c3d aa9d 04bd 7aa7 2a3d
000000e0: f153 a3bd 01fa 9bbd b278 94bd 34b9 cd3c
000000f0: d1f8 cfb7 fd3e 9d3d 7d28 813c 1115 0a3d
00000100: 666e c13b f0ab 933d fa2d 2bbd 6b6e 013c
00000110: eb7d 94bd 783e 963c 22ca 3fbd 5aa8 aebc
00000120: 491c 64bc be83 70bd 087b 98bd 4229 543d
00000130: 4caa bcbd 8b9b 07bc 4a33 973c 0e04 40bd
00000140: da6a 09bc 7ac9 b83d 19d5 873d 4cbd b2bd
00000150: 4964 00bd a553 533c 8fad 453d 00cf 8c3d
00000160: 7190 96bd c7b7 f13c ea3c 913d 9eb1 3e3a
00000170: 0d03 2b3c d099 c6bc bedd b63d 49b8 c0bd
00000180: a29d c03c efd6 59bd eab4 fcbc f2fa 6abd
00000190: bebb 7f3d 9632 993c e482 243a 8af2 0b3d
000001a0: 6a76 9c3d e412 1d3d 3a73 b03c fd75 65bd
000001b0: 8817 5abd 8311 0fbc 786c 88bc bdc7 8bbd
000001c0: 36b5 af3c 7a6a 463c 5047 913d c136 afbd
000001d0: 8c12 ac3d f013 d3bc 9b52 59bc c286 c9bc
000001e0: fe5d 4fbd b431 843b aa77 07bd 2c49 b8bc
000001f0: 05d2 80bd eb73 d63c 25f9 dbbd aa7d 03bd
00000200: 4351 303d e4db a73d 8fe1 4dbc 3feb 59bd
00000210: 5092 c73b 5116 513d 8513 bdbc 12ec 873d
00000220: f805 c03c feab 913d 1441 1bbd 3c76 42bb
00000230: 3c28 493d f8d9 1a3c 2858 af3c 8ae8 b9bb
00000240: 4ef3 3e3d ec22 b9bc d75b 71bd 11b5 a03c
00000250: e239 b13d 7ccb a23d effb fb3b d393 663d
00000260: 4892 0bbd efee b4bc 8ee5 243d 61b2 e0bc
00000270: 702c 89bd 30f4 39bd bacc ad3c 53c9 5dbb
00000280: 612c 873d c9c2 0dbd 2aff b23d 42a2 ac3d
00000290: 0789 b7bd 0fca 943d 2d50 47bd b0dd 8fbd
000002a0: fe3a b33a a7d7 a4bd 0f10 8c3d ebe2 cebd
000002b0: 17c8 c0bb 6384 21bc 197a 023d 57fb 8dbd
000002c0: ead5 d03c 1a30 64bd 9576 723d af1d 16bb
000002d0: 66c4 a9bd 7b44 d9bb f95e 93bc 9902 a0bd
000002e0: 7193 f2bc 21ee 45bd 8cd5 8ebd 82db b4bd
000002f0: 11a4 0d3d 07a0 7dbd f100 9dbd d0c4 8ebb
00000300: 0a1b aabd cb65 57bd 372b 3f3d 3d27 a53d
00000310: 1d1a c63d 146a b5bc 3df9 13bc d30d 52bc
00000320: acf6 c4bc 22b3 b83d b934 1b3d 509d c33b
00000330: 1ad4 57bd a594 a8bd 73f5 0a3d 1b42 113d
00000340: 1b80 ce3d dec2 3cbc cf0c 6ebd bb34 c0bd
00000350: b75c 62bc 2200 7e3d a339 25bc 4cbf 93bd
00000360: 17ec d43c 78c7 f23c ac67 f33c 5193 b63b
00000370: 729a 1abd 3109 30bd 11b7 443d db7a c43c
00000380: 1ba7 55bd 0954 1b3d 9294 803c 6bc3 ec3c
00000390: 6b9c 39bc 83ab b23d 76d6 363c 6b64 d23b
000003a0: 981a 5a3d 33bf 62bd 9c13 e0bc e015 ff3c
000003b0: 1477 a03c fd8d 333c 177e 463d 0956 333d
000003c0: bbeb a9b9 329a 58bb db26 a8bd 796d 1cbc
000003d0: d528 bcbc 4c20 6c3d 323f 293d 03eb 2ebd
000003e0: 9369 893c 2fa6 6cbd 5049 1dbd 0e8b 543d
000003f0: 678b 503d 39ed 18bd b736 793c 4c91 82bd
-0.08417781 0.04030671 -0.005018054 -0.02044007 0.08573223 0.011619806 -0.017233033 0.055520106
0.043195937 0.089697085 -0.074912556 -0.064268254 0.01841384 0.010636852 -0.01867749 0.037309624
0.057001036 -0.010465224 0.012595932 0.07779805 0.008508922 -0.07034817 -0.08306409 0.05386415
0.012702894 -0.024698865 0.024936814 0.056752633 0.06378885 0.025125474 0.0034137429 -0.06881875
-0.014572668 -0.07958991 0.016318096 -0.006403678 -0.015789865 0.019453844 -0.037551448 -0.045644168
0.034427635 -0.08465821 0.072162196 -0.024180096 -0.024543898 -0.010777898 -0.009795722 -0.090689555
-0.00013250372 -0.076449804 -0.05734888 -0.012136738 -0.05037812 0.053849008 -0.032376923 0.041663624
-0.07974995 -0.07616044 -0.07249583 0.025112726 -2.4792187e-05 0.0767803 0.015766377 0.033711497
0.005903053 0.07210529 -0.041791894 0.007899861 -0.072505794 0.018340334 -0.04682363 -0.02132051
-0.013922759 -0.05871939 -0.07445341 0.05179716 -0.09212169 -0.00827683 0.018457074 -0.046878867
-0.008387292 0.090228036 0.06632442 -0.08727512 -0.03134564 0.01289836 0.04826122 0.068754196
-0.07351769 0.029506577 0.070916966 0.0007274392 0.010437739 -0.024243265 0.08929013 -0.094101496
0.023512665 -0.053183492 -0.030847985 -0.057368226 0.062434904 0.018700879 0.0006275608 0.03416685
0.07639773 0.038348094 0.02153932 -0.056020726 -0.053245097 -0.008732202 -0.016653284 -0.068252064
0.021448713 0.012110347 0.0709368 -0.08555365 0.08401975 -0.025766343 -0.013264324 -0.02460039
-0.050626747 0.0040342454 -0.033073105 -0.022495829 -0.06290058 0.02617832 -0.1074088 -0.032102264
0.043046247 0.08196238 -0.012565984 -0.053202864 0.00609044 0.051046673 -0.023080597 0.06636824
0.023440346 0.07112883 -0.03790386 -0.0029672524 0.049110636 0.009451382 0.02140434 -0.005673473
0.046618752 -0.02259966 -0.058925476 0.01961759 0.086536184 0.07948968 0.007689945 0.05629332
-0.03407505 -0.022086589 0.040257983 -0.027428808 -0.06697929 -0.04539889 0.021215785 -0.0033841922
0.066002615 -0.03460959 0.08740075 0.08429386 -0.08961683 0.07265102 -0.048660446 -0.070247054
0.0013674197 -0.08048945 0.068390004 -0.10101875 -0.0058832276 -0.009858224 0.031854723 -0.06932705
0.025492627 -0.055709936 0.05919512 -0.0022905876 -0.08289413 -0.006630478 -0.017989622 -0.078129955
-0.029611321 -0.0483228 -0.069743246 -0.0883093 0.034580294 -0.061920192 -0.07666195 -0.004356958
-0.083059385 -0.05258731 0.046672072 0.08064125 0.096729495 -0.022145309 -0.009031591 -0.012820679
-0.024043404 0.09018542 0.037892077 0.005969681 -0.05269251 -0.08231477 0.033925485 0.035463434
0.10083028 -0.011521069 -0.058117684 -0.093850575 -0.01381605 0.062011845 -0.010084542 -0.07214221
0.025991483 0.02963613 0.02971252 0.0055717607 -0.037744947 -0.042977516 0.04802615 0.023984363
-0.052161317 0.03792194 0.015695844 0.028901776 -0.011328797 0.087241195 0.01115953 0.006420662
0.053248018 -0.055358123 -0.0273531 0.03113836 0.01958803 0.010959146 0.048460092 0.04378322
-0.00032409825 -0.0033050892 -0.08210536 -0.009547585 -0.022968689 0.05764799 0.041320033 -0.042704593
0.016773975 -0.057775673 -0.038399994 0.051890425 0.050914194 -0.03733561 0.015210799 -0.063753694

weight_hh_l1 f4 [512, 128]
00000000: e123 47bd 9835 eabc 373b 5b3d bad4 3b3d
00000010: 49ee a3bd 3a4a 153d 179b ac3d 65c6 1cbd
00000020: ea76 aa3d 7352 2a3d 59ef 3f3d 7b9a 3d3c
00000030: 9403 13bd 802f a53d 63d1 533c 6cde 15bc
00000040: a624 223d e9e2 873d 1956 183d f1a0 8dbc
00000050: f6a8 acbd 06bf 433d 9fbf 313d 8b2f 763c
00000060: 97c5 bc3d 53d5 00bd fe00 a83d da53 503c
00000070: 5b65 a6bd d5b7 ccbd 9939 28bd 2036 d1bc
00000080: 1350 88bc 433a 5e3d 6925 24bd 3027 10bd
00000090: ef29 06bd a2a4 9abd 8194 8bbd e189 523d
000000a0: c31e c8bb 04b3 993d f551 c5bc d7f0 46bb
000000b0: 423d 693d 70a1 aebc e26e 003c 89f9 04bd
000000c0: 19d3 aa3d e611 11bd d138 0dbc cfa5 84bd
000000d0: eb3e 2cbc f656 b4bc a8d3 4ebd 86d7 0ebc
000000e0: 26fb a63d 434d 5e3d 7870 3bbd 80fe 90bd
000000f0: 7038 803d 8b3f 933c 3d5b babc d354 8abd
00000100: 7a40 393d 88da 153b 78f3 283d 9c95 d93c
00000110: aa5e 25bd 8eeb 27bd 03c2 efbc c669 793d
00000120: 5fe5 613c cccc 9f3b ee9f 243d 71bf 743d
00000130: c998 49bd 1f96 87bd 82ae 4ebd 4a1c 8dbd
00000140: d762 d3bc 9a08 003c 07e1 a8bd c94d 613d
00000150: c5e1 8bbd a8f2 a2bd 10f0 bc3d 8614 a0bd
00000160: 85d1 7b3d 65e4 803c 9147 c03d 969f 0fbd
00000170: 6c8e 0dbd 7dd6 52bc 9b10 97bd 01fa f43c
00000180: 02f7 823d ebe2 37bd 8d36 8bbd 6746 00bd
00000190: 73b5 483d 1da9 a73d 5756 c33b 5562 d23c
000001a0: 8768 55bd 2726 9d3d 6972 583c 4748 6e3c
000001b0: 964c 5abd 5b2e 80bd 3266 93bd 5660 123d
000001c0: 8b4b 86b9 9151 3bbd 4035 103d 8d21 703d
000001d0: 5b8d c0bc 894a 86bc dd48 a8bd 45b9 fd3b
000001e0: a4c1 46bd e81e 2bbd 217a 7fbd 807f e9bc
000001f0: 49a4 51bd 93b1 2cbd 50d6 16bd 48f9 04bd
00000200: e2e0 873d 9e4d afbd 58e1 32bc b268 d03a
00000210: 8299 8bbd ffa2 823d 94fa c13d 3e05 d13d
00000220: fd39 503d acfd b93d 4ce0 de3b e38b 6d3d
00000230: b8ba 493d 3bdb ac3d 1593 81bd bfeb 103b
00000240: b71e ebbc c677 a6bd 7877 7fbc e772 d4bb
00000250: 0ec7 61bd 39b2 593d c3b7 893d 28c6 a0bd
00000260: 9860 e23d a9e3 fc3b 635c 76bd 9cd9 c73d
00000270: 0684 63bd cced c93c 5ae5 80bd 487f 10bc
00000280: 3cf6 563c 7c90 293d 8986 7a3d 9a38 773d
00000290: 1e31 a3bd 6b92 a73b 5a58 6fbd fb0c 4dbd
000002a0: 5545 94bd 4c65 a8bd 46e6 9ebd 6f12 923c
000002b0: deec 003d 355c 22bd 19c1 50bd 19ff 5e3d
000002c0: a869 9dbc 4d1a c1bc bd7b ba3c 3b41 663c
000002d0: 7055 a7bd 2d01 63bc 4b6c 253d 4eb8 953d
000002e0: 971c 363d 4cf3 e8bd 0946 84bc e56b 52bd
000002f0: 6777 90bc 6461 1cbd 693d 83bc 9ea5 70bd
00000300: 0eb4 92bd 5fc0 1abd 8daf bdbd 4684 6abc
00000310: c324 c6bd fef3 4fbd be42 8ebd 6248 933b
00000320: 3ed4 91bd af61 253d ca4e acbd 9414 8bbc
00000330: 1157 8e3d 6d58 993d e164 6ebd 143f 5d3d
00000340: 1f66 a1bd 6d73 a63c bd3a 1e3d 0687 39bd
00000350: 1aaa acbc bd5f 8f3d d6bd 793d 86aa 7ebd
00000360: 1ce7 bb3d ddca 1e3d d24c a1ba dfca 563d
00000370: 78eb f33c 7bb9 933c d42e ad3d c814 263c
00000380: b008 a5bd f268 6fbd 3834 a6bc b6a0 16bd
00000390: c483 173d 807c 73ba d8e4 8e3c e378 fd3c
000003a0: 8c09 f4bc e5cd 7fbd c2e0 8cbc e73c 3e3c
000003b0: 4fb3 28bc 7bbf 903d 420a 55bb eebe c93c
000003c0: 725b b4bd b054 b43d 56b3 a1bc 9965 32bd
000003d0: b83a 8cbc a8d9 bebd e650 44bd 5c18 73bd
000003e0: 6008 7b3d 2a4a 44bd 2a6e 843d dabf dfbd
000003f0: d220 833d 438d 99bd 321e 70bc c96a 8c3d
-0.0486182 -0.028590009 0.05352327 0.04585717 -0.08004434 0.03644774 0.084280185 -0.03827514
0.08323462 0.041582536 0.04685912 0.011572476 -0.035892084 0.080657005 0.01292834 -0.009147268
0.039585732 0.066350766 0.037191484 -0.017288657 -0.08430664 0.047789596 0.043395635 0.015025984
0.09217375 -0.03145344 0.08203314 0.012715304 -0.08124801 -0.09996001 -0.041070554 -0.025538504
-0.016639745 0.05425478 -0.04007474 -0.035193622 -0.032754835 -0.075509325 -0.06815434 0.051401023
-0.0061071827 0.07504848 -0.024086932 -0.0030355954 0.056943186 -0.021317214 0.0078389365 -0.032464538
0.08341045 -0.03541746 -0.008619503 -0.06476938 -0.010513048 -0.022014122 -0.05049482 -0.008718377
0.081533715 0.0542729 -0.045761555 -0.07079792 0.062607646 0.017974636 -0.022748584 -0.0675446
0.045227505 0.002286585 0.041247815 0.026560597 -0.04037348 -0.040996127 -0.029267317 0.06089189
0.0137875965 0.0048767086 0.040191583 0.059752885 -0.049217973 -0.0662043 -0.050459392 -0.06890161
-0.025803966 0.007814551 -0.082460456 0.055005822 -0.068301715 -0.07956439 0.09225476 -0.078164145
0.06147911 0.015733907 0.0938865 -0.035064302 -0.034559652 -0.012868521 -0.07376214 0.029904367
0.06394769 -0.04489414 -0.06797514 -0.03131714 0.04900117 0.08186553 0.0059612202 0.025681654
-0.05210164 0.076732926 0.013210871 0.014543599 -0.053295694 -0.062588416 -0.071972266 0.035736404
-0.00025614756 -0.045732085 0.035207033 0.058625747 -0.023504904 -0.016392963 -0.082170226 0.007743033
-0.048524514 -0.04177752 -0.06237233 -0.02850318 -0.051182065 -0.042161535 -0.036825478 -0.032464296
0.0663469 -0.08559726 -0.010917984 0.0015900342 -0.06816389 0.06378745 0.09471622 0.10206078
0.050836552 0.09081587 0.0068016406 0.057994734 0.049250335 0.084402524 -0.06326882 0.0022113172
-0.02870117 -0.08128314 -0.015592448 -0.006483424 -0.055121474 0.053148482 0.06724503 -0.07850295
0.1105358 0.007717569 -0.0601467 0.097583026 -0.05554583 0.024649523 -0.06293745 -0.008819409
0.01312023 0.041397557 0.06116346 0.060356714 -0.07968353 0.00511389 -0.058433868 -0.050061207
-0.072397865 -0.08222446 -0.07758765 0.017831055 0.031475894 -0.039638717 -0.050965402 0.0544425
-0.01921542 -0.023572112 0.022764081 0.014053638 -0.08170593 -0.013855261 0.04038648 0.07310544
0.04446086 -0.1137453 -0.016146677 -0.051372427 -0.01763506 -0.038178816 -0.016020494 -0.058751695
-0.07163249 -0.037781116 -0.09261999 -0.014313763 -0.096749805 -0.0507698 -0.06946324 0.0044947127
-0.0712056 0.04037636 -0.08413465 -0.016977586 0.069502 0.07487569 -0.058201674 0.054015234
-0.07880806 0.020318711 0.038630236 -0.045294784 -0.021077204 0.070006825 0.060972057 -0.062174343
0.0917494 0.038767684 -0.001230622 0.052439567 0.029775366 0.01803278 0.084561974 0.010136791
-0.08058298 -0.058449693 -0.020288572 -0.03677436 0.036990896 -0.00092882663 0.017443106 0.030941432
-0.029789709 -0.062452216 -0.017197017 0.0116112 -0.010296657 0.07067772 -0.0032507335 0.024627175
-0.08806504 0.08805215 -0.019738834 -0.043553922 -0.017117843 -0.093188584 -0.047928713 -0.059349403
0.061287284 -0.04792229 0.064663246 -0.10925265 0.06402744 -0.07497647 -0.014655637 0.06856305

bias_ih_l1 f4 [512]
00000000: 64b4 4dbd 952a 1c3c 377e 17bd 46d5 25bd
00000010: 0f37 4c3c af2f c1bc 004d c2bc 9b62 af3d
00000020: 19f4 9d3d 5db8 8c3d 46e7 c43d e9ee 33bd
00000030: 99c3 21bd 4c56 18bd a805 b03d a010 91bc
00000040: ab21 c3bc a569 363d 4513 c7bb 99d9 d03c
00000050: e249 6c3d 63ab 1a3d 765c 98bc e809 1abd
00000060: bdc1 5fbd 7bbb 1e3d 9e19 08bd 2b06 96bc
00000070: 518a e63c c480 6abb 31f5 00bd 497c 453d
00000080: a9d2 b03d 7242 b93d 0068 ab3d 88ab 9dbc
00000090: 4f2e aabc b056 1c3d 077a 293d 89ca 6abd
000000a0: 0ef5 2d3c 342d 89bd 3fce a63d df33 49bd
000000b0: cabf 07bc c963 e1bc 818c 54bd 396e 0a3d
000000c0: 8c69 f9ba 8fe6 b23d cdb6 c3bc bfc0 e93b
000000d0: 1766 90bd a1e7 50bd 6ef1 bd3d 7c6b 95bd
000000e0: cd4b 803d 5f02 59bd 0123 0a3e 0ac6 3ebd
000000f0: f467 babc a36d 693d 63c3 993c 8292 21bc
00000100: 9a2c 91bd d857 933a 01c1 60bd 9b7b 97bd
00000110: 3033 91bd 78a5 8a3d b77a 843d 74a2 19bd
00000120: 3d5f 20bd 3d6e c5bc 3d7d be3d f7ef 53bd
00000130: b2c3 9e3d 1c25 41bd a682 fd39 32d4 dc3d
00000140: 0b89 153d 355c 1b3d ce32 98bc db56 7b3d
00000150: c3c3 81bd 4d34 50bc a492 973c 7c33 6fbd
00000160: 2571 8dbd b638 97bd 79f9 3d3c 1e48 4eba
00000170: 30a4 fcbc e158 b3bb 652f e83c eba3 993d
00000180: bfb0 783d 5c21 1dbd 6fc9 a93d 5111 893c
00000190: 2d17 b13d 0a9d 973d f7ac 813d 6b57 32bc
000001a0: bd62 f43c 1621 f2bc 8012 6fbd 8d98 e8bc
000001b0: c7be 18bd 1eaa 923d 2c52 6ebd 7624 c73d
000001c0: 0c76 2d3d 9770 7c3b 64a0 e4bc e9cf 3cbd
000001d0: f86d 2b3d 2c47 983c b41d 9f3d c972 073d
000001e0: 4018 f93d d46e 89bc ae42 163d e2fb 553d
000001f0: 4d7e b33d 3f42 123d 79fc 05bd ac11 8e3d
00000200: 11bc 22bd 171f c93c 36be 963d bc63 60bc
00000210: 55d3 a53c af44 103d 37b4 afbc eab0 12bd
00000220: 8fff 98bc e053 8a3c 2188 13bd 0349 173d
00000230: 62a5 b73c 116a 973d 5065 4f3d 4266 ddbc
00000240: afb5 9ebd cddf 093d d3a3 fdbb f029 1e3d
00000250: b71b a03d a4f8 72bd a14d ac3d d112 de3c
00000260: 641d 2a3d 0148 743d 46da 06bc e633 053d
00000270: 51ff 963c c615 85bd 441b 7fbc 6c39 96bd
00000280: 3c3f d6bc f8bb 46bd b06b 823d 8e61 683d
00000290: cee8 a73d 482f ebbb ddd9 403d c047 6d3d
000002a0: 3320 12bd 413e 3ebd d103 d8bd ae46 a7bd
000002b0: 9bf1 9abd 0c5a 4f3d c8ae 353d 00ac 233d
000002c0: 3c99 cf3c 07dd 83bd 192a e23a 8c7d 8b3d
000002d0: c223 13bd 01b8 e83c b6db 3e3d 7205 533c
000002e0: 1a3b 16bd 6043 bbbc 4895 453d aaf0 a03d
000002f0: b1c8 56bd b2fe 84bd 9603 ee3c 7316 adbd
00000300: 0615 37bd 0aa2 4b3d ed65 a6bd cd4c b63b
00000310: c909 cfbc d3ce 7d3c e25b 7c3d 3d37 28bd
00000320: a06f 173d ab47 803d cbc5 573d 2ab5 77bd
00000330: 0a8a a13d 55d8 98bd 446c 883c dd05 12bb
00000340: fb37 893d 2d0b 60bd ab72 093c 7cd1 513d
00000350: 10c7 b6bd d721 cd3a 829d 843d 7360 14bd
00000360: 1d8f 1ebc 8531 443c d69b a7bd cb3f 803d
00000370: aba1 4c3d 60e0 1e3d 3287 aebd 0857 713d
00000380: 707c 8dbd bd52 80bd 2686 93bd 2393 71bd
00000390: baf1 a53d 3dff deb8 9bc5 63bc c689 803d
000003a0: 8dc3 d43c 912c 52bd e9d8 833d f319 433d
000003b0: e308 38bd 13d6 37bd 625a 9f3d 5fb3 40bd
000003c0: 8180 34bc 2e4e 123d 8e39 a8bd b1ad 03bc
000003d0: 5a0e c2bd f009 e23c 306d 34bd 6796 4c3c
000003e0: 0bfd 54bb 0505 51bd 38e4 0e3b 14df ea3c
000003f0: 0923 c23d d459 4abd dc5a c4bd 1dd0 6cbd
-0.050220862 0.009531637 -0.036985602 -0.040486597 0.012464299 -0.023582308 -0.023718357 0.085637294
0.077125736 0.06871102 0.096144244 -0.043929014 -0.039493177 -0.037191674 0.08594829 -0.017708123
-0.023819765 0.044534344 -0.006075295 0.025494384 0.057687648 0.037761103 -0.018598776 -0.037607104
-0.054628123 0.038753014 -0.033227555 -0.018313488 0.028142126 -0.0035782317 -0.031483833 0.04821423
0.0863393 0.090458766 0.08369446 -0.019246832 -0.020774035 0.03816861 0.04137614 -0.05732206
0.010617508 -0.06698075 0.08144807 -0.049121734 -0.008285472 -0.027513402 -0.051891807 0.033796523
-0.0019028648 0.08735382 -0.023890877 0.007133573 -0.07050722 -0.05100215 0.09274565 -0.07295892
0.06264458 -0.052980777 0.13489915 -0.046575584 -0.022754647 0.056989323 0.018769925 -0.00986159
-0.07088585 0.001124139 -0.054871563 -0.07396623 -0.07089841 0.06769842 0.064687185 -0.037508443
-0.039153326 -0.024100417 0.09301231 -0.05174252 0.0775217 -0.04715453 0.0004835326 0.107826605
0.036507647 0.037929732 -0.018578913 0.06136213 -0.06336167 -0.012707782 0.01850254 -0.05839871
-0.06906346 -0.07383864 0.011595123 -0.00078690227 -0.03084001 -0.0054732417 0.028342912 0.07501968
0.060715433 -0.038361892 0.082903735 0.01673189 0.086469986 0.07403 0.063318186 -0.0108851
0.029832238 -0.029556792 -0.058367252 -0.028393054 -0.037291314 0.071613535 -0.058183834 0.09723751
0.042348906 0.0038519257 -0.027908511 -0.046096716 0.04185292 0.018588625 0.07769337 0.033068452
0.121628284 -0.01677648 0.036684684 0.052242167 0.08764324 0.03570771 -0.03271148 0.069369644
-0.039730135 0.024550958 0.073604986 -0.0136956535 0.020242373 0.03522175 -0.021448238 -0.03581325
-0.018676547 0.016885698 -0.036018495 0.036934864 0.022417728 0.073932774 0.05063373 -0.0270263
-0.07749497 0.0336607 -0.0077404766 0.038614213 0.07817786 -0.059319153 0.08413244 0.027108582
0.041531935 0.05963898 -0.008230751 0.032520197 0.018432291 -0.064982936 -0.0155704655 -0.07335171
-0.0261532 -0.048519105 0.06368196 0.05673366 0.08198701 -0.007177267 0.04708277 0.057929754
-0.03567524 -0.04644609 -0.10547603 -0.08167778 -0.07565614 0.050622985 0.044356138 0.039958954
0.025341623 -0.06438642 0.0017254978 0.068110555 -0.035922773 0.028408052 0.04659625 0.012879716
-0.036677457 -0.022859275 0.04823807 0.07858403 -0.052437488 -0.06493892 0.029054444 -0.084515475
-0.044697784 0.04971508 -0.081249095 0.0055633546 -0.02527322 0.015491205 0.061611064 -0.041068304
0.03697169 0.062636696 0.052678864 -0.060475506 0.07887657 -0.07463137 0.016653188 -0.0022281327
0.067001306 -0.054698158 0.008389155 0.05122517 -0.08924687 0.0015650344 0.06475355 -0.036224794
-0.009677676 0.011974697 -0.0818402 0.062621675 0.049958866 0.0387882 -0.0852188 0.05892089
-0.069085 -0.06265781 -0.07203321 -0.05897821 0.08102746 -0.00010633327 -0.013902093 0.06276278
0.025972152 -0.051312033 0.06437857 0.04763217 -0.04493035 -0.04488189 0.07780911 -0.04704606
-0.011016966 0.03571909 -0.08214103 -0.008037017 -0.094753936 0.02759263 -0.04404944 0.012487031
-0.0032499458 -0.051030178 0.002180351 0.028670825 0.09479339 -0.049402073 -0.095876426 -0.05781566
